api/model/NIDS_Model_1.pth (torch, 766204 bytes, 8 tensors)

fc1.weight f4 [512, 47]
0	0xbc166f47	-0.009181804
1	0x3d98ee62	0.07467343
2	0xbe01def4	-0.12682706
3	0xbdbf8d65	-0.09353141
4	0xbd895751	-0.067061074
5	0xbcaf9778	-0.02143453
6	0x3d60d4cb	0.054890435
7	0xbdff7110	-0.12472737
8	0xbd269328	-0.040667683
9	0x3c946958	0.018116638
10	0x3dbc1c1b	0.09185048
11	0xbc4be9f2	-0.012445914
12	0xbc3026f7	-0.010751477
13	0x3d67b2cc	0.056567
14	0xbdc423fb	-0.09577175
15	0xbda578e8	-0.08079702
16	0xbdb54ea0	-0.08852887
17	0x3d134364	0.03595294
18	0x3d155652	0.036459275
19	0x3bd6ee9c	0.006559206
20	0x3d976281	0.07391835
21	0xbe07cc57	-0.13261543
22	0xbd252590	-0.040319026
23	0x3d7419ce	0.05959492
24	0xbdf3b00d	-0.118988134
25	0x3c73830d	0.014862788
26	0x3c0c7429	0.008572617
27	0xbc3457f3	-0.011007297
28	0xbd0805ce	-0.03320866
29	0x3ca43cbf	0.020048497
30	0x3a2e8833	0.00066578685
31	0xbc2a65f3	-0.010400283
32	0x3db40108	0.08789259
33	0xbd7a1b9f	-0.061061498
34	0x3d0ea686	0.034826778
35	0xbdf9d9b8	-0.1219973
36	0xbe036d9e	-0.12834784
37	0xbe0e4544	-0.1389361
38	0x3ded55b6	0.11588614
39	0xbe123472	-0.14277819
40	0xbc164489	-0.0091716135
41	0x3dde7aba	0.10863252
42	0x3da1631c	0.07880232
43	0xbdf97729	-0.12180931
44	0x3d31f503	0.043446552
45	0xbcb3072f	-0.021854011
46	0x3df8b087	0.12143045
47	0xbb5f4e88	-0.0034073908
48	0x3d29c8f6	0.041451417
49	0x3d307671	0.043081705
50	0x3d36eea1	0.044661168
51	0x3d9b5f40	0.07586527
52	0x3ddcc59b	0.10779878
53	0xbe0c93a9	-0.13728203
54	0x3d0f4204	0.034975067
55	0xbda84fe2	-0.082183614
56	0xbd9d7b14	-0.07689491
57	0xbe0448f9	-0.12918462
58	0x3deae650	0.1146971
59	0xbc0bbfb9	-0.008529597
60	0x3ddfe712	0.10932745
61	0xbdf70bab	-0.12062772
62	0x3d9e90e1	0.07742477
63	0xbd935e83	-0.07195761
64	0x3de3a8f8	0.111162126
65	0xbd26709b	-0.040634733
66	0x3c4d1370	0.012516841
67	0x3db1767e	0.08665179
68	0x3e141561	0.1446128
69	0xbd2f09e9	-0.04273406
70	0x3c12be5d	0.008956519
71	0x3db2f617	0.08738344
72	0xbac815f3	-0.001526533
73	0x3de15dc1	0.1100421
74	0x3ce00515	0.027346173
75	0xbd239ab5	-0.039942462
76	0xbdd15863	-0.102219366
77	0x3e06ec67	0.13176118
78	0xbda3b9f3	-0.079944514
79	0xbd675ac4	-0.056483045
80	0x3c246b18	0.010035299
81	0x3d9acacc	0.07558212
82	0xbd900f8c	-0.07034215
83	0x3c795a76	0.0152193215
84	0xbd960af0	-0.07326305
85	0x3da37d27	0.07982855
86	0x3c0438b3	0.008070159
87	0x3da6d157	0.08145397
88	0xbdec0c1c	-0.11525747
89	0xbd2ce1d9	-0.042207573
90	0xbd06cfad	-0.0329129
91	0x3e03e34d	0.12879677
92	0xbd84e08e	-0.06488143
93	0x3de087fd	0.10963438
94	0x3d169f77	0.03677317
95	0xbdcdeaef	-0.10054576
96	0x3dc74f8e	0.09731971
97	0x3d2b940d	0.04188924
98	0xbe0ac6fd	-0.1355247
99	0xbd9281d2	-0.071536675
100	0xbdaae101	-0.08343697
101	0x3dd95949	0.10612733
102	0x3cc143fc	0.023591988
103	0xbe0c84f1	-0.13722588
104	0xbb862674	-0.0040939394
105	0x39ebcf1a	0.00044976996
106	0x3e0a2538	0.1349076
107	0x3d9044fb	0.07044407
108	0x3d297701	0.041373257
109	0x3d6f693a	0.05844996
110	0x3d1bb85b	0.038017612
111	0xbdb15d96	-0.08660428
112	0x3bb6b78c	0.0055760797
113	0xbd6fba0d	-0.05852704
114	0x3dcbc5c1	0.09949828
115	0x3bd6af03	0.0065516247
116	0xbdaeef94	-0.0854179
117	0x3ca12bd9	0.019674229
118	0xbd093a6f	-0.033502992
119	0xbdc08523	-0.09400394
120	0xbd8c30ab	-0.0684522
121	0xbba4d80e	-0.0050306385
122	0x3bf67ab7	0.007521953
123	0xbda2bc54	-0.07946077
124	0x3e09cc64	0.13456875
125	0xbdd11c7d	-0.10210512
126	0xbd80b8b5	-0.0628523
127	0x3dda517a	0.10660072
128	0x3d0d8398	0.034549326
129	0xbe15401d	-0.14575239
130	0x3bc9c591	0.006157585
131	0x3dab5f13	0.08367743
132	0xbe104758	-0.14089715
133	0x3c4f6e27	0.01266054
134	0x3c9c46e7	0.019076778
135	0xbdcc4402	-0.09973909
136	0xbdf6b10f	-0.1204549
137	0xbd6236ae	-0.055227928
138	0x3e02833e	0.12745377
139	0xbddc6d8d	-0.10763083
140	0x3cb5f7bc	0.022212856
141	0x3db998b2	0.090623274
142	0x3d9ae194	0.07562557
143	0xbd5b6fcd	-0.05357342
144	0xbc6f1b97	-0.01459398
145	0xbe062b56	-0.13102469
146	0xbdc1eb0e	-0.09468661
147	0x3d6e23d6	0.058139645
148	0xbdc13c1b	-0.09435292
149	0x3dfa4cab	0.122216545
150	0x3da59f68	0.08087045
151	0xbc96a59c	-0.018389516
152	0x3c4503aa	0.012024799
153	0x3d81745d	0.06321023
154	0x3c95d522	0.018290106
155	0xbde992d6	-0.1140496
156	0x3c3f712e	0.011684699
157	0x3db52403	0.08844759
158	0x3dbd564a	0.09244974
159	0x3d684190	0.05670315
160	0x3dd6d67a	0.10490127
161	0xbe013829	-0.1261908
162	0xbda2b517	-0.079446964
163	0x3e07e06d	0.13269205
164	0x3dae282c	0.08503756
165	0x3d95b732	0.07310332
166	0x3d2f30d6	0.042771183
167	0x3e0e3c37	0.13890158
168	0xbdbbffc3	-0.09179642
169	0x3df7b981	0.12095929
170	0xbddcda2a	-0.10783799
171	0x3bb29ad7	0.0054505873
172	0xbe040977	-0.12894236
173	0xbe0c2a95	-0.13688119
174	0x3d877059	0.066132255
175	0xbdd980a2	-0.10620238
176	0x3dd0336a	0.101660565
177	0x3d415e7a	0.04720924
178	0xbd1a18c5	-0.03762128
179	0xbcbb4bde	-0.022863325
180	0x3dddd4a9	0.10831577
181	0xbd832fc6	-0.064055964
182	0xbe10671e	-0.14101836
183	0x3c6aac2d	0.0143232765
184	0x3e0afc68	0.13572848
185	0xbd2275a1	-0.03966296
186	0x3ca5ba09	0.02023031
187	0xbcbf3e2a	-0.023345072
188	0x3cbf582a	0.02335747
189	0xbd1236a7	-0.03569665
190	0xbca5437c	-0.02017378
191	0x3c9709e4	0.018437333
192	0xbd9a2a62	-0.07527615
193	0xbc9cdf55	-0.019149462
194	0xbe077dda	-0.13231602
195	0x3d11d272	0.035601087
196	0x3dfe03b3	0.12403049
197	0x3adbadf5	0.0016760217
198	0x3ddd2baf	0.107993476
199	0x3c82f279	0.01598476
200	0xbca74b05	-0.020421514
201	0xbdcfe5e8	-0.10151273
202	0xbdc8e383	-0.098090194
203	0xbd4c95a5	-0.0499474
204	0x3cb1071f	0.02160984
205	0xbd9e58c2	-0.07731773
206	0x3d318fcc	0.043350026
207	0xbd192a63	-0.03739394
208	0x3d69e718	0.057105154
209	0xbc9bbb17	-0.01901011
210	0x3cc5cbaf	0.024144975
211	0xbd11fc5d	-0.035641063
212	0xbd0309f5	-0.031991918
213	0x3dd77c3f	0.10521745
214	0xbe03150f	-0.12801002
215	0xbc985290	-0.018594056
216	0xbe07857c	-0.13234514
217	0xbd6cd811	-0.057823244
218	0x3e037728	0.12838423
219	0x3e09a4d8	0.13441789
220	0xbcc09613	-0.023509061
221	0x3dbfa081	0.093567856
222	0xbcc89b7e	-0.024488207
223	0x3e14fecf	0.14550327
224	0x3d9c663f	0.076366894
225	0x3da58194	0.08081356
226	0xbde1893d	-0.11012504
227	0x3d79284d	0.06082945
228	0xbe063d3e	-0.131093
229	0xbe0b8ba6	-0.1362749
230	0x3e137283	0.14399152
231	0xbdf712ca	-0.120641306
232	0xbdb69d75	-0.08916751
233	0xbd3293c0	-0.043597937
234	0xbe0ee7d4	-0.13955623
235	0xbdb35cfa	-0.08757968
236	0xbc4c2e48	-0.012462206
237	0xbd3aa14b	-0.045563977
238	0xbd45491e	-0.048165433
239	0x3dfc4188	0.123171866
240	0xbdeed24a	-0.11661203
241	0xbda1f839	-0.07908673
242	0xb8f94885	-0.00011886753
243	0x3ca83dbd	0.020537252
244	0x3d82d817	0.06388872
245	0xbdaf99de	-0.0857427
246	0x3dbb7a5c	0.091541976
247	0xbbd74461	-0.0065694307
248	0xbdbc33aa	-0.09189542
249	0xbc61d9ad	-0.013784808
250	0x3dc10771	0.094252475
251	0x3cb39525	0.021921704
252	0xbd850c61	-0.06496502
253	0xbe0e784c	-0.13913077
254	0xbdf93420	-0.12168145
255	0x3922f7b9	0.00015541808

fc1.bias f4 [512]
0	0xbdf618a9	-0.12016422
1	0x3dd43bd9	0.103629775
2	0x3dc6f02e	0.097137794
3	0xbd99c8c8	-0.07508999
4	0x3d568d0b	0.052380603
5	0x3de578f5	0.11204711
6	0xbcd78de5	-0.026312778
7	0xbe09f6a5	-0.13472994
8	0x3d6cc3a5	0.05780377
9	0xbd06cd29	-0.0329105
10	0x3c775539	0.015096002
11	0x3b298656	0.0025867424
12	0xbdf46a57	-0.11934345
13	0xbdad1cf5	-0.08452789
14	0xbd661eb7	-0.056181636
15	0xbd34aabf	-0.04410815
16	0x3d6c9e1a	0.057767965
17	0xbdb28e68	-0.08718568
18	0xbc828881	-0.01593423
19	0xbdb2509d	-0.08706782
20	0xbe12ed28	-0.1434828
21	0x3d0d187e	0.034447186
22	0x3d0b5501	0.034016613
23	0xbbccb5a5	-0.0062472397
24	0xbdc8f41f	-0.098121874
25	0x3d80cf51	0.062895425
26	0xbd659dae	-0.05605858
27	0xbca9d90b	-0.020733377
28	0xbdd92728	-0.106031716
29	0xbdcdd158	-0.10049695
30	0xbdba6b82	-0.09102537
31	0xbe03d0b7	-0.12872587
32	0xbc913dd3	-0.017729675
33	0x3d9703a3	0.073737405
34	0xbe13a15a	-0.1441702
35	0x3c8b8dd6	0.017035406
36	0x3da714d0	0.081582665
37	0x3dd6953b	0.10477682
38	0xbe0dd8e6	-0.13852271
39	0x3e0c4c5d	0.13701005
40	0xbce770e7	-0.028252078
41	0xbda4345c	-0.08017799
42	0xbdb60cb2	-0.0888914
43	0xbce44b41	-0.027867915
44	0x3c36c990	0.011156455
45	0xbd1abed6	-0.03777965
46	0x3e05a341	0.13050558
47	0xbbfc8d0e	-0.0077072447
48	0xbb4dc8e5	-0.003140026
49	0xbdeff743	-0.11717083
50	0xbdda1ab9	-0.10649628
51	0x3d082d5a	0.033246376
52	0xbe075e9c	-0.13219684
53	0xbd99d2f4	-0.07510939
54	0xbdf028f9	-0.11726565
55	0xbd46bdbf	-0.0485208
56	0x3daf4f18	0.08560008
57	0xbe00a36a	-0.12562338
58	0x3e0252c9	0.12726893
59	0xbdf1abf9	-0.11800379
60	0x3de15063	0.11001661
61	0xbdb01364	-0.085974485
62	0x3df56864	0.119828016
63	0xbd02383e	-0.031791918
64	0x3dd0b750	0.10191214
65	0xbd9ad5df	-0.07560324
66	0xbdcf28f9	-0.10115237
67	0xbe01cd50	-0.12675977
68	0xbdaf0d2a	-0.08547433
69	0x3d17ff1c	0.037108526
70	0x3dd6b53b	0.10483786
71	0xbe0e78d2	-0.13913277
72	0xbbcec6b3	-0.006310308
73	0x3d864ab6	0.06557219
74	0xbb8ac48b	-0.0042348555
75	0xbc667d87	-0.014068014
76	0x3de85b2c	0.11345515
77	0xbd8aa978	-0.06770605
78	0x3d9d1f42	0.076719776
79	0xbb92f7fb	-0.004485128
80	0xbd07b0ba	-0.033127524
81	0x3cfd3e3e	0.030913468
82	0xbaad63e2	-0.001322862
83	0xbdfbf474	-0.12302485
84	0xbd10c44d	-0.035343457
85	0xbd9fa9f6	-0.07796089
86	0x3d1e71d8	0.03868279
87	0x3cf3052c	0.029665552
88	0xbd94c0cd	-0.07263336
89	0x3e0ed96d	0.13950129
90	0x3e07d9f7	0.1326674
91	0x3e021be2	0.12705949
92	0xbdd2ab26	-0.1028655
93	0xbe00f46a	-0.12593237
94	0x3d450a9d	0.048105825
95	0x3d8da851	0.069168694
96	0x3e1287ac	0.14309567
97	0xbc29ffc5	-0.010375922
98	0xbc274fb9	-0.010211878
99	0x3d27e365	0.040988345
100	0xbd70b83d	-0.058769453
101	0x3dd6fca8	0.10497409
102	0x3d111860	0.035423636
103	0xbcce2d65	-0.02516813
104	0x3dbfb007	0.093597464
105	0x3c9d9d49	0.019240038
106	0xbd86e328	-0.06586295
107	0xbbb66753	-0.0055665164
108	0xbe066c18	-0.13127172
109	0xbd2b7872	-0.041862912
110	0x3d546a1b	0.051859003
111	0x3da9f4c6	0.0829864
112	0xbd4dcdb0	-0.050244987
113	0x3d15996b	0.036523264
114	0x3cdfc85e	0.027317222
115	0xbd9bc774	-0.07606402
116	0x3df79a41	0.120899685
117	0x3d6f11da	0.058366634
118	0xbdfd9b32	-0.12383117
119	0x3c88a48a	0.01668002
120	0xbd45755e	-0.048207633
121	0xbdf9c0f0	-0.12195003
122	0xbd9723e7	-0.07379895
123	0x3e02ece9	0.12785687
124	0x3cddd864	0.027080722
125	0xbe0dffc7	-0.13867103
126	0xbdfa55dc	-0.122234076
127	0x3dcf3440	0.10117388
128	0x3da834d3	0.082132004
129	0xbd36622a	-0.04452721
130	0x3c3d9689	0.011571535
131	0xbd3e0817	-0.046394434
132	0x3d1c5ac7	0.03817251
133	0xbe06c6a9	-0.1316172
134	0x3dd1712c	0.10226664
135	0xbcd232fb	-0.025659075
136	0x3d5c18bb	0.053734522
137	0xbddf37dc	-0.10899326
138	0xbe047cd4	-0.12938243
139	0x3dc8c1b5	0.09802572
140	0xbe10d361	-0.14143135
141	0xbdba81a0	-0.09106755
142	0x3dc3b8cf	0.09556734
143	0xbd1e76c5	-0.038687486
144	0xbcc821d7	-0.024430199
145	0x3db119c2	0.08647491
146	0xbdf819c4	-0.121142894
147	0x3cafc22c	0.021454893
148	0x3d84cd7c	0.064845055
149	0x3da26bdb	0.07930728
150	0xbe10a4ef	-0.14125417
151	0x3d21da60	0.0395149
152	0xbc1521c1	-0.009102286
153	0x3c0b5208	0.0085034445
154	0x3dee87cd	0.11646996
155	0xbe134659	-0.14382304
156	0x3bd1c5f3	0.006401771
157	0xbc758e7d	-0.014987585
158	0x3d140c2d	0.036144424
159	0x3cf17673	0.029475426
160	0xbda9f9f6	-0.082996294
161	0x3d270534	0.040776446
162	0xbc8b1049	-0.016975539
163	0xbda0499a	-0.078265384
164	0x3da48b39	0.08034367
165	0xbe04ad0c	-0.12956637
166	0x3d0f5a10	0.034998
167	0x3d102408	0.035190612
168	0xbdb39c4b	-0.08770045
169	0x3d124501	0.03571034
170	0xbd3dd236	-0.04634305
171	0xbe060ad6	-0.13090071
172	0x3dcab6d8	0.09898156
173	0x3ccd2407	0.025041593
174	0xbc85a2f5	-0.016313056
175	0xbd06c456	-0.032902084
176	0xbe0157da	-0.12631169
177	0x3e0b4156	0.13599142
178	0x3dfa5fb9	0.12225289
179	0x3daed144	0.08536008
180	0x3c92151f	0.017832337
181	0x3ba8ed9e	0.0051552793
182	0xbdcc4ee5	-0.099759854
183	0xbd19ecd8	-0.037579387
184	0x3db08020	0.08618188
185	0x3d2d2b1b	0.042277437
186	0x3dd9a00a	0.10626228
187	0x3df8475c	0.12122986
188	0xbd8644f8	-0.065561235
189	0x3c7d8724	0.015474115
190	0xbde41ba1	-0.11138082
191	0x3dca000a	0.09863289
192	0x3da8033d	0.08203743
193	0x3db61e43	0.08892491
194	0xbde1b2bd	-0.1102042
195	0xbda0ed43	-0.07857754
196	0xbdc40023	-0.095703386
197	0xbd844985	-0.06459335
198	0x3c2aa4ab	0.010415236
199	0xbe02772e	-0.12740776
200	0x3c9c5683	0.01908422
201	0xbdd9c88e	-0.10633956
202	0x3ccec5d3	0.025240814
203	0x3cefac1b	0.029256871
204	0xbcccc509	-0.024996297
205	0x3b0d79b2	0.0021587429
206	0x3dd905b7	0.10596793
207	0xbe0a25df	-0.13491009
208	0xbd137fed	-0.03601067
209	0xbd6c862e	-0.05774515
210	0x3e11b836	0.14230427
211	0xbdbaa387	-0.091132216
212	0xbe0c3659	-0.13692607
213	0xbd0841ae	-0.033265762
214	0x3d60867c	0.054815754
215	0x3e11cfe3	0.14239459
216	0x3d7dea79	0.06199119
217	0xbdfc6987	-0.12324815
218	0xbcb4a9d1	-0.022053631
219	0xbd71cac7	-0.059031274
220	0xbda62296	-0.081120655
221	0x3da9dec7	0.082944445
222	0x3bfb1ec9	0.007663582
223	0x3d437ad1	0.04772455
224	0xbda66461	-0.081246145
225	0xbdb5f60d	-0.08884821
226	0x3dd3254f	0.103098504
227	0x3da4a263	0.08038785
228	0xbe0f4f3b	-0.13995068
229	0x3dda96c5	0.10673288
230	0xbc154fec	-0.009113293
231	0xbddbf731	-0.107405074
232	0xbc1e09a0	-0.0096458495
233	0x3dc36040	0.095398426
234	0x3dcb798a	0.09935291
235	0x3c9cf094	0.019157685
236	0x3dde1bb5	0.108451284
237	0xbd96ca18	-0.07362765
238	0x3cad5dcb	0.021162888
239	0x3cdc4969	0.026890473
240	0x3d7dbad5	0.061945755
241	0xbdf229d3	-0.118243836
242	0xbdbf7ca3	-0.093499444
243	0xbcdb65b8	-0.026781902
244	0xbe146fd7	-0.14495789
245	0x3e0fc1be	0.1403875
246	0xbcf1eeef	-0.029532878
247	0xbcf53a94	-0.029935159
248	0xbe04c726	-0.12966594
249	0xbde9bb3e	-0.11412667
250	0xbda1ecf6	-0.07906525
251	0x3dea012f	0.11426007
252	0xbe0abfa2	-0.13549665
253	0xbd809313	-0.06278052
254	0x3b8e6179	0.0043451157
255	0x3d6acda2	0.057325013

fc2.weight f4 [256, 512]
0	0xbb805e14	-0.003917465
1	0xbbaf1beb	-0.0053439043
2	0x3d33cc8a	0.043896236
3	0x3d25f581	0.040517334
4	0xbb844654	-0.004036704
5	0x3d0e05a8	0.034673363
6	0x3d20248f	0.039097365
7	0x3c4af563	0.012387606
8	0x3d0cca33	0.03437252
9	0x3bef254e	0.0072981482
10	0xbd1ade8b	-0.03780989
11	0xbd2686d5	-0.04065593
12	0xbc0a39a2	-0.008436592
13	0xbc572130	-0.013130471
14	0x3c8d573d	0.017253513
15	0x3c87263a	0.01649772
16	0x3b6f521e	0.0036517452
17	0x3d22150f	0.039570864
18	0xbd1f5a8b	-0.038904708
19	0xbd3413f5	-0.043964345
20	0xbca29e1e	-0.019850787
21	0x3d10b2b0	0.03532666
22	0xbc810b5e	-0.01575249
23	0x3ab42b56	0.0013745825
24	0xbc0472e6	-0.008084035
25	0x3c5990c4	0.013279144
26	0x3d13ac18	0.036052793
27	0x3ca11c7d	0.019666905
28	0x3d0cf75c	0.034415588
29	0x3d0608b8	0.03272316
30	0xbb3d1f83	-0.0028857894
31	0xbb48cec0	-0.003064081
32	0xbb32efe1	-0.0027303624
33	0xbba8a9ee	-0.0051472103
34	0x3cb1daa6	0.021710705
35	0xbd0a355c	-0.033742294
36	0x3c57c027	0.013168371
37	0x3c6d9f61	0.014503331
38	0xb8b674a5	-8.700163e-05
39	0x3c004c01	0.007830621
40	0x3cf8a8bc	0.030353896
41	0x3b340f51	0.002747495
42	0xbb343f0c	-0.00275034
43	0xbd0ffdfb	-0.035154324
44	0x3ada9101	0.0016675295
45	0xbd1bf719	-0.038077448
46	0xbd289c71	-0.04116482
47	0x3b34bbc3	0.0027577735
48	0xbd1f669e	-0.038916223
49	0x3ce5c089	0.02804591
50	0x3c970f5c	0.018439941
51	0xbc94ca51	-0.018162878
52	0xbc99ff50	-0.0187985
53	0xbbfeb382	-0.007772864
54	0xbce7b793	-0.028285777
55	0x3cced00b	0.025245687
56	0xbc858177	-0.016297085
57	0xbc850c92	-0.016241346
58	0xbc4a30d0	-0.012340739
59	0xbcef9069	-0.029243665
60	0x3d1d8afa	0.038462617
61	0xbd1f83c4	-0.03894402
62	0x3c0af789	0.008481869
63	0x3b6386f3	0.0034717887
64	0x3bd42972	0.006474667
65	0x3d15422c	0.03644006
66	0xbc03f29a	-0.008053446
67	0x3cc44979	0.023960816
68	0x3c4c1f75	0.012458672
69	0x3d10b4b7	0.035328593
70	0xbd124774	-0.035712674
71	0x3cd3b263	0.025841897
72	0xbca64385	-0.020295868
73	0xbd0bded8	-0.034148067
74	0xbd1976fb	-0.037466984
75	0x3cd33269	0.025780873
76	0x3bd4e8da	0.0064974846
77	0x3ca9347d	0.020654911
78	0xbcf0818b	-0.029358646
79	0xbd0edf12	-0.034880705
80	0x3caf814a	0.021423955
81	0xbd223548	-0.039601594
82	0xbc9584af	-0.018251745
83	0xbc1fc051	-0.009750442
84	0xbcf386eb	-0.02972742
85	0xbc951de3	-0.018202728
86	0x3bb5b527	0.0055452767
87	0x3c128f8d	0.008945358
88	0x3ca45a94	0.020062722
89	0xbcd8f54e	-0.026484158
90	0x3cc1717e	0.023613688
91	0x3d311dbb	0.043241244
92	0xbd2c8825	-0.042122025
93	0xbcc28601	-0.023745539
94	0xbc82365c	-0.015895061
95	0x3d2e1e0d	0.042509127
96	0x3b8ab895	0.0042334297
97	0xbccb79c5	-0.024838338
98	0xba515f0c	-0.00079868804
99	0xba86c007	-0.0010280617
100	0xbcedba6a	-0.029019553
101	0xba8178bf	-0.0009877904
102	0x3a7d0b77	0.00096528925
103	0xbd104ced	-0.035229612
104	0xbd1b7900	-0.03795719
105	0xbcc9e88b	-0.024647018
106	0x3d038581	0.03210974
107	0x3b228421	0.0024797993
108	0xbc933dc3	-0.017973786
109	0x3c9007e5	0.01758189
110	0x3c8c8d3d	0.017157191
111	0x3c7e26cb	0.015512179
112	0xbc3b9339	-0.011448675
113	0x3d2dd98e	0.042443804
114	0x3c187084	0.00930417
115	0x3d1e60a4	0.038666382
116	0xbb191fca	-0.0023364895
117	0xbd17482c	-0.036934063
118	0x3c1b4bdd	0.009478536
119	0xbd0b81ce	-0.03405934
120	0x3c22ff14	0.009948511
121	0xbcac7d5c	-0.02105587
122	0x3bb8c21b	0.0056383736
123	0xbb01bf48	-0.001979785
124	0x3bead599	0.007166576
125	0xbd1e75ee	-0.038686685
126	0xb800953c	-3.0656563e-05
127	0x3d10127c	0.035173878
128	0xbc54a465	-0.012978648
129	0xbbc1b96b	-0.005911996
130	0x3d25d600	0.04048729
131	0xbd1a8bb5	-0.03773089
132	0x3c5884f3	0.013215291
133	0x3d04b5a4	0.03239979
134	0xbd1e251b	-0.038609605
135	0x3d12a239	0.03579924
136	0x3d0d6aa1	0.034525517
137	0xbd31b06c	-0.04338114
138	0xbd2ffd29	-0.04296604
139	0xbbf0cb0d	-0.0073484243
140	0xba560b1e	-0.0008165109
141	0xbc99f3e1	-0.018793048
142	0x3c5731e5	0.013134454
143	0xbc4d410a	-0.012527714
144	0xbd28d86e	-0.04122203
145	0xbce2a34b	-0.027665755
146	0xbd0de627	-0.03464332
147	0x3d25c0a7	0.04046693
148	0x3c7e5785	0.015523796
149	0x3c986f83	0.01860786
150	0x3cc12380	0.023576498
151	0x3c8df4ea	0.017328698
152	0xbd105f39	-0.03524706
153	0xbd20089f	-0.03907072
154	0xbc60419f	-0.01368752
155	0xbc9253ee	-0.017862286
156	0x3cb734b1	0.022363992
157	0xbd105c69	-0.03524438
158	0x3d28c7c9	0.041206155
159	0xbd27a00b	-0.040924113
160	0x3d2236de	0.039603107
161	0xbcefae10	-0.029257804
162	0x3d0ebe94	0.03484972
163	0xbd2e55bd	-0.042562235
164	0xbd09a3ab	-0.03360335
165	0xbc4bd4ae	-0.0124408435
166	0x3c8d05ab	0.017214617
167	0x3b861cbb	0.0040927804
168	0xbccaaf40	-0.024741769
169	0xbb7a9aea	-0.0038239309
170	0x3cf19c0b	0.029493352
171	0xbc6ba78b	-0.014383207
172	0x3d179b36	0.037013255
173	0x3ca2f484	0.019891985
174	0xbd0d38fd	-0.034478176
175	0xbca54391	-0.02017382
176	0xbcc45f8f	-0.023971347
177	0x3cc4fdb2	0.024046753
178	0x3c88a443	0.016679889
179	0xbd20b82f	-0.03923815
180	0xbc6f9655	-0.014623244
181	0x3ca584ec	0.020204984
182	0xbc972698	-0.01845102
183	0xba2cb7bd	-0.00065886584
184	0xbc3d6d9a	-0.011561776
185	0xbd22688f	-0.039650496
186	0xbc64ebba	-0.013972217
187	0x3ca6a922	0.02034432
188	0xbc315cc9	-0.010825344
189	0x3cc7700c	0.02434542
190	0xbc92b53f	-0.01790869
191	0xbc274630	-0.010209605
192	0x3d0fdd9f	0.035123464
193	0xbd292c4a	-0.041302003
194	0x3d0e76cd	0.034781266
195	0xbcf7c621	-0.030245842
196	0x3d27838e	0.040896945
197	0x3ba8ae92	0.0051477635
198	0xbc9aff41	-0.018920543
199	0xbcd0f24f	-0.025506167
200	0x3ca9d21b	0.020730069
201	0xbcfca23a	-0.030839074
202	0x3d28fe19	0.04125795
203	0x3c83ffc0	0.016113162
204	0xbaed7708	-0.0018117139
205	0x3d26d115	0.04072674
206	0x3b5a85de	0.0033343951
207	0x3c77e6ec	0.01513074
208	0xba15b63f	-0.0005711056
209	0xbc662b51	-0.014048413
210	0x3c9807f9	0.01855849
211	0x3cdc7aa8	0.026913956
212	0xbc9b7905	-0.018978605
213	0xbd10c191	-0.03534085
214	0x3bf4587a	0.0074568363
215	0x3cfcbbac	0.030851208
216	0xbb860a14	-0.004090557
217	0x3cdec73b	0.02719461
218	0x3b849498	0.004046034
219	0xbbe8818d	-0.007095522
220	0x3d0bcb52	0.03412945
221	0x3c186c2f	0.009303137
222	0xbca81eb2	-0.02052245
223	0x3b192c6e	0.002337243
224	0x3ccd2bd3	0.025045311
225	0xbd03b6a1	-0.03215659
226	0xbcfcf523	-0.030878609
227	0xbc7c9ef2	-0.015418755
228	0xbc3a36cc	-0.011365604
229	0xbc921d57	-0.017836256
230	0xbd1c267b	-0.038122635
231	0x3ccc3f9e	0.024932679
232	0xbcddbf65	-0.027068803
233	0xbc82270c	-0.01588776
234	0xbd0e9cc5	-0.034817476
235	0x3b0a6075	0.0021114622
236	0x3c881625	0.016612122
237	0xbcda2f01	-0.026633741
238	0x3bd25f54	0.0064200554
239	0x3c0a465d	0.0084396275
240	0xb98d8114	-0.00026989786
241	0x3ba56062	0.00504689
242	0x380cd322	3.3575234e-05
243	0x3c7c3bc1	0.015395106
244	0x3d04fed4	0.032469586
245	0x3a42b28b	0.00074271177
246	0x3cb49c03	0.022047048
247	0x3d0e6355	0.0347627
248	0xbd255c0f	-0.040370997
249	0xbc33a8be	-0.010965524
250	0xbc6d651c	-0.014489438
251	0x3cc234d8	0.023706838
252	0x3c9cc70c	0.019137882
253	0x3a245113	0.00062681845
254	0xbce0155a	-0.027353931
255	0x3d14ee13	0.036359858

fc2.bias f4 [256]
0	0x3d336136	0.04379388
1	0x3b4112f1	0.0029460753
2	0xbd30dc96	-0.043179117
3	0x3cadb088	0.02120234
4	0x3d1ce689	0.038305793
5	0x3cbc2831	0.022968384
6	0xbd1b91ac	-0.03798072
7	0xbd1d917e	-0.03846883
8	0x3cbf1381	0.02332473
9	0x3d16e1d0	0.036836445
10	0x3c9bfd42	0.019041661
11	0xbad49bf4	-0.0016220794
12	0x3c8c4df9	0.017127024
13	0xbb2d48f6	-0.0026441193
14	0x3b966925	0.004590171
15	0x3bffc496	0.0078054173
16	0xbc23a8fb	-0.009989019
17	0xbcf2fde2	-0.029662076
18	0x3b589b23	0.0033051453
19	0x3cd543f5	0.026033381
20	0xbd2c6479	-0.042088006
21	0xbc8204a7	-0.015871359
22	0xbcc64294	-0.024201669
23	0xbcc72260	-0.024308383
24	0xbc581573	-0.013188708
25	0xbca90254	-0.020630993
26	0xbcdc616e	-0.026901927
27	0x3ca1acd9	0.01973574
28	0x3d0175e7	0.03160658
29	0x3c602b7b	0.013682242
30	0x3d232f44	0.039839998
31	0x3857a53d	5.1413885e-05
32	0x396b52ab	0.00022442143
33	0x3c288a38	0.01028686
34	0xb9988012	-0.0002908712
35	0x3bac83e6	0.005264747
36	0xbc9e739f	-0.019342242
37	0xbcd245dd	-0.025668079
38	0x3ced79bf	0.028988717
39	0xbcba1a23	-0.022717541
40	0xbd27d136	-0.040971003
41	0x3c724aa8	0.014788307
42	0xbb69b2b6	-0.0035659499
43	0x3d1776e5	0.03697862
44	0xbd0a971f	-0.033835527
45	0xbb461b1d	-0.0030228563
46	0xbc86ccfd	-0.016455168
47	0xbc3d5eff	-0.011558293
48	0xbc251f7c	-0.010078307
49	0x3cd9d91a	0.02659278
50	0xbd2b56cd	-0.041830827
51	0xbcdac07b	-0.02670311
52	0x3b98fe06	0.004668954
53	0xbcd72949	-0.026264803
54	0x3cf0ae42	0.029379968
55	0xbcaee2f1	-0.021348448
56	0xbc063e4c	-0.008193564
57	0xbcbaccec	-0.022802792
58	0xbcd195ac	-0.025584064
59	0x3d053cbb	0.03252862
60	0xbd1e514d	-0.038651753
61	0xbd116054	-0.035492256
62	0x3c71638b	0.014733206
63	0x3d2ea71a	0.04263983
64	0xbcb3cba8	-0.021947697
65	0x3cebf5a5	0.028803656
66	0xbd1f2dd7	-0.038862076
67	0x3ca9530f	0.020669488
68	0xbd2080c4	-0.0391853
69	0x3bbbb261	0.0057280515
70	0x3c97a651	0.018511923
71	0x3cfcd38a	0.030862588
72	0x3bbc6ad9	0.005750042
73	0x3c200b12	0.009768264
74	0xbcfc3808	-0.030788437
75	0xbc8317da	-0.016002584
76	0xbccd9915	-0.02509741
77	0x3d264c83	0.04060031
78	0xbc2d85d1	-0.010590986
79	0x3c9865ad	0.01860317
80	0x3d068f1b	0.03285132
81	0xbcc08289	-0.023499744
82	0xbcb85673	-0.02250216
83	0x3cc5b287	0.02413298
84	0xbcceb981	-0.02523494
85	0xbd2f9e2a	-0.042875446
86	0x3cab3e82	0.02090383
87	0xbcc995de	-0.024607595
88	0xbc30b50c	-0.010785352
89	0xbb8b539d	-0.004251911
90	0x3c8614d2	0.01636735
91	0x3d09587a	0.033531643
92	0xbc257812	-0.010099428
93	0xbcd44434	-0.025911428
94	0xbd1daafb	-0.038493138
95	0xbaa96846	-0.0012924753
96	0xbce92731	-0.02846107
97	0x3c242ea0	0.010020882
98	0xbd2d8597	-0.04236373
99	0x3c04cf92	0.008106129
100	0xbc1ef09a	-0.009700919
101	0xbcef329e	-0.02919894
102	0x3d006476	0.031345807
103	0xbd1d95b2	-0.03847284
104	0xbcfad44d	-0.030618811
105	0xbd232238	-0.039827555
106	0xbd2d2978	-0.042275876
107	0x3d0e9236	0.034807406
108	0xbd28b843	-0.04119135
109	0xbc5d1c4b	-0.013495515
110	0xbd2e4a06	-0.042551063
111	0xbd2a8f98	-0.041640848
112	0x3d251804	0.040306106
113	0x3d1397be	0.036033385
114	0x3d158188	0.036500484
115	0x3d276852	0.040870972
116	0x3c63e2ce	0.013909055
117	0xbbb006e6	-0.005371916
118	0xbbd4237b	-0.006473956
119	0xbcbda43a	-0.023149598
120	0xbbfc6535	-0.0077024945
121	0xbceac293	-0.028657233
122	0xbc7c153d	-0.015385923
123	0xbbf42c81	-0.0074515943
124	0x3c43d92a	0.011953631
125	0xbd28392c	-0.04107015
126	0xbce593f4	-0.028024651
127	0xbd0d900a	-0.034561194
128	0xbc5c48a0	-0.0134450495
129	0x38c7b97a	9.523607e-05
130	0x3ca05a58	0.01957433
131	0xbd31fd35	-0.043454368
132	0x3c17a53f	0.009255706
133	0xbce726f0	-0.028216809
134	0xbcb8d9da	-0.022564817
135	0xbcfae7d0	-0.030628115
136	0x3bb65fb2	0.005565607
137	0x3c4b2989	0.0124000395
138	0x3cee53cd	0.029092694
139	0xbd0f526c	-0.034990713
140	0xbd3299f9	-0.04360387
141	0xbd267d89	-0.040647063
142	0xbd0b928f	-0.034075316
143	0x3d2caa98	0.04215488
144	0xbb07dd2b	-0.0020731192
145	0xbb1d508f	-0.0024004315
146	0x3cd47f45	0.025939593
147	0xbc88bb9c	-0.016691022
148	0x3d299661	0.041403178
149	0x3d00e579	0.031468842
150	0x3c5af077	0.013362995
151	0x3cff9735	0.03120003
152	0x3ca6c091	0.020355495
153	0x3d091c17	0.033474054
154	0xba0d367b	-0.00053868414
155	0x3c6736d3	0.014112192
156	0x3cffa4a7	0.031206442
157	0xbc80b7fe	-0.015712734
158	0xbc80602b	-0.015670856
159	0xbc396d6d	-0.011317593
160	0x3c2b7711	0.010465399
161	0xbc4156a5	-0.011800443
162	0x3c9fc109	0.019501226
163	0x39d23c04	0.00040099036
164	0x3cc4eb25	0.024037907
165	0x3cb0411a	0.021515418
166	0xbd0a431e	-0.033755414
167	0xbd0416e4	-0.032248393
168	0x3cbb6031	0.022873016
169	0xbcdfd553	-0.0273234
170	0x3bc14d69	0.0058991206
171	0x3cf208a4	0.029545136
172	0xbcbcbec0	-0.023040175
173	0xbc857777	-0.016292317
174	0xbb9dbf0b	-0.004814034
175	0x3c8d14f5	0.017221907
176	0x3b93e20e	0.004513032
177	0xbbc7a27f	-0.006092369
178	0x3d0159c7	0.03157976
179	0x3be805cf	0.0070807706
180	0xbc1d3c08	-0.009596832
181	0xbd339cc7	-0.043850686
182	0xbcf937f2	-0.030422185
183	0xbabb9b93	-0.0014313333
184	0x3bfdee18	0.0077493303
185	0xbd1c4ff9	-0.038162205
186	0xbc9c56af	-0.019084303
187	0x3b238968	0.0024953727
188	0xbc7061e4	-0.014671776
189	0xbc5a8c52	-0.013339119
190	0xbce8ec8f	-0.028433112
191	0x3d08954e	0.033345513
192	0xbcc1aa84	-0.023640878
193	0x3cdbb422	0.026819292
194	0xbc0fb801	-0.008771897
195	0x3ccd13dc	0.025033884
196	0xbc9d516c	-0.019203864
197	0xbcba4cc3	-0.022741681
198	0xbc5733c5	-0.013134901
199	0x3cb09f2b	0.021560272
200	0xbb3478f1	-0.0027537907
201	0x3cc4951c	0.023996882
202	0xbcf348e4	-0.029697843
203	0xbd30e185	-0.043183822
204	0xbc45073b	-0.01202565
205	0xbcc72252	-0.024308357
206	0xbd138cd5	-0.03602298
207	0xbc841b2f	-0.016126243
208	0x3c600eef	0.013675435
209	0x3d1914f6	0.037373506
210	0x3c264c29	0.010149994
211	0x3cd5f52d	0.026117885
212	0x3ce49bab	0.02790626
213	0xbceee77a	-0.029163111
214	0x3caa7df2	0.020812009
215	0xbce3c5ac	-0.027804218
216	0xbd056e2b	-0.032575767
217	0x3d2dda88	0.042444736
218	0x3c0b8dff	0.008517741
219	0x3ce03d1d	0.027372891
220	0xbc60d3bb	-0.0137223555
221	0x3b227c16	0.00247932
222	0xbaeeb3fd	-0.00182116
223	0x3c84ee5d	0.016226942
224	0xbd34166c	-0.043966696
225	0xbcf7813b	-0.03021299
226	0x3c9d04ad	0.019167269
227	0x3ca3ded8	0.020003721
228	0x3cde9282	0.02716947
229	0x3cc3b0b7	0.023887975
230	0xbd03f4b5	-0.032215793
231	0xbd0e0066	-0.03466835
232	0xbc831fdc	-0.016006403
233	0x3aeaf8b0	0.0017926898
234	0xbcb4281a	-0.021991778
235	0xbc978fd8	-0.018501207
236	0x3c788c4c	0.015170168
237	0xbc021d20	-0.007941514
238	0xbbaa9202	-0.005205394
239	0x3c910bb9	0.017705785
240	0xbc36048c	-0.0111094825
241	0xbd23205e	-0.03982579
242	0xbc5c17d0	-0.013433412
243	0x3d265c01	0.040615086
244	0xbca1c46d	-0.019746983
245	0x3ce4e900	0.027943134
246	0xbcc4e281	-0.024033787
247	0xbcd9a72f	-0.026568977
248	0xbcfc7d4b	-0.030821463
249	0xbb4bf4c4	-0.0031121233
250	0xbd2f551b	-0.042805772
251	0x3c1885d1	0.009309248
252	0x3bdbaaca	0.0067037093
253	0x3d31f648	0.043447763
254	0x3d091616	0.03346833
255	0x3c73b599	0.014874839

fc3.weight f4 [128, 256]
0	0xbb963020	-0.0045833737
1	0xbd17a864	-0.037025824
2	0x3d18c95a	0.0373014
3	0x3d7d6afa	0.0618696
4	0x3d278bb4	0.040904716
5	0xbd55b5d0	-0.052175343
6	0x3d34f4ca	0.04417876
7	0xbcab648c	-0.020921968
8	0x3cb54e80	0.022132158
9	0xbc82c48c	-0.015962861
10	0xbd726100	-0.059174538
11	0x3d3dd5f4	0.04634662
12	0xbd529c36	-0.051418506
13	0xbc2dbf40	-0.01060468
14	0x3c8503a8	0.016237095
15	0xbcae7ff4	-0.021301247
16	0x3c468878	0.012117498
17	0xbcf30c08	-0.029668823
18	0x3d4f62dc	0.05063139
19	0x3ceb99b8	0.028759822
20	0x3d0974b4	0.033558562
21	0xbc2e4ec8	-0.0106389
22	0x3b4e45a0	0.0031474605
23	0x3d13f97a	0.03612659
24	0x3ca21e10	0.019789726
25	0xbd09ff6e	-0.033690862
26	0xbd6849d4	-0.056711033
27	0xbcf475bc	-0.029841296
28	0x3d5db748	0.05412987
29	0x3cc4720c	0.023980163
30	0xbd5195c4	-0.05116822
31	0x3c865db8	0.01640211
32	0xbd1038b6	-0.035210334
33	0x3d1a53c8	0.037677556
34	0x3b953d70	0.004554443
35	0x3cdf80e0	0.027283132
36	0xbc35c2a0	-0.0110937655
37	0x3d2e2af8	0.042521447
38	0x3cac9484	0.021066912
39	0xbd525a5e	-0.051355712
40	0x3b866240	0.004101068
41	0xbc2c0d50	-0.010501221
42	0xbd4b4144	-0.04962279
43	0x3d0ec330	0.034854114
44	0xbd70f632	-0.05882854
45	0x3d2d7080	0.042343616
46	0x3d326a0c	0.043558165
47	0xbd31e504	-0.043431297
48	0xbd69852e	-0.057011776
49	0xbd123b6c	-0.0357012
50	0xbce0ba44	-0.027432568
51	0xbc9e4990	-0.019322187
52	0xbd3ed5a8	-0.046590477
53	0x3c14ba80	0.009077668
54	0xbd0c19a6	-0.034204148
55	0xbc58cd98	-0.013232611
56	0x3d06a0b0	0.032868087
57	0xbd3a5b60	-0.0454973
58	0xbd0d1096	-0.034439646
59	0x3d59810a	0.053101577
60	0x3d742b70	0.059611738
61	0xbc3fc310	-0.011704221
62	0x3d5b2432	0.053501315
63	0x3cf47428	0.029840544
64	0x3bf9b4a0	0.007620409
65	0xbc8fe558	-0.017565414
66	0x3d109cb4	0.035305694
67	0x3c5c4bd8	0.013445817
68	0xbd40339a	-0.04692421
69	0x3c56c850	0.013109282
70	0xbc458a78	-0.012056939
71	0x3d13c0b8	0.036072463
72	0x3d2cf290	0.042223513
73	0x3d08eaf0	0.03342718
74	0x3d24edfa	0.040266015
75	0xbce29808	-0.027660385
76	0x3c37baf8	0.01121401
77	0x3c86dbd8	0.016462252
78	0x3d2d5ade	0.042322986
79	0x3c1cee70	0.009578332
80	0xbcb8ecc0	-0.022573829
81	0x3ac3f740	0.0014951006
82	0xbd7bda8a	-0.061487712
83	0x3c86d634	0.016459562
84	0x3c768958	0.015047394
85	0xbcba4928	-0.022739962
86	0x3d779fd8	0.060455173
87	0xbd250aa8	-0.040293366
88	0x3d2a28fe	0.041543
89	0xbd0e9f20	-0.034819722
90	0x3ba81d70	0.0051304623
91	0x3d2c42c2	0.042055853
92	0xbd0d1ca8	-0.034451157
93	0xbd24b932	-0.04021568
94	0xbc43a190	-0.011940375
95	0x3c8ffe1c	0.017577223
96	0x3d676952	0.056496926
97	0xbd7eb74e	-0.06218653
98	0xbd584eb0	-0.052809417
99	0xbc1e3768	-0.009656765
100	0x3cf86f80	0.030326605
101	0xbcdf5154	-0.02726046
102	0xbd0a5e66	-0.03378143
103	0xbd65a922	-0.0560695
104	0x3d4aac00	0.04948044
105	0x3d72966e	0.059225492
106	0xbb968af0	-0.0045941994
107	0xbcbb1524	-0.02283723
108	0x3d64f1cc	0.055894658
109	0xbd3b6268	-0.045748144
110	0xbcc92190	-0.024552137
111	0xbd1fa986	-0.03898003
112	0x3cfeead0	0.031117827
113	0x3d46cde4	0.048536196
114	0x3d35456c	0.04425566
115	0xbbb25ef0	-0.0054434463
116	0x3d48f43a	0.049061038
117	0x3b172100	0.002306044
118	0x3d4d43e8	0.05011359
119	0x3d4f0ff4	0.050552323
120	0x3d258b84	0.040416256
121	0x3cae61f8	0.02128695
122	0xbd2128c8	-0.039345533
123	0xbcd6b0d8	-0.026207373
124	0xbcb18f70	-0.021674842
125	0xbcd97c84	-0.026548631
126	0xbcacbab0	-0.021085113
127	0x3cd59dd4	0.026076235
128	0xbce44b24	-0.027867861
129	0x3d2bd360	0.04194963
130	0xbd02e572	-0.031957097
131	0x3d46c502	0.048527725
132	0xbc649e40	-0.013953745
133	0xbd58bb70	-0.05291313
134	0x3beae690	0.0071685985
135	0x3cdb07b0	0.026737064
136	0x3ca11f98	0.019668385
137	0x3c7576b0	0.014981911
138	0xbc2d9730	-0.010595128
139	0xbc4e68d8	-0.012598239
140	0x3d7cd84e	0.06172972
141	0xbd1500ba	-0.036377646
142	0xbcc8a604	-0.024493225
143	0xbc318410	-0.010834709
144	0xbba1bd20	-0.0049358755
145	0x3d41ef90	0.047347605
146	0x3d3d3b5c	0.046199188
147	0x3b7c59a0	0.003850557
148	0xbd5ed92c	-0.05440633
149	0xbc8f163c	-0.017466657
150	0x3a8afe40	0.0010604337
151	0x3c3efcf0	0.011656985
152	0xbd08300e	-0.033248954
153	0x3cf32620	0.029681265
154	0x3d6ca1ee	0.057771616
155	0x3c9391d0	0.018013865
156	0xbd1f9afa	-0.038966157
157	0x3ccb443c	0.02481281
158	0xbd0c4de2	-0.034253962
159	0xbbfacca0	-0.0076537877
160	0xbd56002e	-0.052246265
161	0xbcbef360	-0.02330941
162	0xbd0ae726	-0.033911847
163	0x3cdbfbf8	0.026853547
164	0xbd0b2262	-0.033968337
165	0xba664980	-0.0008784756
166	0xbd7505b8	-0.059819907
167	0x3d7cdc64	0.06173362
168	0xbd6c2f72	-0.057662435
169	0x3d368794	0.04456289
170	0xbc3dc6e8	-0.0115830675
171	0xbd7fd95c	-0.06246315
172	0xbba11960	-0.004916355
173	0x3c1339d0	0.008985952
174	0x39971c00	0.00028821826
175	0x3d0c6e08	0.03428462
176	0xbc122e50	-0.008922175
177	0xbc300ff8	-0.010745995
178	0x3b2fdf40	0.0026835948
179	0xbac56240	-0.0015059188
180	0xbbaad370	-0.0052131936
181	0xbd3f3c48	-0.046688348
182	0xbd4b31ca	-0.04960803
183	0x3d4990c6	0.049210332
184	0xbd270bf2	-0.040782876
185	0x3d647ffa	0.05578611
186	0xbd091bb4	-0.033473685
187	0xbc909b9c	-0.017652325
188	0x3d68727c	0.056749806
189	0xbcb91260	-0.02259177
190	0xbd4f9b4c	-0.050685212
191	0x3d13b680	0.036062717
192	0xbc9daa58	-0.019246265
193	0x3d7a0034	0.06103535
194	0xbd1a2658	-0.037634224
195	0xbd4a9bda	-0.049465038
196	0x3af2d480	0.0018526465
197	0xbb04d380	-0.0020267665
198	0xb9a97000	-0.00032317638
199	0xbca909d4	-0.02063457
200	0x3d3ba2b0	0.045809448
201	0xbd03059e	-0.03198778
202	0xbd10a632	-0.035314746
203	0xbd452b3c	-0.048136935
204	0xbd2dfb5c	-0.042476043
205	0x3cfd4094	0.030914582
206	0x3ce08070	0.027404994
207	0xbd0897ec	-0.03334801
208	0x3cd15db8	0.025557384
209	0xbd35a64c	-0.044348046
210	0x3d45e054	0.04830964
211	0xbd6ff96c	-0.058587477
212	0xbd4eae5a	-0.050459243
213	0x3d2fc4f8	0.042912453
214	0x3d78b9e6	0.06072416
215	0x3ceba34c	0.02876439
216	0x3d35ebc6	0.044414304
217	0x3ca7a504	0.020464428
218	0xbc056008	-0.008140571
219	0xbd5df3a8	-0.054187447
220	0x3d3928ea	0.045205034
221	0xbd53112a	-0.05153004
222	0xbc8defc0	-0.017326236
223	0xbcd66f58	-0.02617614
224	0x3badeef0	0.0053080246
225	0xbd2328d4	-0.03983386
226	0xbd7d9ef8	-0.061919183
227	0x3d46d0ba	0.0485389
228	0xbd6d917c	-0.058000073
229	0x3cd6ac64	0.02620525
230	0xbd1d9f9a	-0.038482286
231	0x3cd54e28	0.026038244
232	0xbd00673a	-0.031348445
233	0x3ce4e260	0.027939975
234	0xbbc6d940	-0.0060683787
235	0xb9ae3c00	-0.0003323257
236	0xbd72a896	-0.059242807
237	0x3d3ca9d4	0.0460604
238	0xbc237378	-0.00997626
239	0x3d3606e6	0.044440173
240	0x3d2af85c	0.04174076
241	0x3cff0e24	0.031134672
242	0x3c94606c	0.018112384
243	0xbd380c92	-0.044933863
244	0xbd5a88d6	-0.053353153
245	0x3c33e5b8	0.010980062
246	0x3d75433c	0.059878573
247	0x3ceb8560	0.028750122
248	0x3d4cb6a2	0.04997886
249	0xbcd7e518	-0.026354358
250	0xbd342750	-0.043982804
251	0x3c011d00	0.007880449
252	0xbd6f63de	-0.05844485
253	0x3d09187a	0.03347061
254	0xbcf04034	-0.02932749
255	0x3d7370a8	0.05943361

fc3.bias f4 [128]
0	0x3c936a00	0.01799488
1	0xbc659af0	-0.014013991
2	0xbd624caa	-0.055248894
3	0xbcd7d954	-0.026348747
4	0x3d2250b8	0.03962776
5	0x3d138c40	0.036022425
6	0x3c132c90	0.0089827925
7	0xba237880	-0.00062359124
8	0xbd73436a	-0.059390463
9	0x3ccdfbc8	0.025144473
10	0xbca02c6c	-0.019552432
11	0xbd2a2eec	-0.041548654
12	0x3d2d86ae	0.04236477
13	0x3c3d94a0	0.0115710795
14	0xbc8206d4	-0.015872397
15	0xbcce4edc	-0.025184087
16	0xbd779436	-0.06044408
17	0x3d17fb6a	0.037105
18	0x3d791718	0.06081304
19	0xbd60ce96	-0.054884516
20	0xbd4187ba	-0.04724858
21	0xbd13afcc	-0.036056325
22	0x3d25f9e6	0.040521525
23	0x3c7c3838	0.015394263
24	0xbc6394b0	-0.01389043
25	0x3aaa6700	0.0013000667
26	0x3d072b60	0.03300035
27	0xbcce6bb0	-0.025197834
28	0x3bfef080	0.0077801347
29	0xbd12648a	-0.035740413
30	0xbd33c1bc	-0.04388593
31	0xbce46330	-0.027879328
32	0x3ccc4924	0.02493722
33	0xbd5d9588	-0.054097682
34	0xbd775fc4	-0.060394064
35	0x3d0dfd40	0.034665346
36	0xbd2e80dc	-0.04260336
37	0xbcd58280	-0.026063204
38	0x3cfaa614	0.03059677
39	0x3d6812bc	0.05665849
40	0x3bb340c0	0.0054703653
41	0x3b95cb60	0.0045713633
42	0x3c99c608	0.018771186
43	0xbd671880	-0.05641985
44	0x3d5d9c2c	0.054104015
45	0x3d095ee6	0.033537768
46	0xbd03d68a	-0.032187022
47	0x3b921240	0.004457742
48	0x3d0b3458	0.033985466
49	0xbc856ebc	-0.016288154
50	0xbcff0380	-0.031129599
51	0xbce43e7c	-0.027861826
52	0x3cc6c120	0.024262011
53	0x3cbaab44	0.022786744
54	0xbd68e46c	-0.056858465
55	0xbc2c5bc8	-0.010519929
56	0x3caf9bf4	0.021436669
57	0x3d212902	0.03934575
58	0xbcd96810	-0.026538879
59	0x3d705e8a	0.05868391
60	0x3d0b0964	0.033944502
61	0xbadfd480	-0.001707688
62	0x3d36b5b0	0.044606864
63	0xbd46c378	-0.048526257
64	0x3d0a5762	0.03377474
65	0xbd07ae68	-0.03312531
66	0x3ce47f4c	0.027892731
67	0x3c513dc8	0.012771077
68	0xbd7f186a	-0.062279142
69	0xbc7b3588	-0.015332587
70	0x3cd2d7a8	0.025737599
71	0xbd0df188	-0.03465417
72	0x3d02f95c	0.03197609
73	0x3ccb3b64	0.024808593
74	0x3d2d774e	0.042350106
75	0x3bf3fef0	0.0074461624
76	0xbd25cb36	-0.040477
77	0xbd551be6	-0.05202856
78	0xbb93f700	-0.0045155287
79	0xbd4c042a	-0.04980866
80	0x3c0618f8	0.008184664
81	0x3cf0a6dc	0.02937644
82	0xbce6c284	-0.028168924
83	0x3d1666e4	0.036719218
84	0xbd49bb10	-0.049250662
85	0xbb9206f0	-0.0044563934
86	0x3c6d5758	0.014486156
87	0x3d1e9774	0.038718656
88	0xbd745606	-0.05965235
89	0x3d3e1288	0.04640439
90	0xbd107d5e	-0.03527581
91	0xbd683f68	-0.056701094
92	0xbd0cafec	-0.03434746
93	0xbcbcdb30	-0.023053735
94	0x3bc50ec0	0.006013721
95	0x3d0fa6be	0.035071127
96	0xbcc06ca8	-0.023489311
97	0x3d6361c4	0.05551316
98	0x3cf4eb40	0.029897332
99	0x3d1727cc	0.036903188
100	0x3d39a3f0	0.04532236
101	0xbccf1084	-0.02527643
102	0xbd12d56a	-0.03584806
103	0x3ba1e160	0.004940197
104	0xbd0557ec	-0.032554552
105	0x3af53a80	0.0018709451
106	0xbd7987a8	-0.060920388
107	0x3d0447ba	0.032294966
108	0x3cd705f8	0.026247963
109	0xbd01e960	-0.031716704
110	0xbc047b58	-0.008086048
111	0xbcd230a4	-0.02565796
112	0x3d0aa3b8	0.03384754
113	0x3cc0ea04	0.023549087
114	0x3d16e458	0.03683886
115	0x3d1b94ea	0.037983812
116	0xbd2a923c	-0.041643366
117	0xbcf293a0	-0.029611409
118	0xbd6e2316	-0.05813893
119	0x3d6732b0	0.056444824
120	0xbd24717c	-0.04014729
121	0xbcc417ec	-0.023937188
122	0x3d3398a8	0.043846756
123	0xbd45d57e	-0.048299305
124	0xbb0d8080	-0.0021591485
125	0x3d171ee2	0.036894687
126	0xbd294d02	-0.041333206
127	0x3c493c58	0.0122824535

fc4.weight f4 [15, 128]
0	0x3d4e75a8	0.050405174
1	0x3c1c5cd4	0.009543616
2	0x3d81790d	0.06321917
3	0x3d6c02d9	0.057619903
4	0x3d7f2f27	0.062300827
5	0xbd21efd3	-0.039535355
6	0xbcb9383d	-0.022609824
7	0xbd5120ca	-0.05105666
8	0x3d976520	0.07392335
9	0x3da21712	0.079145566
10	0x3d1e0235	0.038576324
11	0x3d56133a	0.05226443
12	0xbd3d15e4	-0.046163455
13	0x3c9be4dd	0.019030029
14	0x3dad9f09	0.08477599
15	0xbda6a082	-0.08136083
16	0xbceaf4b0	-0.02868113
17	0x3ca2e4b2	0.019884441
18	0xbd42f1eb	-0.047593992
19	0xbd8d6166	-0.06903343
20	0xbdb0da6c	-0.08635411
21	0x3cf74b1d	0.030187184
22	0xbc25e9a6	-0.010126507
23	0xbd60aa2d	-0.054849792
24	0xbdad64dd	-0.08466504
25	0x3d7ce5ae	0.061742477
26	0x3d5ce929	0.053933296
27	0x3d7d21d1	0.061799828
28	0xbda2b8d0	-0.079454064
29	0x3b483127	0.0030546875
30	0x3d0b800d	0.034057666
31	0xbda21acf	-0.079152696
32	0x3dadc0a8	0.08484012
33	0x3d7a4453	0.061100315
34	0xbcd21723	-0.025645798
35	0xbd5d1ac5	-0.053980608
36	0x3db2e902	0.08735849
37	0xbc826683	-0.015918022
38	0x3d62aa4f	0.0553382
39	0xbd1eb187	-0.038743522
40	0xbcd26b59	-0.025685953
41	0x3cdfb72a	0.02730902
42	0xbd61ffe8	-0.05517569
43	0xbdb2d152	-0.08731331
44	0x3ce44622	0.027865473
45	0xbc1f9983	-0.00974119
46	0xbd2785b2	-0.040898986
47	0x3da7c1c4	0.08191255
48	0x3da87dc3	0.08227112
49	0xbd992238	-0.0747723
50	0x3d8de5dc	0.06928608
51	0xbdaa2662	-0.08308102
52	0x3d5dc73d	0.054145087
53	0xbd97efcd	-0.07418785
54	0xbb71e157	-0.0036907995
55	0xbda2530f	-0.079259984
56	0xbd6fc264	-0.058534995
57	0x3c975837	0.018474681
58	0xbc704c14	-0.014666576
59	0xbda8a45b	-0.08234473
60	0xbd907635	-0.07053796
61	0xbd9b1fab	-0.075743996
62	0x3d408171	0.046998445
63	0xbbd69178	-0.006548103
64	0xbc917c33	-0.017759418
65	0xbd7876ed	-0.06066029
66	0x3d6feffb	0.058578473
67	0xbc9a7805	-0.018856058
68	0x3c2dc49e	0.010605959
69	0xbd93220c	-0.07184228
70	0x3d8cd9c7	0.06877475
71	0xbd9ac633	-0.07557335
72	0xbc9980bb	-0.018738141
73	0x3dac7778	0.08421224
74	0xbd727c38	-0.059200495
75	0xbd6ae147	-0.057343747
76	0xbd10ad29	-0.03532139
77	0xbda4ab49	-0.080404826
78	0xbd97ebc6	-0.07418017
79	0x3dad7a60	0.08470607
80	0x3d83636c	0.064154476
81	0x3d52bb65	0.051448245
82	0xbc85309a	-0.016258527
83	0x3d4e04a7	0.050297406
84	0xbd967547	-0.07346588
85	0x3d75c3f4	0.06000133
86	0xbd18c2dc	-0.037295207
87	0x3d670809	0.056404147
88	0xbd81278a	-0.063063696
89	0x3d7a7f8f	0.061156806
90	0x3c8b50eb	0.017006358
91	0x3bcd94e5	0.006273853
92	0xbd10a27c	-0.035311207
93	0x3ccc26d0	0.024920851
94	0xbc0cdb21	-0.008597166
95	0x3d2a5f5d	0.04159485
96	0xbd0ce90d	-0.034401942
97	0xbd54717b	-0.051866036
98	0x3d7a94a6	0.06117692
99	0x3c5c9444	0.013463084
100	0x3d4ebef7	0.050475087
101	0xbd79a545	-0.06094863
102	0x3bc2f574	0.0059496704
103	0xbda63341	-0.08115245
104	0xbd9090f5	-0.07058898
105	0xbc9b43c6	-0.018953215
106	0x3d28bddf	0.0411967
107	0x3d65b379	0.05607936
108	0x3c511d98	0.012763403
109	0x3d4e379c	0.050346002
110	0xbd66472f	-0.05622023
111	0x3d879789	0.066207
112	0xbd2c90ce	-0.042130284
113	0xbd5e592b	-0.054284256
114	0xbcdb1761	-0.026744546
115	0xbdab81c6	-0.08374362
116	0x3d7bf1cb	0.06150989
117	0xbd076197	-0.033052053
118	0xbc16b9ef	-0.009199603
119	0xbb86a78b	-0.004109328
120	0x3d133adb	0.0359448
121	0x3db19c78	0.08672422
122	0x3d5d9744	0.054099336
123	0xbd5539fb	-0.052057248
124	0xbdb42170	-0.0879544
125	0x3dac3a1d	0.08409522
126	0x3d43bd36	0.047787867
127	0x3c82b966	0.015957545
128	0x3caccf3b	0.021094909
129	0x3cbc95ce	0.023020651
130	0xbcf4793f	-0.02984297
131	0xbc140503	-0.009034398
132	0xbcb96f9d	-0.02263623
133	0x3c3af1f5	0.011410226
134	0xbd237c04	-0.039913192
135	0xbd337879	-0.043816064
136	0x3bad8c67	0.0052962783
137	0xbd00f4ac	-0.031483337
138	0x3b352af5	0.0027644013
139	0x3c9723ef	0.018449752
140	0xbb3a56a9	-0.0028433
141	0x3d1c9c09	0.038234744
142	0x3da0cf2c	0.07852015
143	0x3d9b7346	0.07590346
144	0xbcd6011c	-0.026123576
145	0x3da5cb43	0.0809541
146	0xbd442415	-0.047885973
147	0x3d472792	0.04862172
148	0x3d3a1c8b	0.045437377
149	0xbdafd4ce	-0.08585511
150	0x3c0f1120	0.00873211
151	0x3db2c90f	0.08729755
152	0x3d8e7cf3	0.06957426
153	0x3c67c9d6	0.0141472425
154	0x3d82ac8b	0.06380566
155	0x3d5f91ff	0.054582592
156	0xbc45ad83	-0.012065294
157	0x3d2e7943	0.042596113
158	0x3d459f50	0.048247635
159	0x3bc6af6d	0.006063393
160	0xbd1c25e8	-0.038122088
161	0xbda8869e	-0.08228801
162	0xbd7f5f6a	-0.062346853
163	0x3cc36c99	0.023855494
164	0x3d6f646d	0.058445383
165	0xbd91bab0	-0.07115686
166	0xbd991e12	-0.074764386
167	0x3da171fe	0.078830704
168	0x3db02b6e	0.086020336
169	0x3b8e7207	0.004347089
170	0x3cba9c8e	0.02277973
171	0x3db2de27	0.087337784
172	0xbd0113d7	-0.03151306
173	0xbd429992	-0.047509737
174	0xbdb42458	-0.087959945
175	0x3d24f0cb	0.0402687
176	0x3b7a6779	0.0038208647
177	0xbd553181	-0.052049164
178	0x3bf9bfcc	0.007621741
179	0x3daecf56	0.0853564
180	0xbd87e932	-0.06636275
181	0xbcfd6c2f	-0.030935375
182	0x3b1665c9	0.0022948852
183	0xbd465cd7	-0.048428383
184	0xbd36414b	-0.044495862
185	0x3c95dff2	0.018295262
186	0xbd9a011a	-0.07519741
187	0x3db2e19b	0.08734437
188	0xbdb4ef91	-0.08834756
189	0x3b1f2c17	0.0024287754
190	0x3c013220	0.007885486
191	0xbd3abe27	-0.0455915
192	0x3d99d93a	0.07512136
193	0x3d9ac982	0.07557966
194	0xbd9d1196	-0.0766937
195	0xbd8aa48d	-0.06769667
196	0xbdb1cf5d	-0.086821295
197	0x3c14bfe9	0.009078958
198	0x3cc834d2	0.02443925
199	0xbbd50b96	-0.0065016253
200	0x3d94368a	0.07236965
201	0x3dadcf9f	0.08486866
202	0x3d940a1c	0.07228491
203	0xbc6080e3	-0.013702604
204	0x3cd69b75	0.026197175
205	0x3cc541a2	0.024079148
206	0xbd14654a	-0.03622941
207	0x3bc55b0b	0.006022816
208	0xbd05a6a7	-0.032629635
209	0xbd5bda6b	-0.053675096
210	0xbd4ac0e0	-0.049500346
211	0x3d31a6a8	0.043371826
212	0x3d79a3de	0.06094729
213	0xb9bff956	-0.0003661613
214	0x3db4b954	0.08824411
215	0x3d193e32	0.03741283
216	0x3cea6e95	0.028617183
217	0x3d01adb6	0.031659804
218	0x3d8f5a7e	0.06999682
219	0x3d778be4	0.060436144
220	0xbd80b8c3	-0.062852405
221	0x3d998696	0.07496373
222	0xbb947d2d	-0.0045315237
223	0xbd28af41	-0.04118276
224	0xbcb5d690	-0.022197038
225	0x3d8453f7	0.064613275
226	0x3ca8f2a6	0.020623516
227	0xbce894d8	-0.028391287
228	0x3cc03297	0.023461623
229	0xbd941cc0	-0.07232046
230	0x3d1b6171	0.037934724
231	0xbd486dc1	-0.048932794
232	0xbda50548	-0.08057648
233	0x3db2e3ae	0.08734833
234	0xbd78a13c	-0.06070064
235	0xbd8e6e64	-0.06954649
236	0x3cb06261	0.021531286
237	0xbd9ef156	-0.07760875
238	0xbd837402	-0.06418611
239	0x3d2d23c3	0.042270433
240	0x3d26bbd9	0.04070649
241	0x3d6e08ce	0.058113866
242	0xbc95dd67	-0.01829405
243	0xbcfd44eb	-0.030916652
244	0xbd8360cf	-0.06414949
245	0x3dad423f	0.08459901
246	0xbbda78b3	-0.0066672205
247	0x3bb47a5b	0.00550775
248	0x3d1a3db4	0.0376565
249	0x3c5eb802	0.013593676
250	0xbd029f0c	-0.03188996
251	0x3d58d7f5	0.052940328
252	0x3d764dd6	0.060132824
253	0xbd6d6fd9	-0.057967994
254	0xbbe2235d	-0.0069011883
255	0x3d83db6f	0.06438338

fc4.bias f4 [15]
0	0x3d125920	0.035729527
1	0x3bfc5d40	0.007701546
2	0xbd0e9641	-0.034811262
3	0xbd80a389	-0.06281192
4	0xbd9d4320	-0.07678819
5	0xbd7de5c0	-0.061986685
6	0xbd84809e	-0.06469844
7	0xbd7bdf11	-0.06149203
8	0x3d9c5619	0.07633609
9	0x3d65cfe4	0.056106463
10	0x3d958e79	0.07302565
11	0x3b3cec29	0.0028827286
12	0xbd05a27a	-0.032625653
13	0x3c7df6ef	0.015500768
14	0x3b23ea8b	0.0025011625
