api/model/NIDS_Model_1.pth (torch, 1910 bytes, 2 tensors)

fc.weight f4 [2, 47]
-0.10905988 0.034713354 -0.11745108 0.1052295 -0.13454501 0.10245804 0.03939022 0.03133194
-0.037321586 -0.030245839 -0.024256697 -0.034544144 -0.05367434 -0.013958258 0.12416349 -0.14040555
0.0038164197 -0.06681414 -0.106826924 -0.0051316307 -0.026889065 0.058100574 0.11545532 0.099809006
-0.062188428 0.08778104 0.13409865 0.0005616821 -0.11419944 0.13135 -0.006137171 0.08983747
0.08845476 -0.13344026 -0.03438485 0.058770306 -0.11957296 -0.013419232 -0.05597473 0.1172492
0.12764525 -0.124669835 0.12424707 0.054071214 -0.12560713 0.11850152 -0.0047292965 0.04197801
-0.11181428 0.020204054 -0.07005586 0.08841734 0.079361394 0.00019579408 0.053209756 0.06686213
0.06603919 -0.13067652 -0.026459154 0.11943738 -0.028425302 -0.07801285 -0.082458764 0.035612196
0.09885692 0.124841176 0.005135804 0.12391508 -0.0021446582 -0.14304507 -0.021492 -0.0507291
-0.04932787 0.09968282 0.07797847 0.06977215 -0.14387776 0.022539498 -0.012948371 -0.041075427
-0.12695438 -0.075699106 0.03701411 0.11976809 0.02985093 0.027076183 0.100201346 -0.0377226
-0.07079455 0.03394628 -0.06645835 0.08303659 0.0058858725 -0.0477905
00000000: c95a dfbd 972f 0e3d 318a f0bd 9082 d73d
00000010: 2bc6 09be 85d5 d13d a457 213d ec55 003d
00000020: 85de 18bd 1fc6 f7bc fbb5 c6bc 297e 0dbd
00000030: a0d9 5bbd 2db1 64bc 6e49 fe3d 79c6 0fbe
00000040: e61c 7a3b dad5 88bd 13c8 dabd 3d27 a8bb
00000050: 7546 dcbc defa 6d3d d773 ec3d aa68 cc3d
00000060: 4bb9 7ebd 8cc6 b33d 2851 093e d93d 133a
00000070: 65e1 e9bd 9d80 063e 521a c9bb b5fc b73d
00000080: c527 b53d 90a4 08be 21d7 0cbd 22b9 703d
00000090: abe2 f4bd 57dc 5bbc c245 65bd 5920 f03d
000000a0: 70b5 023e e652 ffbd 3f75 fe3d c779 5d3d
000000b0: 289f 00be edb0 f23d 37f8 9abb 22f1 2b3d
000000c0: e3fe e4bd f982 a53c 7279 8fbd 2614 b53d
000000d0: 3a88 a23d 134e 4d39 79f2 593d 03ef 883d
000000e0: 8e3f 873d 11d0 05be dec0 d8bc 969b f43d
000000f0: 2edc e8bc 33c5 9fbd 24e0 a8bd 18de 113d
00000100: 7f75 ca3d bbac ff3d 3f4a a83b 31c7 fd3d
00000110: 658d 0cbb 687a 12be fe0f b0bc 51c9 4fbd
00000120: 050c 4abd 8226 cc3d 2db3 9f3d b3e4 8e3d
00000130: b154 13be c1a4 b83c 6725 54bc b53e 28bd
00000140: 5400 02be 2208 9bbd 1b9c 173d f948 f53d
00000150: f089 f43c dfce dd3c 5d36 cd3d 0383 1abd
00000160: bcfc 90bd 410b 0b3d 511b 88bd 160f aa3d
00000170: 47de c03b f9bf 43bd

fc.bias f4 [2]
0.016674092 0.008474041
00000000: 1b98 883c b4d6 0a3c
