api/model/NIDS_Model_1.pth (torch, 1910 bytes, 2 tensors)

fc.weight f4 [2, 47]
000000 3c a0 e6 3d 51 60 9a 3d 2a 15 ec 3d 12 33 bb b9
       0.11261031 0.07537902 0.11527474 -0.0003570547
000010 e1 15 0d 3e 36 ca 09 3e 73 9f 5a bc 8c a8 c0 3d
       0.13777877 0.13456044 -0.01334368 0.09407148
000020 c6 83 03 3e 3b d9 c0 3d 33 5f 4f bd ab c4 94 bd
       0.12843236 0.094164334 -0.0506279 -0.07264074
000030 8a 76 ec 3d d0 fd 9a 3d 51 7a 59 bd b3 95 a1 3d
       0.11546047 0.07567942 -0.053095166 0.07889881
000040 f0 95 e4 3c 4f 1b d4 3d c2 64 38 bc ed c5 cb 3d
       0.027903527 0.10356771 -0.011254491 0.09949861
000050 62 ca fd bd 29 f5 09 bd 1a 98 00 3e 3c 99 5f 3d
       -0.12392117 -0.03368107 0.12558022 0.054589495
000060 44 e8 6b 3c 87 eb 6e bd d9 70 df bc bc 85 f5 3d
       0.014398638 -0.058330085 -0.02727549 0.119883984
000070 84 05 3c bd a7 ea 0a bd f9 39 a4 3c d6 7b 11 bd
       -0.045903698 -0.03391519 0.020047175 -0.03551849
000080 e5 7f 91 bd 03 d7 44 3d 28 ef d6 bd b7 78 f3 3d
       -0.07104472 0.048056614 -0.10494834 0.11888259
000090 b5 37 f9 3c 70 7a 98 bd 06 ec e8 3d 47 34 e3 bd
       0.030422071 -0.07445228 0.11373143 -0.110939555
0000a0 3a 9d a0 3c 89 f1 a3 3d ec 25 91 bd 52 39 bf bd
       0.019606221 0.080050536 -0.07087311 -0.09337105
0000b0 87 6b 1d bd 1b dd 03 3e 35 91 ed 3d 7f 85 39 bc
       -0.038432624 0.12877314 0.11599962 -0.011323332
0000c0 d3 2b eb bd 13 1a 0a be a3 75 e4 bd a4 64 09 be
       -0.11482968 -0.13486509 -0.1115525 -0.13417298
0000d0 9a f3 dd bd 55 43 e5 bd 60 3f 36 bd 22 f6 b2 bd
       -0.10837479 -0.11194483 -0.044494033 -0.08738352
0000e0 5d 7d a0 3d cb 3c 67 3d f5 0b a2 bd c0 1e cc 3d
       0.07836411 0.05645446 -0.07912437 0.099668026
0000f0 09 18 a9 3d 87 4e fa 3c 26 de fe 3d d4 a1 9f bb
       0.082565375 0.030555023 0.12444715 -0.0048715863
000100 3a c9 13 3e 80 61 d5 3d 4f 97 02 3c 96 f8 f8 3d
       0.1443223 0.10418987 0.007970645 0.12156789
000110 1c 31 b3 bd 3e af db bd e8 9d 81 3d 56 a7 f4 3d
       -0.08749601 -0.10726784 0.06328946 0.11945979
000120 b3 e0 d7 3d 48 db 96 3d 9b 2c 0d bd 19 ff 40 bd
       0.10540905 0.07366043 -0.034466367 -0.04711828
000130 b9 2a 0b 3c 60 c5 b1 3d 19 fb 01 be 70 d9 2f bb
       0.008494073 0.086802244 -0.12693442 -0.0026832484
000140 8b 72 0b bd 61 8e 68 3d 01 0d 0f 3e 9e 05 2d bd
       -0.034044784 0.056776408 0.13969804 -0.042241685
000150 cd 02 e3 bb aa 23 e2 3d dc 69 43 bc 9a a9 96 3d
       -0.006927824 0.11041959 -0.011927094 0.07356568
000160 3f d5 56 bd 13 c9 01 3e 53 3f cd bd 73 bd 51 bd
       -0.05244946 0.1267436 -0.10021844 -0.051206063
000170 e9 b6 01 3e b2 35 50 3c
       0.12667431 0.012708114

fc.bias f4 [2]
000000 46 35 14 be d7 f8 14 bd
       -0.14473447 -0.036370125
