api/model/NIDS_Model_1.pth (torch, 766204 bytes, 8 tensors)

fc1.weight f4 [512, 47]
000000 a9 a9 0f 3e c7 7d 00 be ec 6a ac 3d aa 9a f0 bd
       0.14029564 -0.1254798 0.08418831 -0.1174825
000010 e0 ea 3e bd b4 1c 95 3d ed bb 85 bd 64 db d1 bd
       -0.046610713 0.07280865 -0.065299846 -0.102469236
000020 96 4d f4 3d d3 54 d7 3d d1 ec 32 3c 9a a0 5f bd
       0.11928861 0.10514226 0.010920719 -0.05459652
000030 14 b5 08 bd af f2 2b bd 55 fb ae bd b3 c9 c2 bd
       -0.033375815 -0.041979488 -0.085440315 -0.09511127
000040 8a 56 84 3d 45 2e ad 3d 56 44 1e 3d ca 71 00 be
       0.064618185 0.08456091 0.03863939 -0.12543407
000050 07 91 b0 3d 85 68 bf bd db 34 8e bd 5f 8a 11 3e
       0.08621412 -0.093461074 -0.06943675 0.1421294
000060 ed c0 9c 3d 9c 52 91 3d 57 60 cb bd e1 5f b3 3d
       0.07653985 0.070958346 -0.09930485 0.08758522
000070 56 9e e6 bd c2 22 a1 3d dd 18 2c 3d 9c 82 e5 3d
       -0.11260669 0.07867958 0.0420159 0.112065524
000080 77 c5 e6 bd b6 3e d4 bd e9 f1 5e 3c 7b dd 30 3d
       -0.11268132 -0.10363524 0.013607481 0.04317997
000090 ca 1b 09 3e c4 fa e8 3d ab 5e 86 bd ec 92 72 3d
       0.13389507 0.11375955 -0.06561025 0.059222147
0000a0 49 85 e7 3c 1c fd ab 3d 7b 3d 0b 3e cc 7e e8 bd
       0.028261798 0.08397886 0.13597672 -0.113523096
0000b0 53 27 75 bd c3 43 0d 3e db 7d 02 3d ab 5e 86 3d
       -0.059851956 0.1379538 0.031858306 0.06561025
0000c0 ce 47 9c bd e2 1a 66 bd a9 a1 d3 bd d2 e6 0e be
       -0.07630883 -0.05617798 -0.103335686 -0.13955238
0000d0 5f 28 f8 3d 77 71 5a 3d c9 16 78 bb 04 c8 ae bc
       0.12117075 0.053330865 -0.0037855378 -0.02133561
0000e0 83 1d e6 3c 19 1e 46 bd 67 df 07 bd ec fe bf 3c
       0.028090244 -0.048368547 -0.033172037 0.023436986
0000f0 44 aa c7 3d 15 5b dd 3d 03 fc ba 3d 6e 9f 0e be
       0.097492725 0.10808388 0.09130099 -0.13928005
000100 6a a2 b9 3c d1 b4 a3 3d 3e 9c 94 3d f2 14 46 bc
       0.022660453 0.07993472 0.07256363 -0.012089955
000110 16 a6 72 bd 3a 30 9a bd 67 67 10 3d dc 7d 0c be
       -0.059240423 -0.0752873 0.035254862 -0.13719887
000120 bf 48 ed bb c0 cb d3 bd 55 bb 6c bc 1f d0 cd 3d
       -0.007241338 -0.103415966 -0.01444896 0.100494616
000130 10 3a 9e bd a0 d7 52 bd f3 65 37 bd a8 2b 1d 3d
       -0.07725918 -0.051475167 -0.04477496 0.038371712
000140 45 fd c9 bd ac 2f 8b bd 6c 50 0c 3c a4 83 b3 bd
       -0.098627605 -0.06796202 0.008564096 -0.08765343
000150 0c 14 da 3d 73 0b 06 bd ef 83 3b bd 89 7f 60 3c
       0.10648355 -0.032725763 -0.04578012 0.013702282
000160 f2 fb c5 3d a7 2c 08 3e 66 09 a3 3d de 91 e7 bd
       0.096671954 0.13298284 0.07960777 -0.11307119
000170 19 7b f6 3d 66 29 9b 3d 31 5f a6 3c 5b d9 e5 3c
       0.12035198 0.075762555 0.020309063 0.028057745
000180 be 76 9a 3d c3 f2 aa bd 7a dc 7c bd 25 2d fb 3d
       0.075421795 -0.083470844 -0.0617337 0.1226447
000190 52 fe f0 bd 68 61 aa 3d 08 83 7e bd 7f 6b 0f 3e
       -0.11767258 0.0831936 -0.06213668 0.1400585
0001a0 86 03 3f 3d 95 bc 21 bc 60 9f f6 bd e0 d5 fc bc
       0.04663422 -0.009871622 -0.12042117 -0.030863702
0001b0 b0 f1 3f bd 6c 52 dd bd 5b c8 51 3c d8 f0 5a 3c
       -0.04686135 -0.10806736 0.012804116 0.013363086
0001c0 12 f2 dc 3d bf a2 ae 3c 58 87 72 3d 91 73 e4 bd
       0.10788359 0.021317838 0.059211105 -0.11154855
0001d0 6e 26 94 3d 68 28 a8 bc c3 d8 32 3d 69 d0 f6 bd
       0.072338924 -0.02052708 0.04366375 -0.1205147
0001e0 32 e4 4c bd 70 aa ce 3d 0a e0 05 3d 3d ce 9c bd
       -0.05002231 0.10091102 0.032684363 -0.07656524
0001f0 0f 6f b4 3d b6 b6 bf 3d 48 07 3f 3d ad ba b7 3d
       0.08810245 0.09361021 0.046637803 0.089711525
000200 a7 89 41 3d e2 e6 a2 3d ed 0c 96 3d 2d f3 ac 3d
       0.047250416 0.07954194 0.07326684 0.084448196
000210 a7 f2 84 bd 65 11 06 3e 7b a6 29 3d 2c 09 a4 3d
       -0.06491595 0.13092573 0.041418534 0.08009562
000220 b3 19 8a bd eb ae 95 bd b8 0c cd 3d 2d 6a ca 3d
       -0.06743183 -0.073087536 0.100121915 0.09883533
000230 3f 01 0a 3e 52 3b d1 bd cc fa a7 bd 2d 61 f3 bc
       0.13477038 -0.102163926 -0.082021326 -0.029709423
000240 86 8a b6 bd 3b 94 00 be 92 fa da bd d0 02 8c 3d
       -0.0891314 -0.12556545 -0.10692324 0.06836474
000250 4a 74 01 be b3 c4 93 bc 3a 9a 31 bd 99 60 01 3d
       -0.12642017 -0.01803813 -0.043359973 0.031586263
000260 7c 7d 8b 3d 35 ea 67 3d d2 fd a1 bc b4 9c e6 bc
       0.068110436 0.05661984 -0.019774351 -0.028150894
000270 bd 58 0e 3d f6 28 c1 3b e2 97 4a bd cb 3b 61 3d
       0.034752596 0.0058947755 -0.049461253 0.054988664
000280 9f af 28 bb a5 ba 0a bd cb 3c 35 bd 47 6b c6 3d
       -0.0025739444 -0.033869404 -0.04424743 0.0968843
000290 3b 1f e5 bc 28 3f 6d 3d a4 68 07 be 7e a1 52 bd
       -0.027968993 0.05792156 -0.13223511 -0.051423542
0002a0 02 77 01 3c 6e d4 b1 3d 70 f6 ed 3d 81 c6 d1 bd
       0.007901909 0.08683096 0.1161927 -0.1024294
0002b0 3d 77 07 3d c5 a5 c6 3d ed 34 5b 3d 51 33 9e bd
       0.0330727 0.09699587 0.05351727 -0.077246316
0002c0 98 d3 c8 bd ae 5f 8f bd 75 08 af bd cc 99 96 bc
       -0.09805983 -0.07000671 -0.08546535 -0.018383883
0002d0 83 11 89 3d 86 59 14 3e ba 8c cf bd fd 50 99 3d
       0.06692793 0.14487275 -0.10134263 0.074861504
0002e0 4a ff 6e bc 82 88 43 bd 0d 15 a0 3d a5 6b 8d bd
       -0.014587233 -0.047737606 0.07816515 -0.06905297
0002f0 4d f3 a3 bc 5d a8 cd 3b 82 cd da 3d a2 62 e3 bd
       -0.020013476 0.006276174 0.10683729 -0.11102797
000300 45 43 a3 bd 23 5b 4c 3c ee 4f 19 3d 6f aa f6 bd
       -0.07971815 0.012472901 0.037429743 -0.120442264
000310 71 ac ca 3d 63 91 84 bd 57 78 3d 3d 85 22 b6 bd
       0.09896172 -0.06473043 0.046257343 -0.08893303
000320 4f 56 4e 3c 43 a0 2c 3d 82 46 67 3d f8 e1 64 bc
       0.01259382 0.042145025 0.056463726 -0.013969891
000330 63 74 2a 3c 5f 6b 88 bd b2 ec 70 bd 21 6d 87 3d
       0.010403725 -0.066611044 -0.05881948 0.066126116
000340 c8 44 32 bc 79 95 7a bd e5 a2 6f 3d 01 1d e0 3c
       -0.010880657 -0.061177704 0.058504958 0.02735758
000350 22 7e 89 bd e8 b9 4d bd ad 80 71 bd 48 d9 f9 3d
       -0.06713511 -0.050226122 -0.058960605 0.12199646
000360 a8 82 ea 3d c7 89 08 be c0 14 62 3d e1 92 7b 3d
       0.11450702 -0.13333808 0.05519557 0.06141937
000370 48 07 d9 bc 10 25 c2 3d ec e4 95 bd 5a 53 f6 bd
       -0.02649273 0.09479725 -0.07319054 -0.12027617
000380 78 01 27 bc 8c bf 06 3e 61 14 a9 bc f4 ef 1d 3d
       -0.010193221 0.13159007 -0.0206396 0.038558915
000390 1b 33 48 3d 7e 53 df 3b cd 17 91 bd 44 8f 02 3d
       0.048876863 0.006815373 -0.07084618 0.03187491
0003a0 65 df 8f 3d 58 f2 c3 bd 78 f7 7b 3c d0 3f 0e 3e
       0.07025031 -0.09567708 0.015378825 0.1389153
0003b0 83 88 c4 3d d3 31 2c 3d 44 1e ff 3d bb d6 f6 3d
       0.0959635 0.042039704 0.124569446 0.12052675
0003c0 39 f4 0e be ce 7c 81 bd 33 2e 58 bc cb 77 83 bd
       -0.13960351 -0.06322633 -0.0131946085 -0.06419333
0003d0 01 5c 72 bd ea bd 72 3c bc 6f a9 3d d2 62 8c 3d
       -0.059169773 0.014815787 0.08273265 0.06854786
0003e0 64 41 f9 bd 20 eb 41 3d c8 d0 11 3e ef 45 0a bb
       -0.121706754 0.047343373 0.142398 -0.0021098813
0003f0 9e 37 f9 3d 49 d6 66 bc 1a 4d a1 3d b8 d9 a6 3d
       0.12168811 -0.0140891755 0.07876034 0.08146995

fc1.bias f4 [512]
000000 de aa 2d 3d 6b 4a af bc 27 ee c4 3b 31 07 2a 3d
       0.04239928 -0.02139779 0.0060098353 0.041510765
000010 b1 fd 01 3e d7 ff b1 3d 44 d7 ae 3d d3 9a 7e bd
       0.12694432 0.08691376 0.085371524 -0.06215937
000020 20 c6 c6 3d 49 fa a2 3d 0d 2b 6f bc fd ec 8c 3d
       0.09705758 0.07957894 -0.014597666 0.068811394
000030 f2 3d 03 3e 32 c2 24 bd f0 ef aa bd a4 0a b4 3d
       0.12816599 -0.04022426 -0.08346546 0.08791092
000040 a4 41 00 be f0 d5 9a 3c 1e e0 5b bd 44 2f e5 3d
       -0.1252504 0.018900841 -0.05368053 0.11190656
000050 34 17 f3 bd fd a2 03 3d f1 ef ba bd 42 37 87 bd
       -0.1186966 0.03213786 -0.091277964 -0.066023365
000060 65 38 01 be 35 a9 fc 3b 95 62 46 bd 02 e4 b9 bd
       -0.12619169 0.0077106007 -0.04843386 -0.09076692
000070 28 f8 14 be bb 40 c2 bb 3b 76 32 bc 80 7d 62 bd
       -0.14547789 -0.0059281266 -0.010892446 -0.055295467
000080 51 7e b3 bc a2 47 b1 3c 2a 54 cd 3c 20 bc 84 3d
       -0.021910818 0.021640602 0.025064547 0.064811945
000090 24 6f 04 3e 39 71 4e 3c 7a f3 8a 3d 96 6d f5 bd
       0.12933022 0.012600237 0.06784721 -0.119837925
0000a0 5d 35 05 3e 5b b6 03 3e f0 68 9d 3d e5 cb 0c 3e
       0.13008638 0.12862532 0.07686031 0.13749655
0000b0 b7 42 d5 3c de fc a7 bd 24 f1 12 bd 88 fe e5 3d
       0.026032789 -0.082025275 -0.0358745 0.112301886
0000c0 ab 25 4d bd c5 43 fa 3c 11 bf 3d 3d c0 7d 6d 3d
       -0.05008475 0.030549893 0.046324793 0.057981253
0000d0 77 e6 d8 3c 0d d2 f9 3d d6 f3 c7 bd 14 f7 ef bc
       0.026477082 0.12198267 -0.09763305 -0.02929262
0000e0 81 63 c3 3d 6b f6 fa 3d b2 de dc bd 14 fe dd 3d
       0.09540463 0.12254032 -0.10784663 0.10839477
0000f0 24 1b 12 be 51 fb 17 bd 94 77 09 be 5a c3 e2 bd
       -0.14268166 -0.03710491 -0.13424522 -0.110724166
000100 a3 24 4f 3d da a8 0c 3e b0 d5 9d bd 56 8d c6 bd
       0.05057205 0.13736287 -0.07706773 -0.096949264
000110 35 97 e1 bd ad 67 c2 3c d9 e0 03 3e ad cd c8 3d
       -0.110151686 0.023731077 0.12878741 0.098048545
000120 ea 71 6b bd 25 d8 41 3b 34 30 be 3c bc e8 7e 3d
       -0.057481684 0.0029578295 0.023216344 0.06223367
000130 5c dd 5e 3d 9b fb 01 be 1a 9e 0b 3e 99 73 85 bd
       0.054410324 -0.12693636 0.1363453 -0.06516189
000140 3b e2 31 3d 39 ad ab bd 80 a6 ce bd 5a 14 0e be
       0.04342864 -0.08382649 -0.10090351 -0.13874951
000150 ce ee 4c 3d c7 7a 1c bd e8 1b eb bc 8f b4 13 be
       0.05003243 -0.038203027 -0.02869983 -0.14424346
000160 be 45 f2 3d 03 19 04 be e1 b5 cf bd a7 c3 02 3c
       0.118297085 -0.12900166 -0.101421125 0.0079812175
000170 0a d7 19 bc a3 cc 47 bd 82 6f fc bd 8d 98 a0 bd
       -0.009389648 -0.04877914 -0.12325956 -0.07841597
000180 18 f2 0f bd d4 13 6e 3d 9d 8f 6e 3d 99 db af 3d
       -0.035142988 0.05812438 0.05824243 0.08586807
000190 b4 36 dc 3d f0 5e d8 3d a0 be 3b bd e5 6c 89 bd
       0.10752621 0.10564983 -0.04583609 -0.06710223
0001a0 70 97 8f bd 6a e6 a0 3d 76 e3 e3 bd 5e 0c ad 3c
       -0.07011306 0.07856448 -0.11127369 0.021124061
0001b0 57 a0 40 3d 37 2b a9 3d d3 86 92 bd 07 b7 ec bc
       0.047027912 0.08260196 -0.07154622 -0.028895868
0001c0 3f a0 70 3d 07 1a c9 bd 2b 85 f8 bd 97 52 f8 bb
       0.058746573 -0.098194174 -0.12134775 -0.007578205
0001d0 69 23 bc bd b8 95 96 bd 44 a0 6d bc 31 71 93 39
       -0.091864415 -0.07352775 -0.014503542 0.0002812236
0001e0 40 da c8 3c e7 d5 34 3d 24 5d 0a 3e 24 a0 33 3d
       0.024518132 0.044149306 0.13512093 0.043853894
0001f0 c2 3e 89 3c c8 30 e6 3d 6c 8e 5f bb 7e 7e dd 3d
       0.016753558 0.11239773 -0.003411199 0.10815142
000200 74 26 da bd 21 d7 e5 bd 61 a4 80 3b e3 e8 04 3e
       -0.106518656 -0.11222673 0.0039258455 0.12979464
000210 4a 2a a2 3d 76 a1 c8 3d 9f 73 ba 3c b8 f6 7e bc
       0.07918222 0.09796421 0.02276021 -0.015561752
000220 66 6b 10 3d 00 b0 58 3d da c0 de 3d dd 18 f3 3b
       0.035258673 0.05290222 0.10876627 0.0074187354
000230 b9 ab 88 bd ec fc 10 3e 7e 90 90 3d 9d ff ca 3b
       -0.066733785 0.14158982 0.0705881 0.0061950223
000240 e3 7a be 3d 51 68 15 3d 26 2b 2c bd 98 6a 8f 3d
       0.093007825 0.036476437 -0.042033337 0.07002753
000250 a7 b3 ff 3c c3 d0 f8 bd 86 60 19 39 77 d9 01 3d
       0.031213595 -0.12149193 0.00014627175 0.03170153
000260 8d 7a 81 3d 18 5f e6 bd a1 a6 7d 3d 13 a9 ff bc
       0.06322203 -0.112486064 0.061926488 -0.03120855
000270 7b c8 f1 3d eb 46 7b 3d e8 b3 1b 3d 49 e6 92 3d
       0.11805817 0.06134693 0.03801337 0.0717283
000280 1f e4 2a 3b 66 46 97 3d 0c 02 b2 3c 3e 6a 33 3d
       0.0026075912 0.07386474 0.021729492 0.043802492
000290 61 af 4b 3d c4 5e 0b 3e 60 48 fe 3c a6 9a 00 be
       0.0497278 0.13610369 0.03104037 -0.12558994
0002a0 5b d0 4f 3d a7 13 9e 3d 01 83 03 3e 44 0b d4 3d
       0.050735813 0.07718592 0.12842943 0.10353711
0002b0 89 88 5c 3c 79 db 6a 3d fd 9d 8d bd e1 1a e4 3d
       0.013460287 0.05733821 -0.069148995 0.11137939
0002c0 15 91 55 3d 4c 4a e5 3c 80 ee b0 3d df 39 ea bd
       0.052140314 0.02798953 0.0863924 -0.11436819
0002d0 74 92 c2 3d 74 d5 bb bd c2 d5 63 3d 96 dd 9e bd
       0.0950059 -0.09171572 0.055623777 -0.07757108
0002e0 7d 74 ed 3d 35 19 81 bd fd fe d9 bd 14 16 2b bc
       0.11594484 -0.06303636 -0.10644338 -0.010442276
0002f0 29 dd a4 38 34 a8 a5 ba a4 67 32 3c c5 aa 7f bd
       7.861324e-05 -0.0012638629 0.010888968 -0.062418718
000300 c7 36 74 bd 5b fe ca 3d 34 2f ae 3d 4c 15 82 bd
       -0.059622552 0.09911796 0.08505097 -0.06351718
000310 1a df a0 3d 69 dc fb bc 8e af 9e 3d 03 28 d5 3d
       0.07855053 -0.030744748 0.07748328 0.10408022
000320 f0 30 28 3c b6 05 4f 3d 66 56 87 bc 2f 1a f8 3d
       0.010265574 0.050542556 -0.01652069 0.12114369
000330 3c 12 0d be d9 4b c4 3d 5d 20 0c 3e d5 84 d2 bd
       -0.13776487 0.09584779 0.1368422 -0.10279242
000340 10 94 b0 bd a3 b3 be 3d 98 b8 bd 3c 2b cc 0c 3d
       -0.08621991 0.09311607 0.02315931 0.034374397
000350 0c 19 dc bd f3 ec e2 3d 02 96 f8 3d f5 86 b1 3d
       -0.10746965 0.11080351 0.12137987 0.08668319
000360 fc ad 32 3d 54 a6 e5 3d dd 5b 57 bc c2 ef b8 3d
       0.043622956 0.11213365 -0.0131444605 0.09030105
000370 da 1c 27 bd 5b d8 35 bd e3 b4 0a be 77 0c 8f 3d
       -0.040799 -0.044395786 -0.13545565 0.06984799
000380 e8 01 3c 3d 3d e7 08 bd ea d5 05 3e b6 ca 10 be
       0.045900255 -0.03342365 0.13069883 -0.14139828
000390 10 a3 ae bd 23 93 95 bd dd 02 9f bd dc 1e 41 bd
       -0.085271955 -0.07303455 -0.07764218 -0.04714857
0003a0 82 62 09 be 5b c2 b4 bd b9 f7 0d bd 96 ad 06 be
       -0.13416484 -0.08826133 -0.034660075 -0.13152155
0003b0 ef 5d e5 3d 5f 3a 85 bc 75 0a d9 bb 26 94 ca 3c
       0.11199557 -0.016263185 -0.006623561 0.024728846
0003c0 0b a5 21 3d 37 ea 8f bc 5c 4e ce 3b c5 ec b5 bd
       0.039464038 -0.017567737 0.0062959623 -0.08883051
0003d0 a8 03 12 bd b8 35 98 bd 19 bd ac bd 2f cb 8f bd
       -0.035648018 -0.07432121 -0.08434505 -0.07021176
0003e0 3f 7c 8c 3d 53 d7 d9 bd 8a 3c 12 3e 14 a1 8d bc
       0.068596356 -0.10636773 0.14280906 -0.017288722
0003f0 c2 99 23 3d cd 00 bf 3d 44 d6 8a bd b5 5f d6 bd
       0.039941557 0.093263246 -0.06779149 -0.104674734

fc2.weight f4 [256, 512]
000000 6c 31 3b bc 08 13 34 3c a0 31 09 bd 3a 69 b3 3c
       -0.011425357 0.0109908655 -0.03349459 0.021900762
000010 79 65 ef 3a 59 32 d0 ba bd 0c 61 bc 81 83 07 bd
       0.0018264494 -0.0015884145 -0.013735947 -0.033084396
000020 e3 bf 12 bd 0c 88 34 bd e8 44 2b bc ea a9 33 bc
       -0.03582753 -0.044075057 -0.01045344 -0.010965804
000030 38 e5 92 3b 21 b4 c7 3c fb 84 09 3d d3 4a 06 3d
       0.0044828914 0.024377884 0.033574086 0.0327862
000040 d4 0f 12 3d 1c 82 f4 3c af 8c 1a bd ab b1 77 3c
       0.035659626 0.029847197 -0.037731823 0.015118043
000050 49 01 01 bd 18 aa fc bc dc bb 48 bc 27 5d 3f bb
       -0.031495366 -0.030842826 -0.01225182 -0.002919981
000060 72 cf 18 3c ad 3e fb 3c 62 4d 1c bd aa b7 84 3c
       0.009326803 0.030669535 -0.038159736 0.01620086
000070 8a 13 90 3c 60 68 05 bc 3c 8c e6 3c 91 31 5a bc
       0.017587442 -0.008142561 0.02814304 -0.013317482
000080 11 28 ef bc 30 fd a6 bc c7 8b 08 bd e4 76 f7 3b
       -0.02919391 -0.020384401 -0.033336427 0.0075520147
000090 e0 c7 1a bc 61 df 93 bc 4c 7c 0e bd cb e8 1d 3d
       -0.009447068 -0.018050851 -0.034786507 0.038552087
0000a0 bb 54 0e bd c0 6c df 3c c4 ca 14 3d 3b 08 e3 3c
       -0.034748774 0.027273536 0.036326185 0.027713886
0000b0 de fc bb 3c a1 96 ac 3c 3c f6 66 bb 01 2c 30 bd
       0.022947725 0.02106792 -0.0035241982 -0.043010715
0000c0 44 bd 17 bc 8c a3 a3 bc 8f 59 ad bc ab 34 22 3c
       -0.009261433 -0.019975446 -0.021160869 0.009900252
0000d0 38 df 0f 3d 8e 03 64 bc fc 5b b6 bb 57 e5 21 bd
       0.035124987 -0.013916863 -0.0055651646 -0.039525356
0000e0 87 c6 bc 3c d1 e8 03 bd bc f8 59 3c cc 8d c4 bc
       0.023043884 -0.032204453 0.013303932 -0.023993395
0000f0 b0 f0 a7 3c b0 e8 88 bc 18 5f b3 bc d9 14 ff bc
       0.02050051 -0.016712517 -0.02189593 -0.03113787
000100 77 46 64 bc 6a 0b 0c bd 13 93 01 bd f5 cf 8f bb
       -0.013932816 -0.034190573 -0.0316344 -0.004388804
000110 7d 49 25 3c e4 2a 70 bc bb 41 1c 3d 95 ad 98 3c
       0.010088322 -0.014658663 0.038148623 0.018637458
000120 ab 48 28 bd 20 45 9d 3c e4 71 32 bd 15 d6 b0 bb
       -0.041084927 0.019198 -0.043565646 -0.0053966143
000130 77 38 11 bd a3 56 32 3d 0e 4f 03 3d 61 cf 87 3b
       -0.03545424 0.043539654 0.032057814 0.0041445945
000140 b9 4b 4f 3c a6 d7 8a 3b e4 5b db 3c 8a 7b 60 bb
       0.012652331 0.004237133 0.026777215 -0.0034253323
000150 a1 66 f4 3c 2f c9 bb 3a a6 a1 c4 bc 32 89 92 3c
       0.029834094 0.0014326925 -0.024002861 0.017887685
000160 db 0c 32 3c bc 84 7d 3a a2 3a a0 3c 56 ec 81 bc
       0.010867323 0.0009670963 0.019559208 -0.015859764
000170 a7 5f 08 bc 21 18 a0 3b b9 97 da 3c 42 99 01 3d
       -0.008323587 0.004885689 0.026683675 0.0316403
000180 bc 0f ac bc 7e aa 13 3d ec e5 0e bd f2 02 f5 bc
       -0.021003596 0.036051266 -0.03488724 -0.029908631
000190 94 21 c1 3c be 09 b3 3c a2 31 2f bd 47 c9 f5 3b
       0.023575582 0.021855231 -0.042771943 0.007500801
0001a0 44 68 dd 3c 50 e9 32 bd 18 d5 df 3c 0a 40 a8 bc
       0.027027257 -0.043679535 0.02732329 -0.020538349
0001b0 66 b0 1f 3d 90 b0 94 3c 6f 31 6b bc cd bc 82 3c
       0.038986586 0.018150598 -0.014355048 0.015959168
0001c0 fd eb 9d 3b 0e b4 05 3d 72 01 d1 bc 1d 3d fe ba
       0.0048193918 0.032642417 -0.025513384 -0.0019396875
0001d0 bb fd 5d bb 1c b8 e0 bc 13 62 f7 3c d1 0b 09 3d
       -0.003387316 -0.02743154 0.030198133 0.033458535
0001e0 be a5 d8 ba 2b a7 1b bd 69 8a b2 3b 4e 2f 10 bd
       -0.0016528887 -0.03800122 0.0054486287 -0.035201363
0001f0 a4 3e be 3c cf bc f2 bb 3b f1 31 bb 3e 7a 29 3d
       0.023223229 -0.0074077616 -0.0027151841 0.041376345
000200 ef 8a 33 3c 03 fe 20 bd ea 59 2b 3d 5f 31 e8 bc
       0.010958417 -0.039304744 0.041833796 -0.028343854
000210 43 27 14 bc e1 83 7c bc 9e 2f 2c 3d 21 ee 07 bd
       -0.009042564 -0.015412302 0.0420376 -0.03318608
000220 3c 31 52 bc 1f 96 25 bd 2a fa d0 3c bb 6c 27 bd
       -0.012829121 -0.04042637 0.025509913 -0.040875178
000230 2c d3 8d bc 82 f8 b8 bb 4e ee c8 ba 62 62 ea 3b
       -0.017312609 -0.005644859 -0.0015329809 0.0071528414
000240 de 63 26 3c ad 3a 7f bc d7 0c e1 3c 92 1e 0b 3d
       0.010155646 -0.015577954 0.027471943 0.0339647
000250 dd f5 4c bc 5d 12 0f bd cc 17 c4 bc 2d a8 a5 bc
       -0.01250979 -0.034929622 -0.023937128 -0.020221794
000260 95 66 00 3d 7b 11 fc bc d5 7f a4 3b 0d 80 31 bc
       0.03134783 -0.030770054 0.0050201216 -0.010833752
000270 f1 66 ed bb ad 7a ef 3c 20 72 e0 bb 67 f1 8a bc
       -0.0072449376 0.029233301 -0.0068495423 -0.016960813
000280 df 28 e9 bb 5c bf 2b 3d e1 2b e4 bb 02 7b b6 bb
       -0.007115468 0.04193054 -0.0069632386 -0.005568863
000290 04 ce 77 bc 89 b3 87 bc 15 89 00 bc 66 88 0b bd
       -0.015124802 -0.016565101 -0.007845183 -0.034065627
0002a0 59 81 11 3d 14 a3 74 bc ce 5b 30 bd b3 b8 7a 3c
       0.035523746 -0.014931459 -0.0430563 0.015302825
0002b0 78 43 62 3c 53 1f bf bc 99 8c a5 3c 28 a3 e9 ba
       0.013810031 -0.023330366 0.020208644 -0.0017825114
0002c0 e2 cc 09 bd 21 eb a1 3a ca d6 b6 bc c3 03 22 bd
       -0.033642657 0.0012353399 -0.022319216 -0.03955437
0002d0 e0 bf e4 bc 45 9e ad bc 81 39 ec bc 60 ab 69 bc
       -0.027923524 -0.021193633 -0.028836014 -0.01426205
0002e0 a5 f1 2b bd 8f e4 c8 bc 8d c4 af bc 81 7b 84 3c
       -0.041978497 -0.024523048 -0.021456027 0.016172173
0002f0 db 09 f6 bc 56 6b 8d bc 75 b3 51 bb ef 0b 27 bd
       -0.030033996 -0.017263096 -0.0031997834 -0.040782865
000300 08 9f 1e 3d e4 2a 4a 3c 98 8d 7d 3c d8 75 a4 3b
       0.038725883 0.0123393275 0.015475653 0.005018931
000310 5e 57 e4 3c e4 48 88 bc 9e 44 a5 bc 82 09 77 3b
       0.027873691 -0.01663632 -0.02017432 0.0037694876
000320 d5 2f 2e bd 01 51 06 3d 68 d8 03 bd 9e 45 8b bc
       -0.042526085 0.032792095 -0.032188803 -0.01700097
000330 d8 7f 99 3c f3 bc ff 3c c6 18 8a bb fb 43 ff 37
       0.018737718 0.031218028 -0.004214379 3.0430025e-05
000340 2c 44 28 3d 87 59 48 bc 94 24 85 bc 23 dc da 3a
       0.04108064 -0.012228376 -0.016252793 0.0016697686
000350 3d fe f6 3b 43 04 27 3d 44 f4 f7 39 49 f9 ee ba
       0.007537632 0.04077555 0.00047293503 -0.0018232252
000360 1d 11 a0 3c 72 6a e7 3c 5a 6f c1 3c be 53 0d bd
       0.01953941 0.028249 0.023612667 -0.03450369
000370 21 a2 bb 3c 25 74 00 3d 3a 9a 08 bd 8d fd c8 3b
       0.022904458 0.031360764 -0.033350207 0.0061337412
000380 ec 15 f4 bc a6 74 d1 3c 2c eb 0c bb 7f 8b 07 3b
       -0.02979561 0.025568318 -0.0021502478 0.0020682511
000390 61 b9 2c bd 7c 6c 89 bc b2 cc e1 bb d8 14 8e 3c
       -0.04216898 -0.016775362 -0.0068908567 0.017343923
0003a0 1e 19 c7 bc 51 37 d7 3c 03 25 5f 3c a7 e5 12 3d
       -0.024303969 0.026271494 0.013619664 0.035863545
0003b0 d5 ef cc 3b 6f 66 19 bd 1d 7e 26 bd f9 7b 1b bd
       0.006254176 -0.037451204 -0.040647615 -0.037960026
0003c0 9d 98 c8 3b db 93 1b bd 01 8b 26 3a bf 38 29 3d
       0.0061217085 -0.037982803 0.00063531107 0.041313883
0003d0 29 a4 17 bc 48 76 4b 3b 4b 8f 1f bd 48 28 df bc
       -0.009255447 0.0031045843 -0.038955014 -0.027240887
0003e0 b5 c8 31 bc d7 82 82 3b c0 16 c1 3c d9 b1 19 bd
       -0.010851075 0.0039828825 0.023570418 -0.037523124
0003f0 e4 19 ae bc 17 6a c1 ba 5c fa 34 3d e1 7a ab bc
       -0.02125258 -0.0014756349 0.044184074 -0.020932617

fc2.bias f4 [256]
000000 21 22 dd bc 72 e0 12 bc 20 ee f7 3b b5 61 e0 3c
       -0.026993813 -0.008964645 0.0075662285 0.02739034
000010 ea 1a 0b 3d 8f c1 a2 3b 41 de d6 bc 02 00 e2 3b
       0.033961214 0.0049669216 -0.026229026 0.0068969736
000020 c1 c7 96 bc 7d 08 2b bd 9e 54 c2 bc a0 ad 12 3d
       -0.018405797 -0.041756142 -0.02372199 0.035810113
000030 bf aa 97 bb e3 39 b4 bc 97 6b 07 3c 1c c0 02 3d
       -0.004628509 -0.022000259 0.0082653975 0.03192149
000040 22 5c 6e 3c f7 f4 75 bc 35 ff d3 3c 8b 69 02 3d
       0.014548333 -0.015012017 0.025878528 0.031838935
000050 32 74 fd bc 46 c8 1a 3d 0c eb 20 bd 90 dd 64 bc
       -0.030939195 0.037788652 -0.03928666 -0.01396884
000060 5d 01 09 bd 77 34 16 3a 60 6f 01 ba 69 89 ec 3c
       -0.033448566 0.0005729864 -0.00049375556 0.028874116
000070 fa 57 27 bc 69 be 11 3d 24 98 2c 3c 1b bf 83 bc
       -0.010213846 0.03558198 0.01053432 -0.016082337
000080 05 a2 ef 3c 3f 2b 88 3c 51 78 ff bc df ab e3 bc
       0.029252062 0.016622184 -0.031185301 -0.027791915
000090 9e e4 dd 3c 9e 8f 85 3b e2 81 e4 3a 0f eb b7 bc
       0.027086552 0.0040759584 0.0017433728 -0.022450952
0000a0 08 73 71 b9 31 ba f4 ba 46 a2 1e bd 73 e0 1a 3d
       -0.00023026404 -0.0018671212 -0.038728975 0.037811708
0000b0 73 db 1f ba 9d 90 18 bd da b7 8a bc ad e5 23 3d
       -0.0006098069 -0.03724729 -0.01693337 0.040013958
0000c0 d3 5e 32 3d 06 6a 29 3d 11 fa 0d bd 23 00 30 bd
       0.043547463 0.041360877 -0.03466231 -0.04296888
0000d0 d5 60 e9 3c 28 b4 f6 3c 72 53 73 3c c3 90 86 bc
       0.028488556 0.030115202 0.014851438 -0.01642645
0000e0 f6 07 6f bb 49 38 c5 3c f7 3f 75 bc 7b 75 15 bc
       -0.003647325 0.02407469 -0.014968864 -0.009122248
0000f0 bf 76 c2 3b b3 ed 2a 3d a3 90 15 bc dc c3 d4 3c
       0.005934566 0.041730594 -0.009128722 0.0259723
000100 13 08 94 3c b2 c7 2d bd 37 d3 30 3d 98 f3 79 bc
       0.018070256 -0.042426772 0.04317018 -0.015255831
000110 f9 02 4c 3c 30 fa 2d 3d 02 4a f3 bb b2 01 0c bc
       0.012451881 0.042474926 -0.007424594 -0.008545326
000120 2e 6c 1f bd 33 82 bf 3c bd c2 cf bc 96 93 63 3b
       -0.038921528 0.023377514 -0.025361413 0.003472542
000130 f9 42 ec 3c c9 45 07 3d 44 3a 16 bd e8 09 cf bc
       0.028840529 0.033025537 -0.03667666 -0.025273278
000140 1a b9 88 bc 7f 8c 3d 3a 6f 45 6f bc 30 df 2b bc
       -0.016689826 0.00072307134 -0.014603957 -0.010490224
000150 8f 2f 13 3d 47 a7 9d bc 5b c3 0f 3d e7 58 16 bc
       0.035934027 -0.019244803 0.035098415 -0.009176469
000160 1a 99 fa bc b8 ba 74 3b 8a ad 1e bc 63 87 35 bc
       -0.030590583 0.0037342738 -0.00968493 -0.011079642
000170 0e 3a 33 bd 33 69 f9 bc 30 4d bd 3c 6f 91 05 bd
       -0.043756537 -0.03044567 0.023108095 -0.0326094
000180 c8 a0 99 3c f9 f2 4b bc bd 17 0b bd 25 cf 04 bd
       0.018753424 -0.012448066 -0.033958185 -0.03242411
000190 a8 4a e9 3c b5 55 06 3d b6 e1 a8 3c 06 7f 16 3d
       0.028477982 0.03279658 0.02061544 0.036742233
0001a0 70 91 23 bd fe 73 26 3d 74 cb 3c bb 1e 5f 1e 3c
       -0.039933622 0.040637963 -0.002880779 0.009666232
0001b0 f7 96 2d 3c ed 41 d9 3c 69 a2 d1 bc 87 00 07 bc
       0.010595075 0.026520694 -0.025590139 -0.008239872
0001c0 df ee 11 bd 5a 4d 54 bc b6 fd 15 bc ca 2b 2b 3d
       -0.035628196 -0.012957895 -0.009154728 0.041789807
0001d0 cf 5e a2 bc 89 25 2a 3d 50 fd f8 3c ec 2f 0c 3c
       -0.019820599 0.041539703 0.030394226 0.008556347
0001e0 04 57 2a 3d 3f 7e 51 3b 93 4a a9 3b 77 91 39 3c
       0.04158689 0.0031966118 0.0051663606 0.011326185
0001f0 6d eb 06 bb 3f 7b 50 3c 6d 50 99 bc b7 bf bb bc
       -0.0020587102 0.012724697 -0.018715108 -0.022918565
000200 57 d6 5f 3c 5a 5e d9 bc d3 9e 14 3d 23 36 31 bd
       0.013661942 -0.026534248 0.03628428 -0.04326452
000210 ce 32 9f b9 94 5e 02 3d c5 5c d1 bc 30 f7 7f bc
       -0.00030364696 0.031828478 -0.025556931 -0.015622899
000220 ce 65 82 3b e2 3a 10 3c 94 cc 14 bd e1 50 05 bd
       0.003979421 0.008803101 -0.036327913 -0.032547835
000230 12 4c 00 bd 60 b6 92 3b f5 6a f7 bc 8f 4e 22 bd
       -0.031322546 0.004477307 -0.030202368 -0.0396257
000240 87 89 92 3c fc 45 1b 3d 0d 24 34 3d 92 f4 ca bc
       0.017887844 0.03790854 0.043979693 -0.024774823
000250 cf 08 2a 3c 68 3f 1a bc ee c3 de bc 11 f9 9e 3c
       0.010378077 -0.009414531 -0.027193036 0.019405873
000260 74 38 bc bc 1b 10 9c bb 99 c7 e6 3c fc 8e b6 bb
       -0.022976138 -0.004762662 0.028171347 -0.0055712443
000270 26 e8 57 3b 6a 0e 62 bc df 2b 30 bd 15 a1 a9 3c
       0.0032944768 -0.013797382 -0.04301059 0.020706693
000280 80 34 18 bb 29 75 a8 bb 01 bb 2b bd a3 6a 6c bc
       -0.0023224652 -0.0051409197 -0.041926388 -0.014429721
000290 78 da 8c bc c3 03 20 bd 04 bc 26 bd 27 ed e6 bc
       -0.017194018 -0.039066087 -0.04070665 -0.028189255
0002a0 de f4 2e 3d f9 66 12 3d d7 a5 23 bd 05 c1 a2 bc
       0.042713992 0.035742734 -0.03995308 -0.01986743
0002b0 8e d6 1d bc 64 e6 2a bd 7e ff e0 3c a8 5c 15 3d
       -0.009633673 -0.041723624 0.027465578 0.036465317
0002c0 ad 34 10 3d a3 d9 41 3b 75 7c b4 bc c8 06 1c bd
       0.035206486 0.0029579184 -0.022032002 -0.038092405
0002d0 75 64 02 3d a4 52 27 bd e9 fb 30 bc d5 81 11 3c
       0.031834085 -0.040850297 -0.010802248 0.008881052
0002e0 8c 1b fa bc 4e f0 39 bb 7d 93 2e 3d c7 19 00 bc
       -0.030530713 -0.0028371993 0.042621125 -0.007818646
0002f0 b3 f4 ba ba ab 41 8c bc 8a 5c 18 bc b0 e3 85 bc
       -0.00142636 -0.017121157 -0.009299407 -0.016343921
000300 bc 5a 34 3c f3 57 fe 3c f9 10 1b ba 1c 15 66 3c
       0.011007961 0.031047797 -0.000591531 0.014043119
000310 99 20 b8 bc 64 28 f9 bb 94 3d 22 3d a8 41 9d 3c
       -0.022476481 -0.007603692 0.039609507 0.019196346
000320 a3 53 08 bd f3 49 03 3d ca 2a dd bc 7f b6 29 3b
       -0.033282887 0.032052945 -0.026997942 0.002589613
000330 4e 84 a2 3b d7 34 b4 bc 09 a1 13 bd b0 a4 1c 3d
       0.0049596196 -0.021997852 -0.036042247 0.038242996
000340 7d 4d e0 ba db 92 02 3d 42 f5 41 bc 8a 1a a8 bc
       -0.0017112937 0.031878334 -0.011838259 -0.020520467
000350 79 43 ee 3b f1 6b 12 3d a5 5e 7c bc 37 95 e2 3c
       0.007271227 0.035747472 -0.015403424 0.027659042
000360 6e 75 81 3c 78 1e 14 3c bc ca b6 bb 6c e4 dc bc
       0.015803065 0.009040467 -0.005578367 -0.026964389
000370 77 91 9c 3b 94 36 8f 3c e4 36 a8 bc 8e 3c ff ba
       0.004778083 0.01748208 -0.020533986 -0.0019473003
000380 74 f7 2e 3d f7 2d 2c bc 6f 88 81 3b 94 79 4a bc
       0.04271646 -0.010509006 0.0039530317 -0.012358088
000390 1c 32 b2 3a 57 37 87 3c 1f e8 29 3d 55 79 9e 3c
       0.0013595256 0.01650588 0.041481134 0.019344965
0003a0 82 46 53 bb b1 51 c0 bc f6 0d 14 3c 32 fb 18 3d
       -0.003223807 -0.023476453 0.009036532 0.037348934
0003b0 5a f2 bb bc 1b d6 96 3c 0b 13 8c bc 2b ce d2 bc
       -0.02294271 0.01841264 -0.017098924 -0.025733074
0003c0 1d f5 0d bc 33 3c fd bc b6 7f bf b9 b2 5f 2e bc
       -0.008664397 -0.030912494 -0.0003652551 -0.010642933
0003d0 eb f3 f6 3c 81 4d 8b bc d8 57 c4 3c 48 15 25 3d
       0.030145606 -0.01700473 0.023967668 0.0403035
0003e0 a3 f0 20 3d 63 d5 dc 3c 44 36 75 bc 96 0a 27 bd
       0.03929199 0.02695722 -0.014966551 -0.04078158
0003f0 4f 5a 83 3c 5f 1a 07 3d b9 ed 13 bc 02 86 c8 bc
       0.016034273 0.032984134 -0.0090288455 -0.024477962

fc3.weight f4 [128, 256]
000000 c8 d3 42 bc a4 7d f9 3c f6 b3 09 3d 3c a5 e7 bc
       -0.011891313 0.030455418 0.03361889 -0.028277032
000010 98 0b 63 bd f8 93 9f bc 80 60 49 3d 1a 35 26 bd
       -0.05543098 -0.019479737 0.049164295 -0.040577985
000020 f6 38 3a 3d 22 40 11 bd 86 4c 60 3d a4 93 c4 bc
       0.04546448 -0.035461552 0.05476048 -0.023996182
000030 b2 12 68 bd 56 02 6c 3d 14 98 3d bd 86 4d 4c 3d
       -0.056658454 0.057619415 -0.04628761 0.04987862
000040 b0 89 26 bd e0 2d c3 bb 80 84 fb 3a f8 17 f5 bc
       -0.040658653 -0.0059563965 0.0019189268 -0.029918656
000050 b0 3d 38 bc ac 3a e3 bc 0e 03 33 3d f4 51 77 3d
       -0.011245176 -0.027737938 0.043704085 0.06038089
000060 d6 60 50 bd 52 8a 7c 3d ca e3 35 3d 00 9b f6 3a
       -0.0508736 0.06165535 0.04440669 0.0018814504
000070 7c 88 db 3c b0 37 8c 3c d4 f0 ba 3c d0 72 27 bd
       0.02679848 0.017116398 0.022819914 -0.040880978
000080 e2 db 7e 3d 48 b3 fc bc 72 be 49 bd 62 d3 06 bd
       0.062221415 -0.030847207 -0.04925389 -0.032916434
000090 be 33 59 3d 84 ee b7 bc ce 3b 57 bd e8 f0 7d 3c
       0.05302786 -0.0224526 -0.05254727 0.015499331
0000a0 92 70 7e bd 80 9c 1e bc 5e f8 3d bd 00 a7 43 3c
       -0.062119074 -0.009680867 -0.04637944 0.011941671
0000b0 84 b3 5b bd 68 25 5f 3c 00 d0 c3 3c b0 1b 7d bc
       -0.053637996 0.013619758 0.023902893 -0.015448496
0000c0 00 ec a3 bb 86 bb 6a 3d 04 7e 9a bc 80 ec 08 bc
       -0.0050024986 0.057307743 -0.018858917 -0.008357167
0000d0 e2 9e 03 3d 14 dd c5 bc a6 58 32 3d 94 fe ee bc
       0.032133944 -0.02415327 0.043541573 -0.029174127
0000e0 ce 3c 25 3d 68 85 2e bd e0 6c 18 3c 70 92 55 bd
       0.04034119 -0.042607695 0.009303302 -0.052141607
0000f0 20 69 be 3c e6 44 44 bd 40 59 fb ba b2 b0 6d bd
       0.023243487 -0.04791727 -0.0019176379 -0.058029838
000100 3c 3a de bc 50 23 7d bc d8 9e 85 3c 90 e9 10 bc
       -0.027127378 -0.015450314 0.016311094 -0.008844748
000110 72 aa 16 3d b0 55 48 3c 88 01 84 3c c4 76 5e 3d
       0.036783643 0.012227461 0.016114011 0.054312482
000120 96 f5 6c bd 76 5d 18 bd 38 19 2b 3c 2c 09 0e bd
       -0.057851397 -0.037198506 0.010443024 -0.034676716
000130 14 14 9d 3c 40 94 63 bc 90 10 9c bc 2c 00 9b 3c
       0.019174613 -0.013890326 -0.019050866 0.01892098
000140 7e ad 73 3d 80 57 09 ba 38 d5 49 3d ba dc 3d 3d
       0.059491627 -0.0005239174 0.049275607 0.04635308
000150 06 a9 3a 3d ca 38 40 bd 00 96 31 3b 20 97 50 bd
       0.04557135 -0.04692916 0.0027097464 -0.050925374
000160 bc a0 83 3c d6 65 3a bd 82 f8 40 3d 98 b9 48 bd
       0.016067855 -0.045507275 0.047111996 -0.04900512
000170 f8 99 46 bc a0 d3 7b bc a0 91 95 bb ac 77 20 bd
       -0.01212167 -0.01537028 -0.004564479 -0.039176628
000180 96 4b 34 3d d0 3c 9a bc 4c c2 90 3c ba 94 31 bd
       0.044017397 -0.018827826 0.017670773 -0.043354727
000190 c0 97 eb 3a 20 87 b8 3c 06 a9 1c 3d b0 30 f5 3c
       0.0017974302 0.02252537 0.03824713 0.029930443
0001a0 34 6e 96 bc 2c fd 7e bd 68 ad 7a bd 28 ba 70 3c
       -0.018363096 -0.062253162 -0.06120053 0.014692821
0001b0 ce a6 09 bd ba 7d 13 bd 3c 02 94 3c a0 40 09 3b
       -0.033606343 -0.036008574 0.018067472 0.002094306
0001c0 e8 0b 2f bd 26 b8 76 bd 88 eb 0b 3c e8 2f 77 3d
       -0.042735964 -0.06023421 0.008540042 0.06034842
0001d0 c2 d1 18 3d 18 aa 4b 3d e0 8e 57 bb e0 50 e1 3c
       0.037309416 0.04972276 -0.0032891557 0.027504385
0001e0 36 31 5d bd a8 32 c2 3c 80 dc 79 3a 6e 13 1b 3d
       -0.05400201 0.023705795 0.0009531453 0.037860326
0001f0 fe 6f 4d bd f8 66 b6 3c 70 0f 17 bc 54 97 39 bd
       -0.050155632 0.022265896 -0.009219989 -0.045310333
000200 08 d1 b0 bc ec e0 97 3c d4 86 76 bd 0e 55 69 bd
       -0.021584049 0.018539868 -0.060187176 -0.05696588
000210 40 07 45 3c 98 31 b2 3c f8 da 78 bc 68 b3 3c 3c
       0.012025654 0.021752164 -0.015188925 0.011517383
000220 20 5d aa bc 7c ad f5 3c 3c 6d b2 3c 74 70 56 bd
       -0.020796359 0.02998995 0.021780603 -0.052353337
000230 84 b4 06 3d 58 a9 4b 3d 8e b3 1d 3d 88 5f b4 3c
       0.032886997 0.049722046 0.038501315 0.02201821
000240 10 b9 99 3b 98 54 28 bd 52 d5 26 bd ac 62 69 3d
       0.0046912506 -0.0410963 -0.04073078 0.056978866
000250 58 84 93 3c d0 43 a4 3c 00 ec d8 b8 40 8f 3b 3c
       0.018007442 0.020051867 -0.00010343641 0.011447728
000260 98 0f 43 bc b0 16 c2 3c 22 48 07 bd 40 b7 88 bb
       -0.011905573 0.023692459 -0.033027776 -0.0041722357
000270 00 bc a7 3b 20 b9 78 3d 84 4c 54 bd c4 47 fc bc
       0.005118847 0.060723424 -0.051830783 -0.03079594
000280 64 05 d5 3c 4a de 63 bd b0 9a 35 3d 58 95 c1 3c
       0.026003547 -0.055631913 0.044336975 0.023630783
000290 b4 a4 b0 3c 00 8f 68 3d 3a d8 7f bd b4 e0 c2 bc
       0.021562912 0.056777 -0.06246207 -0.023788787
0002a0 3c 3f ae 3c 00 93 48 3d b0 07 b6 3b 78 34 ad bc
       0.021270387 0.048968315 0.0055551156 -0.021143183
0002b0 fc ab 97 3c 9c 0a 4d 3d b8 84 2e bd 98 4b 27 bc
       0.018514626 0.050058946 -0.04260704 -0.010210894
0002c0 ac 9e 7f 3d 48 cc 55 3d 9a bb 67 bd f8 e1 3c bd
       0.06240718 0.05219677 -0.056575395 -0.046113938
0002d0 98 6b 07 3d 1c f8 24 3d 0a 72 71 3d 64 3f 2a bd
       0.033061594 0.040275678 0.058946647 -0.04156436
0002e0 fc 21 8b bc c0 70 2c 3b 10 a4 e2 3b d0 5d 69 3c
       -0.016983978 0.0026312321 0.0069165304 0.014243558
0002f0 70 4c 80 3b 50 39 b1 bc 98 95 e7 bc 90 bc dd 3b
       0.003915362 -0.021633774 -0.028269574 0.006766863
000300 c8 5a 2d bd 10 20 da bb 50 09 e6 3c 60 3f e7 bc
       -0.042322904 -0.006656654 0.028080612 -0.028228462
000310 10 ea 4a 3d b4 ac 6c 3d 5e 99 45 bd d8 87 d4 3c
       0.049539626 0.05778189 -0.048241965 0.025943682
000320 da 3a 61 bd 10 b5 49 3d 80 52 a6 bb 9c 92 14 bd
       -0.054987766 0.04924494 -0.0050757527 -0.03627263
000330 26 b1 31 3d d0 15 c8 3c 48 e3 55 3c e8 12 4b 3c
       0.043381833 0.024424464 0.013054676 0.012394644
000340 28 c7 52 bc 28 f8 4e bd f8 31 f4 3c b0 f0 0e 3c
       -0.012864865 -0.05052963 0.029808983 0.008724377
000350 18 38 b3 3c ac 2a 9e 3c b0 14 3a bd a6 b0 0a 3d
       0.021877334 0.019307457 -0.045429885 0.03385987
000360 30 0d cc 3b 86 47 02 bd e8 4c 63 3d 38 21 9c bc
       0.006227158 -0.03180649 0.055493265 -0.019058809
000370 24 91 fd bc 80 d0 6f ba 8c 91 f3 3c 8c 8a 2c 3d
       -0.030952998 -0.00091481954 0.029732488 0.042124316
000380 7a a0 11 3d 92 bb 29 bd 64 0e 88 bc bc 1b c7 bc
       0.035553433 -0.041438647 -0.016608424 -0.024305217
000390 28 19 39 3d c4 c3 35 bd 10 2f 8f bb b0 2c b2 3b
       0.045190006 -0.04437615 -0.004369624 0.005437456
0003a0 a0 e2 20 3b a2 40 1e 3d 3c ea 19 3d 08 61 30 bc
       0.0024549142 0.038635857 0.0375769 -0.010765322
0003b0 10 f6 e0 3b 00 e7 75 bb 50 51 a0 3c da b9 5d bd
       0.0068652704 -0.003752172 0.019570023 -0.05413232
0003c0 38 43 b6 3c 50 1f 74 bd c8 d3 7d bc a8 d9 ba bc
       0.02224885 -0.059600174 -0.015492387 -0.022808865
0003d0 50 0b 2d bd fc 0e e3 bc 08 19 a1 bc e8 26 7b 3c
       -0.042247117 -0.027717106 -0.019665256 0.0153291
0003e0 94 10 77 3d 84 0e c2 3c 84 04 56 3d bc 64 1e bd
       0.060318545 0.023688562 0.0522504 -0.038670287
0003f0 50 de e8 bb 50 cb 93 bb 40 76 e1 bb 48 4c 5a bc
       -0.00710658 -0.0045103207 -0.0068805516 -0.013323851

fc3.bias f4 [128]
000000 0c 58 16 3d fc 42 3a bd b8 15 42 bc c6 8e 2e bd
       0.03670506 -0.045474038 -0.0118459985 -0.042616628
000010 90 b6 d9 3b 20 b6 51 bd 78 8c 7d bc 98 27 5e 3d
       0.0066440776 -0.05119908 -0.015475385 0.05423698
000020 ea ae 27 3d 00 d7 a6 bc a2 3f 6d 3d 30 c9 06 3c
       0.040938295 -0.020366192 0.057922013 0.008226678
000030 4c 3e e9 bc 84 20 27 bd 0e 1e 03 3d 4c bb 55 3d
       -0.028472088 -0.040802494 0.032011084 0.052180573
000040 3c 1f ee 3c be a2 13 bd 50 9a 77 bd 4c 03 48 bd
       0.029067628 -0.036043875 -0.0604499 -0.04883127
000050 88 a0 a2 3c 1e 29 4c bd 98 a2 3c 3c bc 00 74 3d
       0.019851938 -0.0498439 0.011513375 0.059571013
000060 b6 1d 08 bd 18 71 f1 bc 46 c8 62 3d 76 81 37 bd
       -0.03323146 -0.029472873 0.055366777 -0.044801198
000070 80 1c 0c bc ce 31 75 bd 7a d3 77 3d 90 02 9d 3c
       -0.008551717 -0.05986195 0.060504414 0.019166261
000080 06 f9 02 3d 04 84 53 3d c4 32 1a bd 58 66 42 bc
       0.03197577 0.05163957 -0.03764607 -0.011865221
000090 ec ab 89 bc a0 61 c1 bb d6 b4 47 3d 64 e8 b5 3c
       -0.016805612 -0.0059015304 0.048756443 0.022205539
0000a0 14 6d d0 3c 80 f6 41 bc 9e 48 16 3d 14 2c 2b bd
       0.025442638 -0.011838555 0.036690347 -0.041790083
0000b0 40 5b 69 3d 6c 7d cf 3c e0 68 15 3d be 55 1b 3d
       0.05697179 0.02532836 0.03647697 0.037923567
0000c0 0c fb 84 bc 24 39 86 bc 54 23 8f bc 58 aa ab bc
       -0.01623299 -0.016384669 -0.0174729 -0.02095525
0000d0 a4 64 b0 bc 7c 75 aa 3c 90 86 fe 3c 50 42 f7 3c
       -0.021532364 0.020807974 0.031070024 0.030182987
0000e0 18 4a 6c 3d e8 1e b4 bc 9e f7 68 3d b0 d9 21 bc
       0.05768785 -0.021987393 0.05687677 -0.009878561
0000f0 14 ba b6 3c 3a 57 01 3d 8e d0 71 bd d8 69 0f bd
       0.022305526 0.031577326 -0.059036784 -0.03501305
000100 f0 d5 80 3b d8 16 34 bd 30 c7 95 3b ae e1 38 bd
       0.0039317533 -0.043967098 0.004570864 -0.0451371
000110 b8 5b 69 3d 9e 87 43 bd e8 b1 15 bc d0 a0 08 bd
       0.056972235 -0.047736757 -0.009136654 -0.033356488
000120 40 d3 a8 3c 90 7e e0 bc f2 e7 24 3d f8 24 c6 bc
       0.020608544 -0.0274041 0.040260263 -0.02418755
000130 b0 91 8e bb 78 76 61 3d 76 9e 6c bd d8 28 17 bc
       -0.0043508634 0.05504462 -0.057768308 -0.0092260465
000140 00 cc 1c bb 4e 60 15 bd e2 12 10 bd 66 0e 01 bd
       -0.0023925304 -0.036468796 -0.035174258 -0.031507872
000150 d6 c0 21 bd 0e fd 3c bd 92 3f 5f bd 0c 5e 72 3d
       -0.039490543 -0.04613977 -0.054503985 0.05917172
000160 d2 71 5e bd 00 ed ba 3b 58 9f d4 bc 68 2e e7 3c
       -0.054307766 0.005704522 -0.025954887 0.02822037
000170 b0 5c 8a 3b b2 a9 1b 3d 64 7f f0 bc a4 80 34 bd
       0.004222475 0.03800363 -0.02935762 -0.044067994
000180 7a 0c 30 bd 28 2e 92 3c f0 06 ed bc ea 21 73 3d
       -0.04298065 0.017844275 -0.028933972 0.059358515
000190 46 e0 21 bd 7c 47 39 bd 70 da bf bc b2 bc 18 3d
       -0.039520524 -0.04523419 -0.023419589 0.03728933
0001a0 c8 c0 96 bc ac 24 0e bd 4e b2 15 bd 38 48 03 3c
       -0.018402472 -0.03470294 -0.036546998 0.008012824
0001b0 80 07 f1 3b 22 90 28 3d 98 c7 65 bd 96 8d 2b 3d
       0.0073556304 0.04115308 -0.05609855 0.041883074
0001c0 a6 a7 00 bd 18 62 5e 3c 10 82 5f bd 22 5a 65 bd
       -0.031409882 0.013573192 -0.054567397 -0.05599416
0001d0 ac c0 74 3d 40 99 30 3b 70 30 ba 3c 38 c1 5f 3d
       0.05975406 0.0026946813 0.022728175 0.054627627
0001e0 5a ec 27 bd f0 53 39 3d 80 1d 69 bd f2 69 7b bd
       -0.040996887 0.045246065 -0.0569129 -0.061380334
0001f0 b4 b9 46 3d 02 b4 64 3d 80 d6 8b ba 34 41 74 3d
       0.048516944 0.05583573 -0.0010668784 0.059632495

fc4.weight f4 [15, 128]
000000 bf a0 41 3d ff 39 ae 3d b3 9c 66 bc 4b 37 16 3c
       0.04727244 0.085071556 -0.014075446 0.009168456
000010 b7 24 95 bc 49 1e 50 bc 55 41 d0 bc d7 c5 cd 3c
       -0.018205984 -0.012702533 -0.025421778 0.025118751
000020 27 79 77 3d 7a 34 27 3d 36 be 9a bd 62 e0 03 3d
       0.060418274 0.04082153 -0.07555811 0.03219641
000030 da 16 82 bd 2c b9 9a 3d ea 31 b0 bd f0 6f b0 3d
       -0.06352015 0.0755485 -0.0860327 0.086151004
000040 04 f3 02 bd a3 6a 8f bd 83 8d 2e 3d 94 b0 37 bd
       -0.03197004 -0.07002761 0.042615425 -0.044846132
000050 e5 ed 44 bd 34 e0 a5 bd 60 cb 9a bd 1b b0 54 bc
       -0.048078436 -0.08099404 -0.07558322 -0.01298144
000060 b9 aa a5 3d b3 a7 04 bd 99 a4 90 3d 93 16 92 3d
       0.080892034 -0.032386493 0.070626445 0.07133212
000070 78 6a 06 bd 11 2c 0c 3d 64 4f 05 3d 17 ea 8d 3d
       -0.03281638 0.034221712 0.032546416 0.06929415
000080 74 fd 28 bc 3b b8 cd bc ce c4 33 3b 29 c2 ae 3d
       -0.010314334 -0.025112262 0.0027430537 0.08533127
000090 a6 c1 54 bc a8 b2 99 3d a9 3f e8 3a 79 6d 2a 3d
       -0.0129856225 0.07504779 0.0017719168 0.041608308
0000a0 47 b2 9d 3d dc 87 a9 bd 5a 60 a8 bd 6f ca 93 bc
       0.07700019 -0.08277866 -0.082215026 -0.018040864
0000b0 52 70 91 bd 49 58 c4 bc 38 cc 16 bd 01 73 af 3d
       -0.071015015 -0.023967879 -0.036815852 0.08566857
0000c0 1e 9c 97 bb 61 3f 4d bc 4d 67 94 3c 19 cb 9b bd
       -0.004626765 -0.012527318 0.018115664 -0.07607097
0000d0 cb dc 87 bc 08 31 68 3d d0 b3 ac bd bb 6c 78 3d
       -0.016584774 0.056687385 -0.08432734 0.06065057
0000e0 f7 7f 33 bd be e1 48 bd bc 0d 22 bc 95 c9 7a bb
       -0.04382321 -0.04904341 -0.00989097 -0.0038267125
0000f0 20 8a a9 3b b3 54 a9 3d 79 c2 99 3d 9f 22 e8 bc
       0.0051739365 0.08268108 0.07507796 -0.028336821
000100 ad b9 73 3d 98 8a e3 3c d2 68 88 3c f4 01 98 bd
       0.059503246 0.027776048 0.016651545 -0.074222475
000110 9f 7c 1d 3c 3d 02 a8 bd de 6c a5 bc bc c1 8d 3c
       0.0096122315 -0.08203552 -0.020193513 0.017304294
000120 50 56 37 3d f6 31 50 bd f7 6a f5 bc 6c 65 90 3d
       0.04476005 -0.050828896 -0.029958231 0.07050595
000130 fe a8 d8 bc 06 d2 aa 3d 87 e4 9d bd fc fd ab bd
       -0.02644777 0.0834084 -0.07709604 -0.08398053
000140 7b d3 70 bd ec 99 a1 3d 03 38 fd bc 54 d6 b4 3d
       -0.058795433 0.078906864 -0.030910498 0.08829942
000150 e3 46 35 3c e5 2a d6 bc a2 2a 82 3d df 2e 2c bc
       0.011064264 -0.0261435 0.06355788 -0.010509222
000160 59 0c 3a bd 38 8c 37 3d 70 4b 0b 3d 5d 2a 30 3d
       -0.045421932 0.044811457 0.03400749 0.04300915
000170 97 83 39 bc 55 2a b0 bd c2 79 e7 bc 54 17 b3 bd
       -0.011322877 -0.08601824 -0.0282563 -0.08744684
000180 aa 86 2c 3d 0e 4b 83 3d c7 be 7e bd f7 4a a6 bd
       0.042120613 0.064108 -0.06219366 -0.08119767
000190 ee a8 86 3d fc 61 60 3d f5 49 66 3d a0 c8 8e 3c
       0.065751895 0.054780945 0.056222875 0.01742965
0001a0 98 30 78 3d 53 96 a0 3d 28 bb a1 bd 3d 63 1e 3d
       0.060593218 0.07841172 -0.07897025 0.03866886
0001b0 e3 2d 13 3d 45 c7 42 bd a9 00 0b bc 80 6f d7 bb
       0.035932433 -0.04755332 -0.008484044 -0.006574571
0001c0 91 27 ab bd e9 57 88 bd 9f 0c 5e bd 6b dd 5c bd
       -0.08357156 -0.066573925 -0.054211255 -0.053922098
0001d0 51 15 23 bd 1f 59 8a 3d a0 fe 72 3d 6e 61 8d 3d
       -0.03981525 0.0675528 0.05932486 0.06903349
0001e0 fb 87 75 3d 53 b8 a5 3d ad 72 3d bd d0 68 38 bd
       0.059944134 0.08091798 -0.04625194 -0.045021832
0001f0 dd 89 a5 bd 82 92 0a 3d f9 46 80 bd a8 2c 31 3a
       -0.08082936 0.033831127 -0.06263537 0.00067586685
000200 c9 91 24 3d 0d 39 27 bd 7e 9c b9 3c 01 1b 65 bd
       0.040178094 -0.040825892 0.02265763 -0.055933956
000210 82 cd da 3c 04 3f 96 bd 4a 7c b2 3c ce fb 84 3d
       0.026709322 -0.07336238 0.021787781 0.064933404
000220 a2 95 a5 bd a5 a1 c9 3c 37 da 8d bd 0f c3 a8 3d
       -0.08085181 0.024613211 -0.06926387 0.082403295
000230 cb 6d fa bc 90 e3 01 bc d8 25 58 bd da 4f 47 bc
       -0.030569931 -0.00792779 -0.052770466 -0.012165034
000240 e0 b4 b7 bc 10 9a 82 3c 72 4e 5d bd a7 86 9d 3b
       -0.022425115 0.015942603 -0.05402989 0.0048073116
000250 77 0a 3f 3d f0 1d 81 3d e7 6c 2f 3d e1 aa 9d bd
       0.04664084 0.06304538 0.042828467 -0.07698608
000260 9f 47 c9 bc e3 79 f0 3c bc 2d 2e bd 48 2d 08 bd
       -0.024570284 0.029354995 -0.042524084 -0.03324631
000270 7a 42 46 3d 25 06 2e 3d eb 15 5d bd 0d aa a6 3d
       0.04840324 0.04248633 -0.05397598 0.08137903
000280 ce 0e a7 3d 1c df 8d bd 95 3b 55 3c 35 90 7c bc
       0.08157121 -0.0692732 0.013014694 -0.015415241
000290 46 62 27 3d 16 56 7f bd 09 5c f8 bb 77 11 1e 3d
       0.040865205 -0.062337957 -0.007579331 0.038590875
0002a0 da 65 9f 3c 66 e1 b0 3d dd bb 08 3d 99 55 25 bd
       0.019457746 0.08636741 0.033382285 -0.040364835
0002b0 60 62 8a bd 9b 94 28 3d 97 bb b8 bc 3a f3 49 3d
       -0.06757045 0.041157346 -0.022550387 0.049304225
0002c0 ac 7f 5c 3c 6d 23 8a 3c 12 19 a2 bc d1 97 0d bd
       0.013458174 0.016862595 -0.019787345 -0.03456861
0002d0 5e 8f e3 bc 28 85 37 bd d5 fc 94 3d f6 32 71 3d
       -0.027778324 -0.044804722 0.072747864 0.05888649
0002e0 17 4c 86 bd 21 6b 87 bd e6 08 f1 bc 40 03 9a 3d
       -0.06557482 -0.0661223 -0.029423188 0.07520151
0002f0 a7 c3 d6 3c 2c 1f 58 3d 6d 1c 96 bb 36 88 98 3d
       0.026216341 0.052764103 -0.0045810253 0.07447855
000300 41 99 a1 3d ad 60 ad bd b6 f2 55 bd 83 a8 b0 3d
       0.07890559 -0.08465705 -0.05223342 0.08625891
000310 c5 73 56 3d 3f ab 34 3d b8 87 74 bc 8d 76 b1 bd
       0.0523565 0.044108626 -0.014924936 -0.0866519
000320 c1 7a 8c bd 85 92 c3 3b 66 43 43 bd d9 e1 19 3c
       -0.06859351 0.005968394 -0.047671698 0.009392225
000330 21 2e 2a bc bd 04 9d bd f1 7f 11 3d 6f 23 91 3d
       -0.010386975 -0.076669194 0.035522405 0.070868365
000340 c5 0f 2e 3d de c0 97 3c 2e 0d 0f 3d cd fa 7d bd
       0.042495508 0.018524583 0.03492468 -0.06200676
000350 51 b3 5b 3d b3 55 81 bc d2 c3 81 3d 6f 7d 89 3d
       0.053637806 -0.015787935 0.06336178 0.06713378
000360 b2 f0 86 3d 09 90 96 ba f2 39 f7 ba 79 d3 06 bd
       0.06588878 -0.0011487018 -0.0018861874 -0.03291652
000370 ee 5e 52 3d 7c 00 f0 3c 29 f8 33 3c 3d 5c 9d 3d
       0.051360063 0.029297106 0.010984459 0.07683609
000380 f7 79 0d bc 85 9d 39 bd c0 92 b4 bb b8 55 6b 3c
       -0.008635036 -0.045316238 -0.005510658 0.014363699
000390 0c 7b 85 bc 3d d8 83 bc 54 9d 3a bc e9 b1 8f bd
       -0.016294025 -0.016094321 -0.011390049 -0.070163555
0003a0 20 ff 5a 3d fb a1 99 3d 69 06 bd bb f6 6e ab bd
       0.053465962 0.075015984 -0.0057685864 -0.083707735
0003b0 94 d9 89 3c 90 6a 0b bd ee 68 4e bd 82 c7 88 bc
       0.016827382 -0.034037173 -0.050393037 -0.016696695
0003c0 0a c9 8f 3d cb 10 8f bc 79 59 04 3d 47 bb 1d bd
       0.07020767 -0.017464062 0.03231189 -0.03850868
0003d0 f6 a6 a3 3d 18 1a 9f 3d 60 68 05 bc ad 2b f6 3c
       0.0799083 0.07768649 -0.008142561 0.030050123
0003e0 2c d4 a8 bd e6 19 d2 bc c3 3f b4 bd 30 08 a6 3b
       -0.082435936 -0.025647115 -0.08801224 0.005066894
0003f0 b7 ce 4d bd 3c c8 fe bb 68 ac 3a 3d 55 61 45 bd
       -0.050245967 -0.0077753346 0.045574576 -0.048188526

fc4.bias f4 [15]
000000 36 96 f5 bc 74 61 b0 3c c6 fc f7 3c 98 d0 93 bd
       -0.029978853 0.021530844 0.030271899 -0.072175205
000010 a6 ca ae bd 1b e0 90 bc ce 48 d3 3b c9 21 22 3d
       -0.08534746 -0.017684987 0.006447888 0.039583
000020 fc a0 36 bd e4 fa 20 bc ef 55 98 bc a1 c7 45 bc
       -0.04458712 -0.009825442 -0.018595664 -0.012071521
000030 6b c3 43 3d 40 58 87 bd 2d aa 8c bd
       0.047793787 -0.06608629 -0.06868396
