api/model/NIDS_Model_1.pth (torch, 766204 bytes, 8 tensors)

fc1.weight f4 [512, 47]
0.058908112 -0.013933444 -0.041529838 -0.123132676 0.07369003 -0.117817804 0.073388614 -0.0747093
0.02365949 0.113396145 -0.08838665 0.14018625 0.13147625 0.00897822 -0.08050856 0.026481219
-0.0440058 0.11184049 0.018381273 -0.10665392 0.0076568355 0.11489133 0.030660292 0.0107352715
0.041923355 -0.14138155 -0.012657235 0.03980363 0.10153643 -0.08484029 0.105797805 -0.112338975
0.037566032 -0.13575894 -0.13042319 -0.038582023 0.12982254 0.14228815 -0.110384986 -0.09854329
0.0076904823 -0.014529747 -0.14071302 0.0015773596 0.038229316 0.06709427 0.057777427 0.057908814
0.009948652 -0.0555123 0.13882218 0.04989546 -0.13853356 0.01970212 -0.06888474 0.057591613
0.10782829 0.07361421 -0.026496712 0.041129574 -0.12282167 0.037927523 -0.0051433505 0.054715354
-0.12737373 -0.13315368 0.08045464 0.033625163 0.14561981 -0.09014553 0.12148905 -0.10509063
-0.013288802 0.06333067 -0.08154323 -0.0601136 0.0076734065 0.0015303934 -0.0834996 -0.025297187
0.020948403 0.02647983 0.13330899 0.082659274 -0.046524517 0.09854068 -0.0903283 -0.14017846
0.064342946 -0.059103835 -0.10625048 -0.06742839 0.017136851 0.0070370412 -0.012975723 -0.038939808
0.051650826 -0.04582359 0.06807496 -0.10237398 -0.111189336 0.074145794 -0.019596206 0.098035835
-0.084835194 0.0794779 0.12709701 -0.03147722 0.04955484 -0.058712892 -0.10682193 0.022154935
-0.12568283 0.10652659 0.07681073 0.0819762 0.12236963 0.09229655 0.11596136 0.041213907
-0.07324961 -0.0681791 -0.1093976 -0.04698345 -0.11778261 0.026406623 0.12728067 -0.014094792
-0.0059086517 0.002396843 0.043516297 -0.012392148 0.090004385 0.06636754 -0.037349407 -0.10732291
-0.1383155 -0.12920626 0.12997688 -0.052341968 -0.13632824 0.12157642 0.14156629 0.09004399
0.023080401 0.14018615 0.08330506 0.13582346 0.010255628 0.11861828 -0.12791535 -0.047745485
0.005221564 0.014256157 -0.025296751 -0.028289167 0.115791894 -0.13771152 0.13570455 -0.055377174
-0.026582785 -0.12692018 -0.055757914 -0.008561852 -0.046131536 -0.13385111 0.083701745 -0.0381282
0.085073106 0.065320104 0.040258534 0.13747245 -0.05985034 0.13353448 -0.08330868 0.13108332
0.14321136 -0.0536561 -0.04041882 0.078506805 0.04249034 -0.022428144 0.040959705 -0.041996926
-0.047270082 0.101213686 0.07025473 -0.07148861 -0.019723315 0.059907686 -0.09411825 -0.10439692
0.10794949 -0.07446705 -0.025686568 0.1245583 0.044798017 0.12224864 0.122763604 0.13635738
0.07874054 -0.07232724 0.12926185 0.08466966 -0.036641836 -0.07436285 -0.033309355 -0.07928631
-0.094806485 -0.061401285 -0.11672673 -0.05679637 -0.0053399447 -0.010060252 -0.120073386 0.014006267
-0.11649402 0.11568826 -0.107355446 -0.11739688 0.13593982 0.08937097 -0.070659235 0.024810866
-0.007535429 0.060264062 0.07656474 0.12519158 -0.053459488 -0.08465284 0.035935186 0.11906873
-0.064989254 0.015423322 -0.06590147 -0.061049707 0.10380956 0.08170179 0.05710764 -0.09593142
0.0828592 -0.1221122 -0.07033579 -0.068728074 -0.09472125 0.1246514 0.05027978 -0.03562331
0.098808594 -0.065393865 0.006034631 0.052987896 -0.11776021 0.04764882 0.13502046 0.12679256
00000000: a249 713d 1a49 64bc 311b 2abd fc2c fcbd
00000010: ccea 963d 764a f1bd c54c 963d 3101 99bd
00000020: 8cd1 c13c 3d3c e83d 0f04 b5bd fc8c 0f3e
00000030: b6a1 063e 6219 133c ace1 a4bd 24ef d83c
00000040: 6d3f 34bd a00c e53d 5394 963c 5f6d dabd
00000050: 31e6 fa3b 254c eb3d 4b2b fb3c fee2 2f3c
00000060: d3b7 2b3d 53c6 10be 4b60 4fbc 2209 233d
00000070: 55f2 cf3d bfc0 adbd 85ac d83d fa11 e6bd
00000080: d7de 193d 6404 0bbe a88d 05be 2f08 1ebd
00000090: 33f0 043e fcb3 113e 8611 e2bd 10d1 c9bd
000000a0: 7100 fc3b 2d0e 6ebc 1317 10be 68bf ce3a
000000b0: 5896 1c3d b868 893d 06a8 6c3d cb31 6d3d
000000c0: acff 223c de60 63bd 6727 0e3e 2f5f 4c3d
000000d0: bedb 0dbe 5766 a13c 7113 8dbd 2fe5 6b3d
000000e0: 14d5 dc3d 0cc3 963d a20f d9bc 7c77 283d
000000f0: ed89 fbbd e459 1b3d 8d89 a8bb 351d 603d
00000100: 426e 02be 7059 08be 67c5 a43d 8aba 093d
00000110: 5c1d 153e 389e b8bd 40cf f83d c239 d7bd
00000120: 46b9 59bc 83b3 813d 2300 a7bd ae39 76bd
00000130: 3371 fb3b 7b97 c83a d701 abbd 0c3c cfbc
00000140: fc9b ab3c 3aec d83c 2782 083e 4449 a93d
00000150: 7e90 3ebd b2cf c93d 0bfe b8bd f18a 0fbe
00000160: 3cc6 833d dd16 72bd da99 d9bd e517 8abd
00000170: 9562 8c3c fb96 e63b 2098 54bc 597f 1fbd
00000180: d18f 533d 84b1 3bbd e26a 8b3d 73a9 d1bd
00000190: 3cb7 e3bd c0d9 973d 3988 a0bc 03c7 c83d
000001a0: 13be adbd 4fc5 a23d b825 023e 42ee 00bd
000001b0: 04fa 4a3d ee7c 70bd 75c5 dabd 447e b53c
000001c0: 00b3 00be 9d2a da3d f24e 9d3d 23e3 a73d
000001d0: ee9c fa3d f905 bd3d 267d ed3d eacf 283d
000001e0: e403 96bd 7ca1 8bbd d90b e0bd b871 40bd
000001f0: 0238 f1bd b452 d83c dd55 023e d8ed 66bc
00000200: 5d9d c1bb 5a14 1d3b 253e 323d 7008 4bbc
00000210: 3854 b83d b4eb 873d b1fb 18bd 1dcc dbbd
00000220: 94a2 0dbe a54e 04be a918 053e 8864 56bd
00000230: a199 0bbe 0ffd f83d c1f6 103e fc68 b83d
00000240: 1c13 bd3c f58c 0f3e d89b aa3d 4e15 0b3e
00000250: 3907 283c 24ee f23d 3efc 02be c590 43bd
00000260: a719 ab3b a892 693c 223b cfbc afbe e7bc
00000270: 4d24 ed3d 4004 0dbe 22f6 0a3e 2dd3 62bd
00000280: 24c4 d9bc 5df7 01be 6962 64bd 0347 0cbc
00000290: 6cf4 3cbd 4410 09be d26b ab3d 512c 1cbd
000002a0: cf3a ae3d 8cc6 853d 22e6 243d 94c5 0c3e
000002b0: a125 75bd 43bd 083e be9d aabd b53a 063e
000002c0: 00a6 123e 80c6 5bbd 348e 25bd 2dc8 a03d
000002d0: 5a0a 2e3d 3abb b7bc 5dc5 273d f804 2cbd
000002e0: 469e 41bd 1f49 cf3d b6e1 8f3d 9f68 92bd
000002f0: ca92 a1bc c361 753d 12c1 c0bd 0dce d5bd
00000300: 9f14 dd3d 2e82 98bd a36c d2bc 6c18 ff3d
00000310: 207e 373d 7f5d fa3d 7c6b fb3d 45a1 0b3e
00000320: b842 a13d 4e20 94bd 385d 043e 4967 ad3d
00000330: c015 16bd 8d4b 98bd 646f 08bd dc60 a2bd
00000340: e729 c2bd ea7f 7bbd 6c0e efbd 4fa3 68bd
00000350: b4fa aebb c1d3 24bc 09e9 f5bd 8b7a 653c
00000360: 6b94 eebd f7ed ec3d 2cdd dbbd c76d f0bd
00000370: cf33 0b3e 2108 b73d cab5 90bd 2840 cb3c
00000380: c3eb f6bb 73d7 763d f9cd 9c3d 3932 003e
00000390: 56f8 5abd 785e adbd c630 133d 4eda f33d
000003a0: 1619 85bd 1ab2 7c3c 5af7 86bd 420f 7abd
000003b0: 1b9a d43d 4553 a73d b3e9 693d b177 c4bd
000003c0: 16b2 a93d f615 fabd 360c 90bd 4ec1 8cbd
000003d0: 37fd c1bd 3c49 ff3d 2cf2 4d3d bfe9 11bd
000003e0: 295c ca3d 38ed 85bd 27be c53b d609 593d
000003f0: 442c f1bd 692b 433d ce42 0a3e e9d5 013e

fc1.bias f4 [512]
0.06417598 0.086751424 -0.026443869 -0.030539287 0.060449075 -0.03631283 -0.103032485 -0.041894212
-0.120637774 0.110680535 0.10168456 -0.023541892 0.11120372 -0.09603322 -6.275496e-05 -0.13582896
-0.02850329 0.12058539 0.10752663 0.14512235 0.1133236 -0.098263174 0.014034175 0.13732775
-0.0770308 -0.110541984 0.098551564 0.050763216 -0.08061771 -0.08009263 0.062581286 0.13128978
-0.117148854 0.052802954 -0.11244682 0.06143961 0.107613035 0.06621733 0.07955764 0.075826004
-0.14439963 -0.116515845 0.06429283 0.039145358 0.09738773 -0.084970094 -0.119961366 -0.015940404
-0.033576634 -0.11520183 0.09021638 0.005871701 -0.12405176 0.052208997 0.14350843 -0.06827084
0.07012706 -0.10860823 0.033483066 -0.089312635 -0.0726179 -0.060374636 -0.10360867 0.101613685
-0.03956755 0.031248787 0.09794027 -0.01711482 0.12636708 -0.13517225 -0.061068017 0.12869161
-0.019877587 -0.12757936 -0.08972151 -0.11455637 -0.066404104 0.10347234 0.010560535 0.057602655
-0.08024087 -0.084982544 0.13542075 0.033246513 -0.14105846 0.12947045 0.11689401 0.1251657
-0.065340534 -0.09386295 0.019891584 -0.10987481 0.035291187 0.014503821 -0.1402826 -0.017617555
-0.13135177 -0.10836695 0.12942706 -0.09320324 0.106387675 -0.09561997 0.045197725 0.065516196
0.05291963 -0.04598271 0.04487308 0.047869235 -0.012528527 -0.08908215 -0.063708425 -0.085578345
-0.08745943 0.1367449 -0.045451406 0.06276106 0.011874424 0.13241947 -0.016386086 -0.09579205
-0.081187494 0.11542894 -0.022148745 0.05428713 -0.1334642 0.067203954 -0.008964761 0.07565416
-0.009825594 -0.101231955 0.0127435 0.115153246 0.12347458 0.012738648 0.12391189 -0.12169635
-0.12639013 -0.07838515 0.06512937 0.027093554 -0.0018586527 -0.120650955 -0.0830518 -0.09490181
0.11604788 0.060684167 -0.024346333 -0.037433237 -0.05544852 -0.031904455 0.030575437 0.10924623
0.07590693 0.08816578 0.0414755 0.021830814 -0.042912744 -0.111474335 -0.049798887 -0.06710966
0.0619922 -0.12778555 -0.01607612 0.098257385 -0.006062557 -0.027517138 -0.069024056 -0.057742633
-0.09196996 -0.044730566 -0.13639365 0.1186893 -0.08074014 -0.09900858 0.06839964 0.13137235
0.115206 0.13618538 0.0071031 0.14197792 0.042536456 0.12984231 0.07273338 -0.061871298
0.0537926 0.009495474 -0.11031892 0.097825386 0.14560908 0.03149193 -0.021934919 -0.0031668216
-0.1052271 -0.12083444 -0.051206063 0.11817542 0.06694845 0.14307518 -0.035246223 0.060269333
0.031299926 -0.0728743 -0.1342486 -0.120958574 -0.10134365 -0.03957228 0.08539717 0.0021154804
-0.1116168 0.07242185 -0.017609695 -0.109561205 -0.122773275 0.14560848 0.012741066 -0.110493265
-0.12573773 0.07143816 0.12485481 0.031121314 0.11078116 0.019242803 0.056858916 0.050110854
-0.024436997 0.13778935 0.007988503 -0.07747848 -0.04096287 0.05184542 0.08195139 -0.08529328
0.11223336 0.021232042 0.06086459 -0.07987388 -0.106443405 0.055198874 0.022055317 -0.04998183
0.090312354 0.104388066 -0.08868196 0.14450099 -0.048205964 -0.08127357 0.12280224 -0.06809624
-0.118453994 -0.08138522 -0.12650794 0.03157002 -0.09741199 0.119779415 0.013343297 0.064858526
00000000: b26e 833d bbaa b13d d0a0 d8bc 872d fabc
00000010: 7399 773d c3bc 14bd b202 d3bd 4499 2bbd
00000020: f010 f7bd 7aac e23d ff3f d03d edda c0bc
00000030: c7be e33d 11ad c4bd 509b 83b8 bf16 0bbe
00000040: bb7f e9bc 79f5 f63d ec36 dc3d f49a 143e
00000050: 3416 e83d 343e c9bd 99ef 653c a59f 0c3e
00000060: 53c2 9dbd d663 e2bd 67d5 c93d 17ed 4f3d
00000070: e61a a5bd 9b07 a4bd 9e2a 803d d470 063e
00000080: bdeb efbd e947 583d 854a e6bd 1aa8 7b3d
00000090: 3964 dc3d f49c 873d 1eef a23d aa4a 9b3d
000000a0: 7fdd 13be dc9f eebd f6ab 833d e256 203d
000000b0: 3873 c73d cd04 aebd 4eae f5bd 7395 82bc
000000c0: a787 09bd f0ee ebbd 5ec3 b83d 6667 c03b
000000d0: d90e febd 1ad9 553d e0f3 123e 95d1 8bbd
000000e0: c79e 8f3d fe6d debd 8a25 093d 8be9 b6bd
000000f0: b2b8 94bd 654b 77bd c830 d4bd d61a d03d
00000100: 9511 22bd 75fd ff3c e994 c83d 6134 8cbc
00000110: 5f66 013e 986a 0abe 7522 7abd bcc7 033e
00000120: 52d6 a2bc 2aa4 02be e9bf b7bd 889c eabd
00000130: e0fe 87bd 4ee9 d33d 1806 2d3c c3f0 6b3d
00000140: 5355 a4bd 540b aebd bdab 0a3e 7f2d 083d
00000150: a171 10be e793 043e 2066 ef3d 702b 003e
00000160: 42d1 85bd 383b c0bd adf3 a23c 0b06 e1bd
00000170: 7e8d 103d 6fa1 6d3c 3ea6 0fbe b152 90bc
00000180: 1481 06be 7eef ddbd 8788 043e 57e1 bebd
00000190: c8e1 d93d 67d4 c3bd 4021 393d 5b2d 863d
000001a0: 41c2 583d 5e58 3cbd d6cc 373d 8812 443d
000001b0: 7344 4dbc b470 b6bd 9079 82bd b343 afbd
000001c0: ee1d b3bd db06 0c3e 412b 3abd df88 803d
000001d0: f28c 423c f898 073e 1d3c 86bc 9f2e c4bd
000001e0: a145 a6bd 0266 ec3d 4971 b5bc 2e5c 5e3d
000001f0: d7aa 08be 3aa2 893d efe0 12bc 91f0 9a3d
00000200: 87fb 20bc b352 cfbd 1dca 503c 77d5 eb3d
00000210: 3ee0 fc3d c3b5 503c 84c5 fd3d f03b f9bd
00000220: 6a6c 01be 6588 a0bd 8c62 853d 4df3 dd3c
00000230: 099e f3ba d917 f7bd 1017 aabd e15b c2bd
00000240: 83aa ed3d f68f 783d f671 c7bc 9853 19bd
00000250: fd1d 63bd 3fae 02bd 5779 fa3c 7dbc df3d
00000260: 1875 9b3d 4390 b43d 37e2 293d 89d6 b23c
00000270: 46c5 2fbd a84c e4bd ebf9 4bbd ca70 89bd
00000280: 88eb 7d3d 37da 02be 11b2 83bc 2b3b c93d
00000290: 6aa8 c6bb 9f6b e1bc 7c5c 8dbd 8a83 6cbd
000002a0: bf5a bcbd 6637 37bd c7aa 0bbe 6013 f33d
000002b0: 165b a5bd 03c5 cabd 1c15 8c3d 7986 063e
000002c0: 20f1 eb3d 2e74 0b3e 1fc1 e83b a962 113e
000002d0: b53a 2e3d 62f5 043e 3df5 943d c26c 7dbd
000002e0: a155 5c3d e892 1b3c e3ee e1bd ad58 c83d
000002f0: 8c1a 153e affd 003d dcb0 b3bc 738a 4fbb
00000300: 4e81 d7bd 0c78 f7bd 73bd 51bd f405 f23d
00000310: 451c 893d 4d82 123e 585e 10bd fadc 763d
00000320: 5a34 003d 1f3f 95bd 7778 09be 21b9 f7bd
00000330: 428d cfbd 8b16 22bd b6e4 ae3d dfa3 0a3b
00000340: 5997 e4bd e851 943d 3542 90bc a061 e0bd
00000350: 8e70 fbbd 641a 153e e7bf 503c 4b4a e2bd
00000360: 64c1 00be 2c4e 923d e1b3 ff3d 20f2 fe3c
00000370: 3ce1 e23d 15a3 9d3c e5e4 683d 0a41 4d3d
00000380: 1930 c8bc a718 0d3e 36e2 023c 0aad 9ebd
00000390: afc8 27bd dd5b 543d 21d6 a73d 3eae aebd
000003a0: 9bda e53d d2ee ad3c 264d 793d eb94 a3bd
000003b0: 00ff d9bd 3718 623d 5aad b43c bfb9 4cbd
000003c0: aff5 b83d 69c9 d53d e39e b5bd 11f8 133e
000003d0: 9e73 45bd c272 a6bd be7f fb3d 0b76 8bbd
000003e0: 0298 f2bd 4bad a6bd 4c8b 01be 914f 013d
000003f0: f07f c7bd e94e f53d d89d 5a3c 8cd4 843d

fc2.weight f4 [256, 512]
0.018065087 0.006129332 -0.028270014 -0.025552912 -0.035510622 -0.02191093 -0.040220827 -0.014446875
0.005441869 0.026406849 0.040201124 -0.04138165 0.009353644 0.0010360591 0.033655412 0.010194658
0.042658348 -0.042269394 -0.022457078 -0.032761414 0.010713281 0.02234913 0.034223866 0.03135046
0.04409018 0.028617457 0.013785649 -0.041622687 0.042145856 -0.043209977 0.015947415 0.036979906
-0.01106556 0.029348051 -0.030491052 0.0042570108 0.0063627567 0.032634974 0.016185781 -0.01605049
-0.040852945 0.0145962965 -0.0048601637 0.035039514 0.0049802717 0.010026018 -0.0102509875 -0.044109415
-0.033280756 0.033559196 -0.025150927 0.015015399 0.03813406 0.02760497 0.035530504 -0.010165788
0.011294639 -0.023507567 0.03827599 -0.030701049 -0.023797875 0.03622006 0.022628011 0.0049055927
0.0216146 0.040832847 -0.01027734 -0.022099141 0.014336513 -0.035199888 -0.001268578 -0.0040987916
0.016491741 -0.018588394 -0.0027919759 0.030614685 0.0046361587 -0.03292948 0.012159624 -0.03270114
-0.0030803024 -0.0057912613 0.0214664 -0.025308039 -0.000837932 -0.0033682287 0.0060108886 0.011795311
-0.014007468 -0.028645737 0.043542482 -0.010652621 0.020901196 0.01309757 -0.003200289 0.004680086
0.032600697 -0.032701366 -0.0053318026 0.02352697 -0.040493015 -0.008601655 0.04250214 -0.03727048
-0.0018806398 -0.0015589539 -0.029782722 0.012374899 -0.018949308 0.041377056 -0.042726938 -0.041184794
0.02047928 -0.029173648 0.022383232 0.019550947 -0.043171078 0.025653258 -0.006212256 -0.024479168
0.0031116544 0.0359552 0.007824842 -0.0017301228 -0.007606521 0.004767298 -0.01167249 -0.020095933
0.036441408 -0.010046507 0.0010152122 0.03990774 -0.0104274405 0.025193606 -0.024706982 0.013443986
-0.026395634 0.0015179766 -0.043295708 0.0034046383 0.02015613 0.0049170726 -0.03723038 -0.03657926
-0.020799175 0.04406659 -0.010454478 0.013162392 -0.043787017 0.010164761 0.034612108 -0.009488541
0.0058902274 -0.009734515 -0.021475932 -0.0021328044 0.0014884371 0.03530655 0.022242062 0.0046314276
0.024373358 -0.043991152 -0.0055249357 -0.0063380217 -0.00044899565 -0.04245425 0.023136906 -0.021734497
-0.019323314 0.018189995 -0.011724689 0.019690134 -0.0011208849 -0.010431366 -0.018475644 0.007956213
0.041506283 0.01664045 0.036719024 0.037228804 0.029012114 0.012370553 -0.005845631 0.01996031
0.039490506 -0.035346944 0.0021138804 -0.010124532 -0.025630504 -0.017228384 -0.022147588 -0.012790678
-0.043547593 -0.041155085 0.01884317 0.010115965 0.038577963 0.04337062 0.0060484414 0.010511492
0.034812357 -0.003353277 -0.021074282 0.032571655 0.017213516 0.027778834 0.022816764 0.024305865
0.0069793127 -0.021640152 -0.020669352 0.0028421464 0.032838274 -0.012688809 -0.021948988 -0.02445494
0.006992278 -0.021394715 -0.034671254 0.027714735 0.029168569 -0.008180329 0.029190749 -0.001314497
-0.029975608 0.02554274 0.042349637 0.042470973 0.026872044 0.035013657 0.040159896 -0.016858218
0.00124918 -0.027206244 -0.014840895 0.01623464 -0.025510838 0.030031094 -0.014127586 -0.042111345
0.030642202 -0.03942255 -0.038377523 0.029974991 -0.03526863 -0.002514734 -0.033758663 -0.02969314
-0.028804852 0.008183538 -0.0072659794 0.022415707 0.024858763 0.0109004285 -0.022198824 -0.042072397
00000000: 3cfd 933c 90d8 c83b 8496 e7bc 5754 d1bc
00000010: 9673 11bd 8d7e b3bc 98be 24bd 96b2 6cbc
00000020: b551 b23b 2d53 d83c efa9 243d ce7f 29bd
00000030: 0740 193c 60cc 873a 42da 093d 7f07 273c
00000040: 85ba 2e3d ac22 2dbd e8f7 b7bc d530 06bd
00000050: c286 2f3c 8615 b73c 532e 0c3d 5769 003d
00000060: e897 343d 286f ea3c 34dd 613c 8d7c 2abd
00000070: 22a1 2c3d f2fc 30bd 27a4 823c 3e78 173d
00000080: 534c 35bc 536b f03c 5fc8 f9bc 657e 8b3b
00000090: ac7e d03b 40ac 053d 0b98 843c 517c 83bc
000000a0: 6b55 27bd 4e25 6f3c 0242 9fbb 9885 0f3d
000000b0: 8c31 a33b 2b44 243c c2f3 27bc 13ac 34bd
000000c0: 6751 08bd 5e75 093d 5109 cebc 2603 763c
000000d0: 7632 1c3d d123 e23c 6f88 113d 688e 26bc
000000e0: 260d 393c f192 c0bc 49c7 1c3d c480 fbbc
000000f0: c3f3 c2bc 7c5b 143d 615e b93c 18bf a03b
00000100: 1a11 b13c 5840 273d 4a62 28bc 4209 b5bc
00000110: b2e3 6a3c c22d 10bd 6a46 a6ba 284f 86bb
00000120: b019 873c b046 98bc 95f9 36bb a6cb fa3c
00000130: ebea 973b 10e1 06bd 2939 473c a1f1 05bd
00000140: e6de 49bb 9fc4 bdbb 4eda af3c ce52 cfbc
00000150: aaa8 5bba 80bd 5cbb fdf6 c43b 1f41 413c
00000160: 947f 65bc 77aa eabc 9a59 323d 5588 2ebc
00000170: fc38 ab3c 3197 563c f1bb 51bb 685b 993b
00000180: 4f88 053d def1 05bd 67b6 aebb a2bb c03c
00000190: 01dc 25bd f5ed 0cbc b916 2e3d eea8 18bd
000001a0: cd7f f6ba d055 ccba e5fa f3bc 17c0 4a3c
000001b0: 943b 9bbc fd7a 293d 7102 2fbd 63b1 28bd
000001c0: 2ac4 a73c 93fd eebc 0a5d b73c 4f29 a03c
000001d0: 28d4 30bd c826 d23c 2e90 cbbb 8988 c8bc
000001e0: e6ec 4b3b c345 133d c433 003c 4ac5 e2ba
000001f0: 1f40 f9bb ff36 9c3b f93d 3fbc 3aa0 a4bc
00000200: 9643 153d 1b9a 24bc de10 853a 4c76 233d
00000210: dbd7 2abc d262 ce3c 4c66 cabc 2a44 5c3c
00000220: a83b d8bc d8f6 c63a d756 31bd 5a20 5f3b
00000230: 781e a53c 651f a13b e27e 18bd 22d4 15bd
00000240: 0863 aabc 2b7f 343d 4249 2bbc 13a7 573c
00000250: 045a 33bd 198a 263c 6dc5 0d3d d375 1bbc
00000260: cf02 c13b 847d 1fbc 4bee afbc 85c6 0bbb
00000270: a917 c33a 9a9d 103d fc34 b63c 3bc3 973b
00000280: a3aa c73c 1130 34bd 850a b5bb 2eaf cfbb
00000290: 2d67 ebb9 82e4 2dbd 9c89 bd3c 8b0c b2bc
000002a0: ed4b 9ebc 2f03 953c e918 40bc 344d a13c
000002b0: a8ea 92ba 52e8 2abc 3c5a 97bc c75a 023c
000002c0: 7e02 2a3d 8e51 883c b066 163d 3b7d 183d
000002d0: d0aa ed3c dcad 4a3c b58c bfbb ce83 a33c
000002e0: ccc0 213d f5c7 10bd 0789 0a3b 5de1 25bc
000002f0: 10f7 d1bc 8a22 8dbc dc6e b5bc fe8f 51bc
00000300: f65e 32bd 3c92 28bd fe5c 9a3c 6fbd 253c
00000310: ed03 1e3d 64a5 313d 0132 c63b 6538 2c3c
00000320: 6797 0e3d a7c2 5bbb f9a3 acbc db69 053d
00000330: 5c03 8d3c 7090 e33c 39ea ba3c 181d c73c
00000340: b8b2 e43b b046 b1bc c652 a9bc 4e43 3a3b
00000350: 6d81 063d b9e4 4fbc 5dce b3bc ba55 c8bc
00000360: 7b1f e53b f843 afbc 7203 0ebd 030a e33c
00000370: ecf2 ee3c c906 06bc 7021 ef3c 334b acba
00000380: 688f f5bc 023f d13c d076 2d3d 0bf6 2d3d
00000390: c322 dc3c 7b6a 0f3d b47e 243d 3f1a 8abc
000003a0: 86bb a33a a1df debc 3a27 73bc 82fe 843c
000003b0: 1bfc d0bc c503 f63c 6477 67bc f27c 2cbd
000003c0: 5b05 fb3c 8a79 21bd c031 1dbd 1d8e f53c
000003d0: d775 10bd 3cce 24bb 8646 0abd 073f f3bc
000003e0: 27f8 ebbc 3f14 063c 7417 eebb 25a1 b73c
000003f0: 9ba4 cb3c b697 323c 4fda b5bc 1b54 2cbd

fc2.bias f4 [256]
-0.0004519828 0.02383105 -0.03705277 0.01771542 0.018444989 -0.011612025 0.004476074 -0.034637824
-0.033756062 0.026644042 -0.011430357 -0.038378388 -0.0015705812 0.0035439387 0.037869718 -0.025299609
0.023313787 0.010508405 0.031203382 0.020254273 -0.040168848 -0.042873237 -0.013509329 -0.0042205853
0.025377417 0.038062233 0.043933585 -0.015937673 0.011993612 0.041885473 -0.020040467 0.028594065
0.0042032525 0.03908775 -0.024466166 -0.018704398 0.015987638 0.031951003 -0.014953543 0.026930634
0.014635593 -0.008378103 0.0070065814 -0.023302792 -0.02007783 0.043611974 -0.0351918 0.0025759363
0.009961112 0.008936059 0.04357645 0.019884735 -0.01565719 -0.02964592 0.013378885 0.017904866
0.026800869 -0.038457483 -0.034110088 -0.03180641 0.02510201 -0.0025456063 0.037070267 0.024104172
0.029900376 0.025382612 0.03831038 0.021000372 0.027285326 0.01348265 0.027361803 0.016520564
0.030053668 -0.02093848 0.0040882286 0.034537144 0.030849438 0.024204588 -0.030618146 -0.03292586
-0.020200726 0.042047583 -0.025736509 -0.00899398 0.012329818 -0.019483449 0.014193768 0.04313012
-0.0036253822 0.038916104 -0.034463108 -0.038867977 0.014873586 0.0055417255 -0.0070435917 -0.012026677
-0.03763057 0.0047375006 0.015033386 0.031863846 -0.018193824 -0.03502058 0.03531908 -0.03631024
0.037241288 -0.0032156727 0.006244335 0.0049411594 -0.010206454 0.01698733 -0.005274225 0.019522632
-0.036735736 0.038194813 -0.030811511 0.017127283 -0.009739252 0.011793715 0.0360161 0.0116495
-0.012942876 -0.036268238 -0.01212923 -0.028979903 0.0039373534 0.029200658 -0.014084217 0.010298151
-0.006030376 -0.0076187802 -0.029034574 0.036392212 -0.041590974 -0.026072836 -0.012821392 -0.031826098
-0.014925853 -0.00398283 0.0428117 -0.011007334 -0.0026564526 -0.007211663 0.025372628 -0.040192783
0.041733798 -0.0073610996 0.0071024816 0.007988418 0.042275958 -0.00022045962 -0.040767692 -0.027433073
0.03881299 -0.0009906089 0.042021368 -0.016420085 -0.006827494 -0.024864675 0.00028439114 0.039892223
0.005207459 0.028074821 0.040630743 -0.044001047 -0.038434908 -0.028632393 -0.0126968855 0.016000288
0.044133935 -0.02340818 0.013132004 0.0057379985 0.025379984 -0.02166921 0.010398259 -0.029527249
0.03892815 -0.039177034 0.003407188 -0.03280929 0.038565252 -0.016839553 0.0011822296 -0.035190552
-0.03764742 0.0012743099 -0.02064931 0.039028008 -0.029565075 0.030647317 -0.03129288 0.024917327
-0.017099155 -0.028559841 0.031007161 0.028366677 -0.0040209726 0.022780035 0.015203179 -0.0033086224
0.013990309 0.0016075124 -0.009178609 -0.01720888 -0.008681076 -0.030240575 -0.024840051 -0.032762095
0.040926833 0.0288007 0.0034383398 -0.016393902 0.027362878 -0.020263141 -0.021669438 0.008583859
-0.008260108 0.030518085 -0.017989164 -0.032616023 0.004044264 0.035036158 0.021518921 0.022879833
-0.019524911 0.030269165 0.0023937987 0.034452766 -0.01516913 -0.027278751 -0.012448193 -0.035116527
0.031364005 0.03985269 -0.03344454 -0.0019474267 0.030329604 0.03850628 0.02434676 -0.031319506
0.03060273 -0.020213306 0.024173388 0.013828966 -0.039478753 0.04070223 -0.024019463 -0.031212833
-0.009580473 -0.03265953 0.03022822 0.014726129 0.011983492 0.007335332 -0.005855293 -0.04290024
00000000: 1bf8 ecb9 5639 c33c a5c4 17bd ee1f 913c
00000010: f219 973c 5d40 3ebc 08ac 923b 64e0 0dbd
00000020: cc43 0abd 9b44 da3c 6446 3bbc a832 1dbd
00000030: f6db cdba 6d41 683b 471d 1b3d 2041 cfbc
00000040: 8efc be3c 722b 2c3c 3c9e ff3c 4aec a53c
00000050: 1788 24bd d99b 2fbd 3c56 5dbc d64c 8abb
00000060: 4de4 cf3c 25e7 1b3d b4f3 333d b98f 82bc
00000070: db80 443c 1a90 2b3d e82b a4bc 1a3e ea3c
00000080: 70bb 893b 7a1a 203d 456d c8bc f739 99bc
00000090: 82f8 823c 0edf 023d b5ff 74bc a29d dc3c
000000a0: 20ca 6f3c 5044 09bc 7797 e53b 7fe5 bebc
000000b0: 437a a4bc 78a2 323d 4725 10bd 0ad1 283b
000000c0: ef33 233c 8c68 123c 387d 323d 50e5 a23c
000000d0: 8243 80bc 00dc f2bc 1c33 5b3c 3aad 923c
000000e0: 7f8d db3c 9885 1dbd 05b7 0bbd 7047 02bd
000000f0: bba2 cd3c 30d4 26bb fed6 173d 1d76 c53c
00000100: a2f1 f43c 32ef cf3c 58eb 1c3d f908 ac3c
00000110: 7a85 df3c 55e6 5c3c dc25 e03c 2256 873c
00000120: 1c33 f63c 2d87 abbc 8cf6 853b d276 0d3d
00000130: f6b7 fc3c b348 c63c e8d2 fabc 44dd 06bd
00000140: fe7b a5bc 163a 2c3d 5fd5 d2bc 7c5b 13bc
00000150: 0103 4a3c c19b 9fbc fa8c 683c 35a9 303d
00000160: d297 6dbb 7e66 1f3d 3029 0dbd 0734 1fbd
00000170: 57b0 733c 5d97 b53b eecd e6bb 8a0b 45bc
00000180: 8322 1abd 093d 9b3b 974e 763c aa83 023d
00000190: 370b 95bc bd71 0fbd bdaa 103d 0cba 14bd
000001a0: 528a 183d 09be 52bb 479d cc3b 73e9 a13b
000001b0: f938 27bc 0329 8b3c 68d3 acbb eded 9f3c
000001c0: 3678 16bd 2a72 1c3d 6c68 fcbc 844e 8c3c
000001d0: 6291 1fbc 6d3a 413c 9e85 133d 8bdd 3e3c
000001e0: 5b0e 54bc 018e 14bd aeb9 46bc 4367 edbc
000001f0: ea04 813b 3836 ef3c 7dc1 66bc 93b9 283c
00000200: 769a c5bb f6a6 f9bb ead9 edbc 0010 153d
00000210: 4c5b 2abd b396 d5bc d110 52bc 155c 02bd
00000220: 918b 74bc 6682 82bb 525b 2f3d 1b58 34bc
00000230: e117 2ebb d04f ecbb 42da cf3c 30a1 24bd
00000240: 0ff1 2a3d 6135 f1bb efbb e83b dbe1 023c
00000250: 8e29 2d3d 2e2b 67b9 06fc 26bd 53bb e0bc
00000260: 5ffa 1e3d 52d7 81ba 991e 2c3d 6a83 86bc
00000270: 2cb9 dfbb 01b1 cbbc 551a 9539 0766 233d
00000280: 55a3 aa3b 2bfd e53c 6c6c 263d 713a 34bd
00000290: ec6d 1dbd 7b8e eabc 9906 50bc 0913 833c
000002a0: c9c5 343d 83c2 bfbc 9e27 573c d205 bc3b
000002b0: afe9 cf3c a183 b1bc 765d 2a3c 21e3 f1bc
000002c0: 2073 1f3d 1978 20bd 214b 5f3b 0963 06bd
000002d0: 99f6 1d3d 1af3 89bc 0bf5 9a3a f823 10bd
000002e0: 2e34 1abd bf06 a73a be28 a9bc d5db 1f3d
000002f0: 7532 f2bc 1510 fb3c f72c 00bd 6c1f cc3c
00000300: 8713 8cbc 54f6 e9bc bb02 fe3c 3c61 e83c
00000310: 5dc2 83bb 329d ba3c c116 793c 79d5 58bb
00000320: 9c37 653c 2ab3 d23a e061 16bc a3f9 8cbc
00000330: 123b 0ebc 15bb f7bc 5d7d cbbc 8c31 06bd
00000340: e5a2 273d 72ef eb3c c555 613b 814c 86bc
00000350: 1d28 e03c e3fe a5bc 1b84 b1bc 50a3 0c3c
00000360: 6755 07bc 1001 fa3c 035e 93bc 6198 05bd
00000370: bf85 843b 1382 0f3d 7348 b03c 7d6e bb3c
00000380: b5f2 9fbc 0af7 f73c 47e1 1c3b 581e 0d3d
00000390: f187 78bc b077 dfbc 81f3 4bbc 59d6 0fbd
000003a0: 8b77 003d 933c 233d 24fd 08bd cc40 ffba
000003b0: ca75 f83c c3b8 1d3d db72 c73c e248 00bd
000003c0: 94b2 fa3c 6096 a5bc 4507 c63c e392 623c
000003d0: 79b4 21bd 62b7 263d 77c4 c4bc 0eb2 ffbc
000003e0: 6bf7 1cbc 00c6 05bd 2ca1 f73c dd45 713c
000003f0: 6956 443c 3a5d f03b c2dd bfbb 29b8 2fbd

fc3.weight f4 [128, 256]
-0.051454 -0.024093509 -0.015059076 -0.0009483248 0.011534601 -0.047914118 -0.059039332 0.037618272
-0.047927365 0.017982952 -0.034360886 -0.022673674 0.018567331 -0.015815586 -0.045579396 0.03574662
-0.051831014 -0.0033943653 -0.031687282 0.019888133 -0.005183235 -0.019610792 -0.034299776 0.020910524
0.054584548 -0.030808195 0.054846674 0.052928537 0.02786877 0.007382557 0.0011864975 -0.057259
-0.050974563 0.011821471 -0.032838523 0.054224238 0.015385792 -0.018456414 0.040383212 -0.048312873
0.0019826367 0.026256233 -0.05956193 -0.049554877 -0.061999947 -0.040112637 -0.012592807 -0.0075007454
0.00047278404 0.052977026 -0.027620524 -0.017408341 -0.004705623 0.0040512905 0.032806814 -0.036285914
-0.012099586 -0.037193686 0.012968726 -0.018751219 0.011527002 0.021357566 -0.014887191 0.0017657131
0.043387882 -0.03322757 0.045904912 0.0033827499 -0.04930529 -0.01490812 -0.024162062 0.012346514
0.017504334 -0.032515988 0.061749697 -0.061738968 0.057782635 -0.031659737 0.060268484 0.035153426
0.014670409 0.06111612 -0.020015776 -0.0031731278 -0.04265067 0.050089903 -0.034463055 0.055726573
0.04823932 0.0017477497 -0.003321357 -0.027743392 -0.041706108 0.025732689 -0.017213903 0.025432095
-0.05768136 0.04211644 -0.04326243 -0.010691397 -0.0465279 -0.056829676 -0.011793777 0.019678935
0.055545583 -0.034203492 0.028436735 0.0015336573 0.031541064 -0.006828688 -0.012976535 0.038140006
0.0031719431 0.021931477 0.023499385 -0.036622636 0.050471857 0.037184253 0.030770406 0.056315854
-0.023191422 0.026903704 0.005340904 0.034243666 -0.047703326 0.03592302 0.018820018 0.01619082
0.013344906 0.029891692 -0.003534183 0.02513235 0.003929101 -0.05169142 -0.012625761 -0.058341667
-0.04124611 0.02023787 0.00864771 -0.051765926 0.04718498 0.061931044 -0.053428844 -0.0024914965
0.0108817965 0.014486358 0.033229135 0.045287855 0.0008234978 -0.0038885996 0.022392482 0.05607353
0.03867671 -0.05876881 0.013027303 0.046167105 0.050595872 0.04813294 0.03186255 -0.028691135
0.021120712 -0.016879663 0.028725624 0.052112274 -0.015149906 0.033286862 0.04038708 0.004073009
0.046664253 -0.029796243 0.00964015 0.03313873 0.04484646 0.013742611 -0.0037604496 -0.015343398
-0.014284156 -0.04501757 -0.036149383 0.0009102449 0.024129383 -0.03440988 0.050549798 0.055292457
-0.03680574 0.042642176 -0.041502684 0.02759163 -0.0313636 0.03313297 0.015847117 -0.026268624
0.054721326 0.0021728277 -0.042525582 0.040430263 0.037686184 -0.025305927 -0.028421067 -0.0030192807
0.004188046 0.055256084 -0.0624779 -0.044750206 0.012665771 0.02607356 0.03158261 -0.05727925
0.04553362 -0.022988416 -0.007310264 -0.061467297 0.060835876 -0.058482945 0.044025972 0.029960215
-0.01937864 -0.011774987 0.0111427605 0.05301398 -0.0580213 -0.05756311 -0.06033822 -0.012545079
-0.033398993 0.041239433 -0.04924781 -0.03194762 0.03558778 -0.05983603 0.032751583 0.05414681
0.01853685 -0.016606063 -0.01813332 0.047290616 -0.047539733 -0.021378532 0.036759667 0.0325727
0.022834122 0.05310362 -0.009058692 0.06220386 0.037979826 -0.00017279387 -0.027238794 -0.057228968
0.045773022 0.0076209605 -0.050422035 -0.03648209 0.045351498 0.05863283 -0.03237723 0.018020332
00000000: 6ec1 52bd c05f c5bc 58ba 76bc 0099 78ba
00000010: a0fb 3c3c 9841 44bd 3ad3 71bd 9e15 1a3d
00000020: 7c4f 44bd fc50 933c 00be 0cbd 24be b9bc
00000030: 841a 983c b08f 81bc 76b1 3abd 0c6b 123d
00000040: c24c 54bd 0074 5ebb 86ca 01bd 70ec a23c
00000050: 20d8 a9bb d0a6 a0bc ec7d 0cbd 8c4c ab3c
00000060: 0c94 5f3d 7861 fcbc e8a6 603d 98cb 583d
00000070: 0c4d e43c 60e9 f13b 4084 9b3a 6a88 6abd
00000080: b4ca 50bd d8ae 413c b081 06bd 3c1a 5e3d
00000090: b014 7c3c e831 97bc de68 253d b8e3 45bd
000000a0: 20ef 013b 5017 d73c 36f7 73bd 0efa 4abd
000000b0: a8f3 7dbd 264d 24bd 1052 4ebc d0c8 f5bb
000000c0: 00e0 f739 70fe 583d 7044 e2bc f09b 8ebc
000000d0: a031 9abb b0c0 843b 7060 063d 8aa0 14bd
000000e0: 583d 46bc 6858 18bd c87a 543c 289c 99bc
000000f0: c0db 3c3c 10f6 ae3c 68e9 73bc 806f e73a
00000100: 7eb7 313d a219 08bd ca06 3c3d 20b1 5d3b
00000110: 58f4 49bd 3041 74bc 84ef c5bc 0849 4a3c
00000120: 4065 8f3c 7c2f 05bd 40ed 7c3d 00e2 7cbd
00000130: 7cad 6c3d a4ad 01bd 16dc 763d 0afd 0f3d
00000140: 285c 703c e654 7a3d 20f8 a3bc 40f4 4fbb
00000150: 78b2 2ebd 122b 4d3d 2229 0dbd 8c41 643d
00000160: 9896 453d c014 e53a 20ab 59bb 1c46 e3bc
00000170: 06d4 2abd 5ccd d23c 2c04 8dbc f856 d03c
00000180: 4a43 6cbd 4a82 2c3d f233 31bd f82a 2fbc
00000190: 0a94 3ebd 3cc6 68bd b03a 41bc b835 a13c
000001a0: c483 633d f618 0cbd 28f4 e83c 0005 c93a
000001b0: 3431 013d 30c3 dfbb 889b 54bc b238 1c3d
000001c0: 60e0 4f3b a4a9 b33c c881 c03c 9e01 16bd
000001d0: 94bb 4e3d 844e 183d 3812 fc3c 74ab 663d
000001e0: f0fb bdbc 2865 dc3c c002 af3b 1643 0c3d
000001f0: 9064 43bd 0424 133d 702c 9a3c 9ca2 843c
00000200: 98a4 5a3c 6cdf f43c c09d 67bb 5ce2 cd3c
00000210: b0bf 803b 62ba 53bd 48dc 4ebc acf7 6ebd
00000220: aef1 28bd e4c9 a53c 20af 0d3c 8208 54bd
00000230: 0a45 413d 68ab 7d3d 34d8 5abd 6048 23bb
00000240: 9049 323c 3058 6d3c 461b 083d c27f 393d
00000250: 00e0 573a e0d7 7ebb 7070 b73c 5cad 653d
00000260: 786b 1e3d 90b7 70bd 7870 553c b819 3d3d
00000270: 9e3d 4f3d 0c27 453d 4e82 023d ac09 ebbc
00000280: 5805 ad3c 3847 8abc 0052 eb3c ae73 553d
00000290: 5037 78bc ce57 083d ec6c 253d e076 853b
000002a0: 0423 3f3d 4017 f4bc b8f1 1d3c 7abc 073d
000002b0: ecb0 373d b028 613c e071 76bb e062 7bbc
000002c0: 1808 6abc 5864 38bd 6011 14bd 809d 6e3a
000002d0: fcaa c53c 60f1 0cbd 4e0d 4f3d 587a 623d
000002e0: 9ec1 16bd 90a9 2e3d b8fe 29bd d807 e23c
000002f0: 1e77 00bd 70b6 073d d0d1 813c 4c31 d7bc
00000300: 7823 603d 0066 0e3b 4e2f 2ebd 349a 253d
00000310: d45c 1a3d 604e cfbc 4cd3 e8bc 20df 45bb
00000320: e03b 893b 3454 623d d4e8 7fbd fe4b 37bd
00000330: 1884 4f3c 3898 d53c c45c 013d a69d 6abd
00000340: 7681 3a3d 3452 bcbc f08a efbb 22c5 7bbd
00000350: 0a2f 793d d08b 6fbd 9454 343d 206f f53c
00000360: f4bf 9ebc e0eb 40bc 2090 363c 3025 593d
00000370: bea7 6dbd 4cc7 6bbd 3625 77bd e089 4dbc
00000380: 62cd 08bd aeea 283d 12b8 49bd 82db 02bd
00000390: 7ec4 113d a016 75bd 8626 063d 0cc9 5d3d
000003a0: 98da 973c 7009 88bc 548c 94bc ceb3 413d
000003b0: 06b9 42bd 0822 afbc 4e91 163d f46a 053d
000003c0: a00e bb3c 2e83 593d e86a 14bc 7ac9 7e3d
000003d0: bc90 1b3d 0030 35b9 e423 dfbc ec68 6abd
000003e0: 7e7c 3b3d 40b9 f93b 5687 4ebd 3e6e 15bd
000003f0: 7ec2 393d fa28 703d fc9d 04bd 609f 933c

fc3.bias f4 [128]
-0.044018596 0.05717621 0.02769316 0.061973676 0.05931057 0.058884837 0.0408647 -0.013518564
0.030506946 0.029718898 0.002878949 -0.03447943 0.009273067 -0.00407812 0.0026743487 0.025646113
-0.017980605 -0.014245823 -0.035232984 -0.049133025 -0.024708137 0.013402998 0.050610386 -0.04818674
0.0024954453 -0.042344265 -0.026168458 -0.045481592 0.03192188 0.03508559 0.012933113 -0.058963247
-0.035184845 -0.012862653 -0.0061779544 0.049630865 -0.028555319 -0.0058336183 -0.026199564 -0.029899172
0.026538804 0.05530353 0.047100104 -0.02883251 -0.042962886 0.03503845 -0.049016945 0.05106975
-0.029290527 0.025849879 0.05368407 0.021303818 0.060168654 -0.001982689 -0.010704935 -0.0315189
-0.025240257 0.030054338 -0.047102258 -0.03156784 -0.050068974 0.027440183 -0.004106365 -0.0005995855
0.019345507 0.05244115 0.040255822 0.054480135 0.013340823 -0.023409396 0.03239757 -0.054072663
0.036893897 -0.008454911 0.005749263 0.019619241 -0.04631874 0.023305245 -0.027428418 -0.04410813
-0.037110604 0.024623714 -0.017430507 0.030146621 0.0035123155 0.010286376 -0.04718347 0.031234138
-0.053497545 0.005557291 -0.03813175 0.041042283 0.024592519 -0.019762874 -0.04570605 -0.05944261
0.0058081225 -0.030937217 -0.012266725 -0.046466902 0.0013058335 -0.04543601 -0.00061401725 0.019444928
0.03176736 0.031328402 0.02512081 0.002966918 0.014437668 -0.038550787 0.019476674 0.049519368
0.059543915 0.054192938 -0.04155034 0.04872401 0.038075067 -0.03068047 0.051005416 0.002546817
0.05972647 0.02896855 0.04286232 0.052938834 0.002223812 -0.0028996319 -0.03383567 0.032191217
00000000: d84c 34bd 9a31 6a3d c4dc e23c 1cd8 7d3d
00000010: a4ef 723d 3a31 713d be61 273d f87c 5dbc
00000020: b4e9 f93c 0c75 f33c c0ac 3c3b 4e3a 0dbd
00000030: 10ee 173c c0a1 85bb 2044 2f3b cc17 d23c
00000040: 104c 93bc 5067 69bc 7650 10bd b63f 49bd
00000050: b868 cabc 4098 5b3c d64c 4f3d 765f 45bd
00000060: a08a 233b 2e71 2dbd 3c5f d6bc e84a 3abd
00000070: 84c0 023d e8b5 0f3d 68e5 533c 7283 71bd
00000080: fc1d 10bd e0bd 52bc 7070 cabb bc49 4b3d
00000090: d8ec e9bc f027 bfbb 78a0 d6bc 1cef f4bc
000000a0: e867 d93c f485 623d 0aec 403d 2832 ecbc
000000b0: daf9 2fbd 7a84 0f3d fec5 48bd 842e 513d
000000c0: b0f2 efbc 20c3 d33c d4e3 5b3d 5885 ae3c
000000d0: 6873 763d 00f0 01bb c063 2fbc f619 01bd
000000e0: a8c4 cebc 8434 f63c 4cee 40bd 484d 01bd
000000f0: 2015 4dbd 3cca e03c b08e 86bb 802d 1dba
00000100: 787a 9e3c 88cc 563d 4ae3 243d 9026 5f3d
00000110: 7893 5a3c 10c5 bfbc 50b3 043d 4c7b 5dbd
00000120: 0e1e 173d 7886 0abc 5064 bc3b 88b8 a03c
00000130: b8b8 3dbd a4ea be3c 90b1 e0bc baaa 34bd
00000140: 4a01 18bd acb7 c93c 6cca 8ebc 0cf6 f63c
00000150: e02e 663b 3088 283c 7443 41bd bcde ff3c
00000160: 3e20 5bbd f019 b63b 0a30 1cbd f41b 283d
00000170: 4076 c93c c0e5 a1bc 4436 3bbd 187a 73bd
00000180: 1052 be3b 0c70 fdbc 60fa 48bc 1454 3ebd
00000190: 8028 ab3a 1c1b 3abd 00f6 20ba f84a 9f3c
000001a0: 7e1e 023d 3652 003d 28ca cd3c a070 423b
000001b0: f88b 6c3c 6ee7 1dbd 8c8d 9f3c d2d4 4a3d
000001c0: 52e4 733d 6af9 5d3d b030 2abd d492 473d
000001d0: 9af4 1b3d 9c55 fbbc 0eeb 503d 80e8 263b
000001e0: bea3 743d 744f ed3c 6690 2f3d 64d6 583d
000001f0: 60bd 113b c007 3ebb 4697 0abd f0da 033d

fc4.weight f4 [15, 128]
0.027393933 0.082120985 -0.014675564 0.053800885 -0.03822814 -0.015984297 0.06370396 0.020272633
-0.081420936 0.039987452 0.048391957 0.07211375 0.021484008 -0.067593366 0.026556434 -0.07788161
0.023862291 -0.010615474 0.024059897 0.0332748 0.055405773 0.009348603 0.04873992 0.062250957
-0.06533296 -0.08572724 -0.07408415 -0.0067571406 0.03801101 -0.035645127 -0.039136667 -0.023487573
-0.063866384 0.059784617 0.022432785 -0.023085935 0.03052418 0.028252624 -0.028768785 -0.015069068
-0.022465598 0.0049725906 -0.03125723 0.056223642 0.07627361 0.02724977 -0.018388912 -0.08837232
0.014338621 0.05330841 -0.08515173 0.039336223 0.02265743 -0.047521234 0.030786345 0.0133167915
0.004079699 0.041772235 -0.059919108 -0.08610057 -0.08351302 -0.0069857556 -0.05566898 -0.06395938
0.084329575 0.06915362 -0.006919037 -0.00871895 -0.057402544 -0.06974063 0.037121974 -0.047891356
-0.02333535 0.021034827 0.05267454 0.05858061 0.06992103 0.018145598 -0.01624901 -0.035798933
-0.06950019 0.046742402 0.013502112 0.023189923 -0.041840333 0.07697261 0.027102299 -0.057011902
0.007215319 0.072201304 -0.010637127 -0.017380306 -0.05899896 -0.0401786 0.07355417 0.056926083
-0.053050257 0.00046699762 0.006308582 0.03563573 0.01540954 0.03405125 -0.0043183556 0.039424542
-0.0783461 -0.073220044 0.082931295 0.04809599 -0.049835242 0.056158695 0.01570243 -0.08625482
0.034659367 0.010137171 0.027729949 -0.002943167 0.05509846 -0.029486556 -0.020302273 -0.07261327
0.069912314 0.03563639 -0.08455809 -0.01634126 0.014920258 0.00030168713 -0.05588598 -0.08771668
0.06013374 -0.036741063 0.066881 0.01912605 0.061614517 0.057880014 -0.036164273 -0.08084535
0.04304451 0.0047944253 -0.016063133 0.02504431 -0.04168225 -0.065860264 -0.045726106 0.062532656
0.0666965 -0.038151495 0.07849871 -0.08733567 -0.07891973 -0.030013213 0.026300013 0.019609306
0.08533805 0.001116175 0.06366836 -0.08642459 0.01678379 -0.07438802 0.024842069 -0.075495824
0.046574365 -0.03556197 0.07177596 -0.036131587 -0.08308363 -0.03887168 0.07582925 0.031184716
-0.06567391 -0.016153421 0.0854431 0.08024524 0.011173277 0.040383793 0.013410917 -0.03412879
0.04680889 0.08318796 0.07059424 0.060818586 -0.03391189 -0.08159883 -0.039276343 0.083229646
-0.013105425 0.031458206 -0.042039163 -0.068400875 -0.04977314 0.048397016 0.010398523 -0.031107334
0.021720389 0.06652467 -0.06808371 0.03621865 -0.000817396 0.06815393 0.043601144 -0.07695198
0.028005822 -0.038396746 -0.07277399 0.079284616 -0.06718311 -0.0050479807 -0.08701269 0.037251838
0.040312417 0.029749805 -0.04568206 -0.07399413 0.03884205 -0.08256435 0.078745514 -0.0491716
-0.028645052 0.043008402 0.012505644 0.04064565 -0.058936384 0.06582818 -0.016621526 0.043081213
-0.0094426535 0.009690424 0.079904236 -0.007144523 0.00096523657 0.0668763 0.023072977 -0.03636545
-0.036551874 0.018086467 -0.050516527 0.06436532 -0.025712729 -0.0826559 0.06502725 -0.083898544
-0.0431994 -0.07629025 -0.0015383388 -0.04832845 0.06777853 -0.036805313 0.053976297 0.08219866
0.022011591 0.00074139464 -0.0075241183 0.038040735 0.015410953 0.07689912 -0.07417094 0.038485855
00000000: 3e69 e03c 0c2f a83d c771 70bc 515e 5c3d
00000010: 1c95 1cbd 80f1 82bc 3977 823d cb12 a63c
00000020: 05c0 a6bd e2c9 233d a536 463d 60b0 933d
00000030: 3bff af3c 646e 8abd e18c d93c 6580 9fbd
00000040: da7a c33c 86ec 2dbc 4319 c53c 284b 083d
00000050: 2af1 623d e22a 193c 83a3 473d dcfa 7e3d
00000060: 49cd 85bd c391 afbd 6eb9 97bd 016b ddbb
00000070: 6fb1 1b3d a000 12bd c54d 20bd 0369 c0bc
00000080: 61cc 82bd b7e0 743d f6c4 b73c b71e bdbc
00000090: d80d fa3c 0c72 e73c 84ac ebbc 41e4 76bc
000000a0: c609 b8bc 1df1 a23b 9507 00bd c34a 663d
000000b0: 5735 9c3d e93a df3c 58a4 96bc 8cfc b4bd
000000c0: 89ec 6a3c eb59 5a3d 0864 aebd 051f 213d
000000d0: 139c b93c a0a5 42bd a533 fc3c ac2e 5a3c
000000e0: ffae 853b 5d19 2b3d bd6d 75bd 7f55 b0bd
000000f0: e008 abbd c4e8 e4bb 2805 64bd 23fd 82bd
00000100: fcb4 ac3d 6aa0 8d3d 17b9 e2bb edd9 0ebc
00000110: ee1e 6bbd 2dd4 8ebd 360d 183d ba29 44bd
00000120: c729 bfbc 3b51 ac3c 42c1 573d 39f2 6f3d
00000130: c232 8f3d 14a6 943c a51c 85bc e7a1 12bd
00000140: 1e56 8ebd f674 3f3d f637 5d3c cbf8 bd3c
00000150: c560 2bbd d1a3 9d3d a405 de3c 5085 69bd
00000160: 7c6e ec3b 47de 933d 5847 2ebc 2561 8ebc
00000170: e5a8 71bd 5192 24bd 92a3 963d 532b 693d
00000180: 3a4b 59bd 5cd7 f439 39b8 ce3b c5f6 113d
00000190: 4c78 7c3c 5379 0b3d fe80 8dbb a17b 213d
000001a0: ec73 a0bd 64f4 95bd e2d7 a93d 4d00 453d
000001b0: 0a20 4cbd a906 663d 62a2 803c 5ea6 b0bd
000001c0: fbf6 0d3d 6016 263c eb29 e33c 26e2 40bb
000001d0: ecae 613d ca8d f1bc f450 a6bc 44b6 94bd
000001e0: 302e 8f3d 77f7 113d cb2c adbd 1bde 85bc
000001f0: 1974 743c c32b 9e39 b3e8 64bd cda4 b3bd
00000200: cc4e 763d cc7d 16bd e8f8 883d 3cae 9c3c
00000210: 815f 7c3d 9813 6d3d fd20 14bd 3f92 a5bd
00000220: 714f 303d 8e1a 9d3b d596 83bc ba29 cd3c
00000230: 02bb 2abd bfe1 86bd 4c4b 3bbd 1f11 803d
00000240: 2d98 883d be44 1cbd efc3 a03d 0bdd b2bd
00000250: aba0 a1bd 45de f5bc 2073 d73c b2a3 a03c
00000260: b7c5 ae3d 9e4c 923a 8f64 823d 60ff b0bd
00000270: 297e 893c bf58 98bd 9881 cb3c 8e9d 9abd
00000280: c3c4 3e3d 6ea9 11bd 46ff 923d b7fe 13bd
00000290: c027 aabd e937 1fbd 5e4c 9b3d 1777 ff3c
000002a0: 0b80 86bd 2e54 84bc cbfc ae3d 9e57 a43d
000002b0: 1f10 373c 7a69 253d 76b9 5b3c a1ca 0bbd
000002c0: aeba 3f3d 735e aa3d b793 903d e91c 793d
000002d0: 32e7 0abd 4a1d a7bd 3be0 20bd 4e74 aa3d
000002e0: 23b8 56bc 52da 003d 4231 2cbd c215 8cbd
000002f0: ecde 4bbd f33b 463d 915e 2a3c cfd4 febc
00000300: f5ee b13c 163e 883d 796f 8bbd 025a 143d
00000310: 8446 56ba 4a94 8b3d 1d97 323d 0099 9dbd
00000320: 776c e53c e845 1dbd 880a 95bd f95f a23d
00000330: 4c97 89bd 8869 a5bb b633 b2bd 6295 183d
00000340: a21e 253d ddb5 f33c 1d1d 3bbd 3c8a 97bd
00000350: d718 1f3d 7f17 a9bd 5445 a13d 2968 49bd
00000360: 07a9 eabc 9429 303d 79e4 4c3c 0e7c 263d
00000370: 4767 71bd edd0 863d de29 88bc ed75 303d
00000380: 5cb5 1abc 96c4 1e3c d5a4 a33d 9a1c eabb
00000390: ee07 7d3a 71f6 883d 8a03 bd3c f0f3 14bd
000003a0: 6bb7 15bd 122a 943c 6bea 4ebd f7d1 833d
000003b0: 80a3 d2bc 7f47 a9bd 022d 853d 00d3 abbd
000003c0: dbf1 30bd 103e 9cbd 16a2 c9ba 0ef4 45bd
000003d0: 78cf 8a3d 2bc1 16bd 4016 5d3d c557 a83d
000003e0: a751 b43c 275a 423a e18c f6bb 9ad0 1b3d
000003f0: 397e 7c3c 497d 9d3d efe6 97bd 58a3 1d3d

fc4.bias f4 [15]
0.04934576 0.032437585 -0.017118901 0.07567874 0.025386501 -0.025552096 -0.06261708 0.036235467
-0.008250498 -0.07088277 0.08808383 0.059748825 -0.035256807 -0.03159651 0.018535003
00000000: c81e 4a3d 46dd 043d f03c 8cbc 75fd 9a3d
00000010: 5af7 cf3c a152 d1bc 623d 80bd a46b 143d
00000020: 192d 07bc fc2a 91bd 4c65 b43d 2fbb 743d
00000030: 7169 10bd 586b 01bd b8d6 973c
