api/model/NIDS_Model_1.pth (torch, 721148 bytes, 8 tensors)

fc1.weight f4 [512, 25]
0.022666603 -0.15182483 -0.079168156 0.0007329434 0.11280154 0.10132639 0.004104227 -0.11354382
-0.08794079 -0.14423259 0.008823901 0.12458043 0.03415051 -0.03031826 -0.16229594 -0.016784936
0.025202066 0.052944466 0.15948759 0.10344879 -0.070318654 -0.1561921 -0.057667226 0.09389071
0.018368125 -0.1307869 -0.19472663 -0.11480134 0.05065061 0.057482943 -0.0066773146 0.12752922
-0.0014506578 -0.07437985 0.07201518 -0.035011172 -0.18604803 -0.08674355 0.1593663 0.08934437
-0.031453013 0.027864367 -0.057694152 0.059004918 -0.16557066 -0.008458808 0.06896736 0.12070574
0.027027681 -0.051785633 -0.143893 -0.13029873 -0.17283832 0.16868986 -0.0066699237 -0.10315192
0.06268756 0.17293708 0.05115159 -0.00033295155 -0.04583633 0.05515869 0.0680155 -0.15591219
0.17433096 -0.17976566 -0.099155046 -0.025316358 0.01676634 0.11371814 0.0068641603 0.18790032
-0.15626898 -0.19535244 -0.03507106 0.104194865 -0.041193366 -0.10137246 0.026282668 -0.1346502
-0.17767303 0.06634237 0.045617193 -0.07036002 -0.090420984 0.056919858 0.19371943 0.007465631
0.15728773 0.032148838 -0.11665764 -0.11160534 0.011233538 0.014463782 0.19514064 0.10662867
-0.069933385 0.061444774 -0.021457627 -0.018685296 -0.08865254 -0.15839991 0.06422399 0.13384648
0.10566507 0.05097933 -0.08138287 -0.13322577 -0.16267888 0.08893858 -0.032782435 -0.0962904
0.0051679313 0.19835858 -0.19185996 0.12409772 -0.0613759 0.15128838 0.14150895 0.056181207
-0.19631529 0.008266643 0.16027369 0.19539537 -0.04845929 0.06766699 -0.17091428 0.090066686
0.12343626 0.09654166 0.08625962 -0.10982263 0.18699364 0.15914308 0.04736173 0.118272945
0.16348155 -0.032298014 -0.19469623 -0.048261687 0.118538305 0.03093636 -0.13558245 0.18516602
0.19007264 0.041054174 0.05777715 0.18748502 0.037016004 -0.074658304 0.026762843 -0.09660261
0.109973416 0.19289382 -0.012886688 -0.02293548 -0.10017874 0.07699628 0.110903725 -0.074230224
-0.09009185 0.14273356 0.024434298 -0.062198684 0.17977558 0.012863129 0.19537474 -0.18671305
0.009408191 0.017065167 0.0120791495 0.12807037 0.028569132 0.088614985 0.17211 -0.15589765
-0.116160944 0.16598044 -0.13716453 0.10827614 -0.047638148 -0.03425412 0.13868658 0.12252797
-0.02891609 -0.14254694 0.0605015 -0.12152543 -0.04043722 -0.12663734 0.029939145 0.17143662
0.10487892 -0.057893425 0.11403422 -0.026963547 -0.030372292 0.0022742003 0.16694446 0.15139471
0.0149080455 -0.09028542 -0.0138913095 0.15995933 -0.14805119 0.07603432 0.098988965 0.072699174
-0.049248055 -0.04693091 0.057978377 0.06586127 0.10453217 -0.0049440116 -0.17148148 0.19883676
-0.12223273 0.08271401 0.09092589 0.14613344 0.058230534 0.19920494 -0.08461449 0.09388234
-0.029149026 -0.16578153 0.018072769 0.13717283 -0.14287563 0.17200436 -0.19682668 -0.1266514
0.13325746 0.13621224 -0.12788546 0.020139664 0.19950338 -0.13561133 -0.016846985 -0.14800635
0.06149371 -0.09425614 -0.10673814 0.04256849 0.19264214 -0.12797901 -0.173329 -0.10625961
0.06727348 -0.18714722 0.0077762604 -0.14739764 0.026063412 0.04788764 -0.15197639 -0.06423816
00000000: 50af b93c f877 1bbe ea22 a2bd 0023 403a
00000010: 7e04 e73d 3684 cf3d c07c 863b aa89 e8bd
00000020: 4d1a b4bd b5b1 13be 2092 103c 0624 ff3d
00000030: 68e1 0b3d 005e f8bc e830 26be 9080 89bc
00000040: 9074 ce3c 4cdc 583d b750 233e f6dc d33d
00000050: 3a03 90bd d2f0 1fbe 7834 6cbd c649 c03d
00000060: c078 963c 00ed 05be 6b66 47be f71c ebbd
00000070: 0477 4f3d 3c73 6b3d 60cd dabb 0597 023e
00000080: 0024 beba 7654 98bd b27c 933d e067 0fbd
00000090: 6083 3ebe 9aa6 b1bd eb30 233e 2efa b63d
000000a0: e0d4 00bd d043 e43c b450 6cbd 24af 713d
000000b0: 5b8b 29be d096 0abc c23e 8d3d 9234 f73d
000000c0: 2869 dd3c 2c1d 54bd b058 13be 086d 05be
000000d0: 87fc 30be 09bd 2c3e 608f dabb 5041 d3bd
000000e0: 5662 803d 6b16 313e 5484 513d 0090 aeb9
000000f0: e0be 3bbd 14ee 613d b64b 8b3d 72a7 1fbe
00000100: d183 323e 7d14 38be cd11 cbbd 4064 cfbc
00000110: 9059 893c 0ee5 e83d c0ec e03b f168 403e
00000120: fa04 20be 780a 48be aca6 0fbd 1e64 d53d
00000130: 60ba 28bd 5d9c cfbd c04e d73c bee1 09be
00000140: ebef 35be 82de 873d 18d9 3a3d ea18 90bd
00000150: a32e b9bd cc24 693d 635e 463e 40a2 f43b
00000160: 0910 213e 80ae 033d 33ea eebd 5791 e4bd
00000170: e00c 383c 80f9 6c3c f3d2 473e 2260 da3d
00000180: 3c39 8fbd 84ad 7b3d e8c7 afbc e811 99bc
00000190: 778f b5bd 9633 22be de87 833d 0d0f 093e
000001a0: ee66 d83d b4cf 503d 10ac a6bd 566c 08be
000001b0: 4b95 26be 6e25 b63d e046 06bd e733 c5bd
000001c0: c057 a93b 831e 4b3e f076 44be f226 fe3d
000001d0: 4c65 7bbd 57eb 1a3e b9e7 103e 441e 663d
000001e0: e006 49be d070 073c c91e 243e b915 483e
000001f0: 407d 46bd fe94 8a3d 2704 2fbe e274 b83d
00000200: 26cc fc3d a2b7 c53d e2a8 b03d b0ea e0bd
00000210: 437b 3f3e 67f6 223e 60fe 413d 1639 f23d
00000220: b567 273e ec4a 04bd 735e 47be 0cae 45bd
00000230: 36c4 f23d 406e fd3c 20d6 0abe 299c 3d3e
00000240: 67a2 423e 6c28 283d bca7 6c3d 13fc 3f3e
00000250: 189e 173d 74e6 98bd c03d db3c 97d7 c5bd
00000260: be39 e13d f585 453e b022 53bc 30e3 bbbc
00000270: 832a cdbd 3ab0 9d3d 7e21 e33d 0406 98bd
00000280: 1382 b8bd bf28 123e 702a c83c 0cc4 7ebd
00000290: 1717 383e e0bf 523c 5110 483e b531 3fbe
000002a0: d024 1a3c 40cc 8b3c a0e7 453c e124 033e
000002b0: d009 ea3c c67b b53d 9b3d 303e a2a3 1fbe
000002c0: cae5 edbd c7f6 293e dc74 0cbe e2bf dd3d
000002d0: 3820 43bd 0c4e 0cbd db03 0e3e f2ef fa3d
000002e0: 70e1 ecbc d3f7 11be 6cd0 773d 53e2 f8bd
000002f0: 80a1 25bd 38ad 01be f042 f53c 158d 2f3e
00000300: c2ca d63d a821 6dbd c68a e93d a8e2 dcbc
00000310: 50cf f8bc c00a 153b 7df3 2a3e 3707 1b3e
00000320: e040 743c 90e7 b8bd 6098 63bc 61cc 233e
00000330: bb9a 17be e2b7 9b3d baba ca3d 4ee3 943d
00000340: 54b8 49bd a03a 40bd bc7a 6d3d 46e2 863d
00000350: f614 d63d 6001 a2bb d798 2fbe dd9b 4b3e
00000360: 2755 fabd f665 a93d 5a37 ba3d 01a4 153e
00000370: 2483 6e3d 61fc 4b3e 5d4a adbd 6245 c03d
00000380: f0c9 eebc a2c2 29be 580d 943c 0977 0c3e
00000390: fd4d 12be e921 303e ef8c 49be e8b0 01be
000003a0: a574 083e 397b 0b3e 68f4 02be f0fb a43c
000003b0: 9d4a 4c3e b2dd 0abe b002 8abc fa8e 17be
000003c0: d4e0 7b3d 5d09 c1bd 8799 dabd 4c5c 2e3d
000003d0: fb43 453e ee0c 03be 287d 31be a39e d9bd
000003e0: aec6 893d 85a3 3fbe 00d0 fe3b 68ef 16be
000003f0: f082 d53c d425 443d b39f 1bbe 4c8f 83bd

fc1.bias f4 [512]
-0.11003244 -0.14399514 -0.115241766 0.190643 -0.04721673 -0.022807866 -0.09792032 0.15235092
0.13238849 0.03382185 0.074660584 -0.054908708 -0.121126726 -0.12075694 0.111597195 -0.16398692
-0.17225781 -0.016667873 0.02955094 0.034237772 0.08918987 0.09397791 -0.08161662 -0.17725347
0.009949923 0.089873806 0.16627447 0.020426914 -0.06666651 -0.19140199 -0.040946573 -0.15277755
-0.15071884 -0.18502271 0.08228256 -0.0280606 -0.04202111 -0.13922863 -0.08884294 0.071844205
0.06652404 0.10182075 -0.098911576 0.18192972 0.1511103 -0.09560213 0.17342211 0.040954113
0.034190506 0.09315558 0.19339128 0.074506834 -0.18149868 0.16340621 0.1335976 -0.15304387
0.11713968 -0.06158249 0.08448143 -0.112107374 -0.014558956 -0.06553574 -0.13006455 0.09068577
-0.18032733 0.15917034 -0.16375545 -0.1408621 0.19353272 -0.13989928 0.12239297 0.07496779
0.0036543608 -0.16235808 0.0050595105 0.001569584 -0.0410029 -0.052628964 -0.087294035 -0.13756207
0.1901593 -0.16463998 -0.019587487 0.19103207 -0.013385922 0.12971787 0.08363722 0.083083555
0.15490146 0.07314338 -0.15388012 0.030339763 -0.0021708459 0.038337916 -0.0349679 -0.12590376
0.027675435 0.1534426 0.092453435 -0.122964285 0.16634984 0.12768532 -0.024498194 -0.1760977
-0.00041122735 -0.108938456 -0.085363105 -0.13370796 -0.07825341 0.015556648 -0.07400057 -0.03781846
-0.14574437 -0.14879823 -0.11905398 0.19666065 0.018259048 0.016284555 0.023250744 -0.03619063
0.11552848 0.1275496 -0.052491933 0.18936352 0.15030809 0.006747648 -0.19155172 -0.11212688
-0.008532211 0.09510045 0.049818665 -0.16499925 0.00311324 0.14802407 0.03804028 0.17450584
0.16462107 -0.013265222 0.11445172 -0.18132997 0.16625471 -0.056869343 0.0007288903 0.10337852
-0.19055901 -0.0685561 -0.02160728 0.022926882 -0.021137029 -0.112808086 0.14530917 -0.08886979
0.06919618 -0.16605261 0.13415302 0.013958141 -0.08735855 -0.18026523 -0.053184226 0.00057446957
-0.10776436 0.06911649 0.065591976 0.050067797 -0.060732454 0.0076173544 -0.10707965 -0.19583833
-0.15435958 -0.045596123 0.079126135 -0.12598634 0.04035309 0.14550848 0.036009952 0.00075276196
-0.01953502 0.027420953 -0.013771325 0.09095527 -0.01886022 -0.081133105 0.086368814 -0.03535442
-0.19519523 -0.07608998 0.02717188 0.10869874 0.023951486 -0.08668802 0.06883563 -0.13966155
-0.1514953 0.10958259 0.03519766 0.16703643 -0.19786118 0.1224152 -0.039053366 -0.11154201
0.024587363 -0.09631579 -0.04448387 0.10939191 0.0029101074 -0.08663881 0.104775 -0.10024824
0.09420569 0.054295793 -0.15245526 -0.059973687 0.09760584 0.03697908 0.11172874 -0.0023790598
-0.13984187 0.14308177 0.18369095 -0.015171796 -0.19655657 -0.19091938 0.0043528974 0.0070287883
0.10582949 -0.19279805 0.04350023 -0.096349455 -0.15801267 0.116965964 -0.16909118 0.18705882
0.02096036 -0.09509645 0.13540389 -0.016135976 0.03259954 -0.13891912 0.09360935 -0.056088254
-0.17514245 -0.12261524 0.06739436 -0.14696434 -0.16450167 0.09082572 0.020212844 0.03739381
0.02722101 -0.06668195 0.16107668 -0.00096030533 0.10686244 -0.15429142 -0.05785811 -0.10633304
00000000: b058 e1bd 7673 13be e003 ecbd eb37 433e
00000010: 5466 41bd 90d7 babc 738a c8bd e101 1c3e
00000020: d990 073e c888 0a3d a6e7 983d f4e7 60bd
00000030: 4a11 f8bd 6a4f f7bd 128d e43d 30ec 27be
00000040: 5a64 30be 108b 88bc d014 f23c e83c 0c3d
00000050: 2ea9 b63d 7e77 c03d 9d26 a7bd ef81 35be
00000060: 0005 233c c20f b83d db43 2a3e 5856 a73c
00000070: 7488 88bd e2fe 43be 98b7 27bd b871 1cbe
00000080: 0a56 1abe 9876 3dbe c283 a83d 58df e5bc
00000090: 541e 2cbd f391 0ebe 4af3 b5bd 0e23 933d
000000a0: c23d 883d 6687 d03d 2792 cabd c94b 3a3e
000000b0: a9bc 1a3e 0dcb c3bd 9195 313e 80bf 273d
000000c0: 580b 0c3d 5ac8 be3d 5d08 463e 0a97 983d
000000d0: cada 39be f553 273e cfcd 083e 88b7 1cbe
000000e0: eee6 ef3d ec3d 7cbd 9a04 ad3d 8d98 e5bd
000000f0: b088 6ebc 9a37 86bd a42f 05be 76b9 b93d
00000100: baa7 38be 8dfd 223e 82af 27be 283e 10be
00000110: 712d 463e c241 0fbe 2aa9 fa3d b688 993d
00000120: 007e 6f3b 3241 26be 40ca a53b 80ba cd3a
00000130: a8f2 27bd 7891 57bd 37c7 b2bd 12dd 0cbe
00000140: 1fb9 423e 6297 28be f075 a0bc e99d 433e
00000150: a050 5bbc c3d4 043e fe49 ab3d b627 aa3d
00000160: 7d9e 1e3e 32cc 953d c092 1dbe 188b f83c
00000170: c044 0ebb 3808 1d3d 803a 0fbd eaec 00be
00000180: 98b7 e23c 0f20 1d3e 3a58 bd3d b3d4 fbbd
00000190: 9d57 2a3e f1bf 023e 70b0 c8bc f552 34be
000001a0: 009a d7b9 201b dfbd dad2 aebd bdea 08be
000001b0: 5343 a0bd 50e1 7e3c 9c8d 97bd 88e7 1abd
000001c0: 033e 15be 905e 18be 93d2 f3bd 6961 493e
000001d0: 0094 953c 3067 853c 5878 be3c a03c 14bd
000001e0: 329a ec3d 5d9c 023e c801 57bd 83e8 413e
000001f0: 5dea 193e 601b dd3b 2226 44be c7a2 e5bd
00000200: b0ca 0bbc 06c4 c23d a80e 4c3d 90f5 28be
00000210: 8007 4c3b 9f93 173e 20d0 1b3d a9b1 323e
00000220: 6d92 283e 6056 59bc aa65 ea3d 90ae 39be
00000230: ad3e 2a3e d4ef 68bd 0013 3f3a 1eb8 d33d
00000240: e721 43be 2467 8cbd c001 b1bc 28d1 bb3c
00000250: 9027 adbc ed07 e7bd edcb 143e 5d01 b6bd
00000260: bab6 8d3d b209 2abe 695f 093e b0b0 643c
00000270: 0ae9 b2bd 7397 38be b4d7 59bd 0098 163a
00000280: 90b3 dcbd f28c 8d3d 1655 863d e413 4d3d
00000290: 98c2 78bd 009b f93b 934c dbbd d889 48be
000002a0: 7010 1ebe 00c3 3abd e20c a23d 9002 01be
000002b0: 4849 253d 2d00 153e 2c7f 133d 0055 453a
000002c0: e807 a0bc e8a1 e03c 20a1 61bc c246 ba3d
000002d0: c080 9abc 1d29 a6bd 22e2 b03d cccf 10bd
000002e0: 42e1 47be 10d5 9bbd 9097 de3c 729d de3d
000002f0: e835 c43c 7d89 b1bd b2f9 8c3d 7003 0fbe
00000300: 9521 1bbe d66c e03d 6c2b 103d 990b 2b3e
00000310: 1f9c 4abe d2b4 fa3d 6cf6 1fbd 2370 e4bd
00000320: 706b c93c 3741 c5bd b834 36bd de08 e03d
00000330: 80b7 3e3b b06f b1bd 4694 d63d f34e cdbd
00000340: eaee c03d 4465 5e3d 3b1d 1cbe f8a6 75bd
00000350: 92e5 c73d 6077 173d 0ad2 e43d 00ea 1bbb
00000360: b532 0fbe 0784 123e 7b19 3c3e 2093 78bc
00000370: 2046 49be 5f80 43be c0a2 8e3b c051 e63b
00000380: 22bd d83d da6c 45be 4c2d 323d dd52 c5bd
00000390: 13ce 21be da8b ef3d 3d26 2dbe 598c 3f3e
000003a0: 10b5 ab3c edc1 c2bd 51a7 0a3e 982f 84bc
000003b0: 1887 053d d040 0ebe 42b6 bf3d ccbc 65bd
000003c0: 8b58 33be b31d fbbd 0e06 8a3d d27d 16be
000003d0: 2073 28be d602 ba3d 6895 a53c 402a 193d
000003e0: 98fe de3c 8c90 88bd 49f1 243e 00bd 7bba
000003f0: b2da da3d 92fe 1dbe a0fc 6cbd 23c5 d9bd

fc2.weight f4 [256, 512]
-0.01606347 0.017056592 -0.022640586 -0.034115877 0.024334017 0.020129468 -0.02869368 -0.034853783
0.02011859 0.032799575 0.023574505 0.023115035 0.0037356764 0.012846131 0.015506856 0.008921027
0.033645015 0.018127166 -0.011423882 0.031937946 0.031130914 0.038659427 -0.011656292 0.025917526
0.043326583 0.042452093 -0.009272065 0.021283153 -0.044055317 0.011449207 0.019421075 0.028550562
-0.024695793 0.033998203 0.04124267 -0.010092441 -0.007469438 -0.026316075 -0.024037886 0.040046778
0.036022257 -0.013068331 -0.0025262348 -0.01619291 0.032025363 0.019022826 0.016464133 -0.0018022135
0.041234035 -0.01913224 -0.029484775 -0.038671263 0.02954172 0.034449894 0.015585553 0.002332624
-0.025292123 0.041295726 0.04183926 -0.03001856 -0.031307954 -0.031174965 0.03263287 -0.03717415
-0.0071230754 0.015216798 0.0029143244 -0.015435556 -0.030347811 0.043299813 -0.033920337 -0.020463586
-0.032289155 -0.03815267 -0.038266182 0.026239995 0.026882563 0.020421494 0.020881135 -0.014665248
-0.039548527 0.0037489869 0.0032636113 -0.0033649579 0.033278394 0.021062668 0.01082515 0.041295964
-0.0078266375 -0.042046506 -0.038063362 -0.043136556 0.043580506 -0.00092701986 0.021719214 -0.043272436
-0.03928577 0.03777707 -0.035875197 0.04101677 -0.014821097 -0.009365492 -0.0019248426 0.016056348
-0.02255358 0.03595585 -0.03603945 0.010030802 -0.03958788 -0.013580799 0.0011208393 -0.005136274
0.031105693 0.028698053 -0.025010109 -0.01622671 -0.0042604916 0.0055953003 -0.0110987015 -0.028394517
0.005723048 0.0020627417 -0.0018569157 0.030328047 -0.002077248 0.006581448 -0.011204071 0.00027772784
0.033586357 -0.04119531 0.0026019253 -0.033926375 -0.039635118 -0.010307685 -0.042562347 -0.018010503
0.0052120164 -0.027124837 0.03585011 0.035432685 -0.02756504 0.0016696751 -0.01266038 -0.0054080114
-0.014879828 -0.03979481 -0.0067693405 -0.040089644 0.04015441 0.010968242 0.00041626394 -0.03717927
0.0119482875 0.0033780262 0.041501295 -0.03919606 -0.027237585 0.03202189 0.033914324 0.0005505942
0.026118856 -0.031254586 -0.01611784 -0.023128483 -0.0047193766 0.02215856 -0.034600798 -0.030885931
0.032017644 0.037045907 -0.044072546 0.034287598 -0.041321643 -0.008169588 0.009884141 -0.011737712
0.031321924 -0.032966726 -0.0026719086 -0.0021212175 -0.00977106 -0.010305785 -0.02172414 -0.01352909
0.034874644 -0.023989892 -0.014779761 -0.032048304 0.007900938 0.027592082 0.037481185 -0.030011822
-0.008854773 -0.028301086 0.0053383186 0.034222994 0.035799276 -0.0077036694 -0.026998475 -0.0319392
-0.027261851 -0.005086977 0.018174168 -0.012879264 0.013686284 0.036364097 -0.008789208 0.04260881
0.041952465 0.042299997 0.014836844 -0.002335146 0.018536638 -0.042188615 0.04348174 0.030481901
-0.035530556 0.036813993 0.0026253313 -0.043223258 -0.022404026 -0.0074460953 0.025353882 0.040299896
0.018148411 0.0023602247 -0.025513452 0.041704956 -0.037829988 -0.01924816 -0.04276344 -0.035185337
0.019930888 -0.016229887 0.037538093 0.016450785 -0.03818165 -0.024350667 0.04150818 0.033314217
0.027758237 -0.022066524 0.043868262 0.031180535 0.0363702 -0.01639897 0.026660677 -0.017968439
0.033592727 0.024941768 0.04127684 -0.0053021163 -0.009935223 0.020870943 0.029437792 0.010099027
00000000: 8a97 83bc 44ba 8b3c c078 b9bc 17bd 0bbd
00000010: 2258 c73c 8ee6 a43c 020f ebbc d7c2 0ebd
00000020: becf a43c d958 063d 521f c13c be5b bd3c
00000030: 40d2 743b 9478 523c 7810 7e3c 8029 123c
00000040: 5bcf 093d 6c7f 943c 3c2b 3bbc 5dd1 023d
00000050: 4206 ff3c 5959 1e3d 08fa 3ebc fe50 d43c
00000060: 3777 313d 3fe2 2d3d dce9 17bc 025a ae3c
00000070: 5973 34bd 7495 3b3c f218 9f3c dee2 e93c
00000080: d54e cabc b341 0b3d 13ee 283d c45a 25bc
00000090: 30c2 f4bb cf94 d7bc 1aeb c4bc 1708 243d
000000a0: 138c 133d 8e1c 56bc 308f 25bb fea6 84bc
000000b0: 072d 033d c2d5 9b3c cadf 863c 4038 ecba
000000c0: 05e5 283d 37bb 9cbc 0e8a f1bc c265 1ebd
000000d0: 7a01 f23c 551b 0d3d 8c5a 7f3c f0de 183b
000000e0: 6d31 cfbc b525 293d a55f 2b3d 7ce9 f5bc
000000f0: c53c 00bd a462 ffbc 0baa 053d ec43 18bd
00000100: b068 e9bb e04f 793c 40fe 3e3b 6ae5 7cbc
00000110: f99b f8bc 255b 313d 0df0 0abd 40a3 a7bc
00000120: a241 04bd f945 1cbd 00bd 1cbd 42f5 d63c
00000130: d238 dc3c fa4a a73c ea0e ab3c 8246 70bc
00000140: a3fd 21bd 90b1 753b 50e2 553b a086 5cbb
00000150: ed4e 083d 9e8b ac3c f85b 313c f525 293d
00000160: 4c3b 00bc f538 2cbd 54e8 1bbd f5af 30bd
00000170: 7981 323d 4003 73ba 7eec b13c 703e 31bd
00000180: 1eea 20bd 21bc 1a3d dff1 12bd 3301 283d
00000190: 30d4 72bc b871 19bc 004b fcba 9a88 833c
000001a0: 49c2 b8bc 7146 133d 1a9e 13bd 3c58 243c
000001b0: e726 22bd 0082 5ebc 20e9 923a 304e a8bb
000001c0: 5ed1 fe3c 2e18 eb3c 00e2 ccbc e1ed 84bc
000001d0: 989b 8bbb c858 b73b 54d7 35bc 9e9b e8bc
000001e0: 6888 bb3b 102f 073b c063 f3ba 8672 f83c
000001f0: 7022 08bb 30a9 d73b 4891 37bc 009c 9139
00000200: d991 093d 6abc 28bd 1085 2a3b 62f6 0abd
00000210: 6f58 22bd 90e1 28bc db55 2ebd c38a 93bc
00000220: 90c9 aa3b e834 debc 91d7 123d dd21 113d
00000230: 14d0 e1bc 00d9 da3a 7c6d 4fbc b035 b1bb
00000240: 86ca 73bc e2ff 22bd 58d1 ddbb 0a35 24bd
00000250: f378 243d 24b4 333c 003e da39 4a49 18bd
00000260: c0c2 433c e061 5d3b 43fd 293d 0c8c 20bd
00000270: 5b21 dfbc 6329 033d bfe9 0a3d c055 103a
00000280: 36f7 d53c cf04 00bd 8f09 84bc f277 bdbc
00000290: 00a5 9abb de85 b53c 91b9 0dbd 7e04 fdbc
000002a0: ef24 033d 73bd 173d 6a85 34bd 2771 0c3d
000002b0: e240 29bd bcd9 05bc 18f1 213c 884f 40bc
000002c0: 6b4b 003d 1e08 07bd 301b 2fbb 2004 0bbb
000002d0: cc16 20bc 98d9 28bc d3f6 b1bc 1ea9 5dbc
000002e0: b7d8 0e3d 7386 c4bc d026 72bc 1545 03bd
000002f0: f072 013c ca08 e23c df85 193d 5adb f5bc
00000300: 9c13 11bc aed7 e7bc 10ed ae3b 692d 0c3d
00000310: 43a2 123d 106f fcbb e82b ddbc aed2 02bd
00000320: 3f54 dfbc a8b0 a6bb fee1 943c 8c03 53bc
00000330: 703c 603c 85f2 143d 9c00 10bc 9386 2e3d
00000340: 59d6 2b3d c342 2d3d 3c16 733c 4009 19bb
00000350: 26da 973c f8cd 2cbd e919 323d 2eb5 f93c
00000360: 7d88 11bd 45ca 163d c00d 2c3b df0a 31bd
00000370: a688 b7bc 60fe f3bb f2b2 cf3c 8111 253d
00000380: faab 943c 00ae 1a3b 9601 d1bc d1d2 2a3d
00000390: 9ef3 1abd 51ae 9dbc b828 2fbd 801e 10bd
000003a0: 1a46 a33c 8af4 84bc 8bc1 193d ccc3 863c
000003b0: 5d64 1cbd 0d7b c7bc 7b04 2a3d 7d74 083d
000003c0: 3e65 e33c dbc4 b4bc 35af 333d 526e ff3c
000003d0: ebf8 143d 2257 86bc 7e67 da3c 8c32 93bc
000003e0: 8798 093d ae52 cc3c e711 293d 60bd adbb
000003f0: 58c7 22bc 8af9 aa3c 8627 f13c 6476 253c

fc2.bias f4 [256]
0.0002963543 -0.031040847 -0.035355467 -0.014224578 0.03245845 -0.021663243 -0.035934903 0.02414519
-0.030687958 0.020996977 0.013914488 0.033421513 -0.0016954727 -0.005897086 0.0017742366 -0.019505862
-0.018229196 -0.024440289 -0.010302488 0.01613392 0.02369697 -0.008231442 -0.024564896 -0.018614266
0.040389206 -0.0058408044 0.01651068 -0.032366913 0.027441557 0.010108575 0.011851203 -0.03423031
-0.04151619 -0.011256658 0.016479548 0.020460334 -0.028620934 0.035179015 -0.0072567984 -0.014257552
-0.03117901 0.031676356 0.039313156 -0.022717383 0.023166534 -0.023611296 -0.004053194 -0.01656396
0.008872744 0.023658503 -0.0404455 0.005270928 -0.008208789 -0.043011274 -0.024117816 -0.0104389675
0.041803833 0.037562463 0.009158868 -0.032213278 0.009776261 -0.020461557 0.024539579 -0.008791685
-0.020452326 -0.018499732 0.001151599 0.017397203 -0.04403196 0.04066943 -0.002958946 0.038825642
-0.019292098 -0.033100113 0.026377644 -0.013971658 0.03290968 0.008443266 -0.004128147 -0.020204961
-0.016752081 0.023677912 0.0011082105 -0.013887702 0.009163603 -0.035046753 0.0068457797 -0.0059890784
0.041325178 -0.008047972 -0.020877915 -0.040768776 0.034285653 -0.011797018 -0.02922304 -0.03513886
-0.011975553 0.011711381 -0.027878596 0.022479426 0.0177777 -0.004394226 0.04194397 0.032297414
-0.039252397 0.0018201731 0.005819414 -0.030561464 -0.036864415 -0.024489768 0.0074380375 -0.036435176
-0.0023488589 -0.01548825 -0.00017516315 -0.0074217916 0.023188602 0.0121379495 0.008951396 0.008616727
0.03137921 0.0033819936 -0.0125614405 -0.02864875 0.0024427958 -0.038667664 0.013162736 0.025778
0.013648957 -0.04379045 0.035429362 0.005178068 0.035091106 0.010498792 0.00059697405 0.025757488
0.008841403 0.0303129 -0.03680747 0.026161108 0.018364217 -0.03396336 -0.013965927 0.027676512
-0.023511488 -0.013687484 0.025524672 -0.012764066 0.0060983114 -0.022783605 -0.02953897 0.027430851
-0.018472996 0.041254792 0.043460425 0.03683832 -0.0033298656 0.026723128 -0.042851523 -0.011627208
-0.00065412 0.043492977 -0.034641843 0.0021190234 0.032046903 0.012850806 0.010208979 -0.041304637
-0.037725765 -0.019156981 -0.0029070005 -0.011339158 0.0032747611 0.0306109 -0.02068461 0.011748657
0.009822264 -0.033776063 -0.036492556 0.021473337 0.032681536 0.033342782 -0.041401017 -0.03422375
-0.0081923455 0.0068940446 0.030697446 -0.01742457 0.03670047 -0.0023631826 0.017798793 -0.024859607
-0.033944603 0.037243355 0.000200741 0.008452587 0.022214253 -0.02540368 0.020211767 0.023800146
0.013120178 0.0049158446 -0.04103336 -0.014269257 -0.02242579 -0.035475917 0.0015255213 0.007965259
0.031456877 0.028465379 -0.0041528195 0.02769002 0.018314097 -0.026628016 -0.024437696 0.016184095
0.021686468 0.016668074 0.0032302774 -0.027914269 -0.023329439 0.0102311 -0.015362436 -0.033470973
0.007727381 0.020825978 0.029464465 0.021707024 0.00028422102 0.023412365 0.013279509 0.031473335
-0.032652624 0.008053832 -0.013107596 0.01864716 -0.0016996041 -0.009690966 0.02494144 0.026453901
-0.02138285 -0.025683388 -0.020565534 -0.0356061 0.020446513 -0.004804086 0.04146633 0.013835765
0.0025912262 0.019225072 -0.022571918 -0.043866035 0.024858493 0.024561156 0.012854062 -0.026692806
00000000: 0060 9b39 6049 febc e5d0 10bd 340e 69bc
00000010: 27f3 043d 1d77 b1bc 7a30 13bd 22cc c53c
00000020: 5065 fbbc da01 ac3c 98f9 633c ffe4 083d
00000030: a03a deba 583c c1bb 808d e83a c2ca 9fbc
00000040: 6555 95bc 0037 c8bc c4cb 28bc 482b 843c
00000050: 2620 c23c 2cdd 06bc 523c c9bc f27c 98bc
00000060: 276f 253d 3864 bfbb 6841 873c 2b93 04bd
00000070: 1ecd e03c 709e 253c 8c2b 423c 1535 0cbd
00000080: e10c 2abd d86d 38bc 1e00 873c 6e9c a73c
00000090: 7376 eabc df17 103d 70ca edbb 8298 69bc
000000a0: 206b ffbc 11bf 013d d506 213d ce19 babc
000000b0: bec7 bd3c 7a6c c1bc a8d0 84bb 24b1 87bc
000000c0: fc5e 113c 7acf c13c 2eaa 25bd c0b7 ac3b
000000d0: 287e 06bc 972c 30bd ba92 c5bc 3408 2bbc
000000e0: 7f3a 2b3d 19db 193d 140f 163c 12f2 03bd
000000f0: 9c2c 203c ff9e a7bc 3a07 c93c 000b 10bc
00000100: a38b a7bc c08c 97bc 40f1 963a 9484 8e3c
00000110: db5a 34bd fd94 263d e0ea 41bb a307 1f3d
00000120: 760a 9ebc fc93 07bd ee15 d83c 62e9 64bc
00000130: 4dcc 063d a055 0a3c 6845 87bb e084 a5bc
00000140: a93b 89bc 2ef8 c13c 6041 913a 3e89 63bc
00000150: f022 163c 2f8d 0fbd 9052 e03b 0840 c4bb
00000160: 9744 293d a4db 03bc 2908 abbc 29fd 26bd
00000170: 1d6f 0c3d 4848 41bc 2865 efbc c4ed 0fbd
00000180: 1c35 44bc 18e1 3f3c a761 e4bc c626 b83c
00000190: 8aa2 913c 70fd 8fbb 71cd 2b3d 4b4a 043d
000001a0: 1fc7 20bd e092 ee3a c8b0 be3b 095c fabc
000001b0: 24ff 16bd c49e c8bc c8ba f33b 0d3d 15bd
000001c0: 50ef 19bb 6ec2 7dbc 00ac 37b9 8032 f3bb
000001d0: 06f6 bd3c 40de 463c e0a8 123c 2c2d 0d3c
000001e0: 7d87 003d 70a4 5d3b 80ce 4dbc c9b0 eabc
000001f0: 5017 203b fc61 1ebd 84a8 573c 622c d33c
00000200: e09f 5f3c 9d5d 33bd 611e 113d c8ac a93b
00000210: b1bb 0f3d 2003 2c3c 407e 1c3a 5e01 d33c
00000220: 88db 103c c252 f83c 6ec3 16bd d24f d63c
00000230: 8e70 963c 2a1d 0bbd 58d1 64bc dab9 e23c
00000240: 2a9b c0bc 7841 60bc 1e19 d13c 6020 51bc
00000250: 58d4 c73b afa4 babc b6fb f1bc aab6 e03c
00000260: ae54 97bc c9fa 283d 8f03 323d c7e3 163d
00000270: e039 5abb 76ea da3c 1485 2fbd 0c80 3ebc
00000280: 4079 2bba b125 323d 9be4 0dbd 50df 0a3b
00000290: 9d43 033d 308c 523c 9043 273c 0d2f 29bd
000002a0: 5586 1abd 1aef 9cbc 6083 3ebb e0c7 39bc
000002b0: 609d 563b b6c3 fa3c c572 a9bc 707d 403c
000002c0: 90ed 203c c558 0abd 3879 15bd dae8 af3c
000002d0: 13dd 053d 7192 083d 1d94 29bd 342e 0cbd
000002e0: 3039 06bc 70e7 e13b 3679 fb3c f9bd 8ebc
000002f0: 3b53 163d a0df 1abb c6ce 913c 60a6 cbbc
00000300: 7f09 0bbd 7d8c 183d 007e 5239 b87c 0a3c
00000310: aafa b53c 611b d0bc 2693 a53c 86f8 c23c
00000320: 04f6 563c 1815 a13b 9912 28bd 9ac9 69bc
00000330: 4ab6 b7bc 324f 11bd 00f4 c73a b880 023c
00000340: edd8 003d 3a30 e93c 6014 88bb 2ed6 e23c
00000350: 7207 963c ff22 dabc 9031 c8bc 8294 843c
00000360: d2a7 b13c 7c8b 883c 10b3 533b 77ac e4bc
00000370: 611d bfbc 58a0 273c bab2 7bbc dc18 09bd
00000380: f835 fd3b 3e9b aa3c 765f f13c eed2 b13c
00000390: 8003 9539 4acb bf3c 4c92 593c 2fea 003d
000003a0: c2be 05bd 38f4 033c 3ec1 56bc eec1 983c
000003b0: 40c5 deba dcc6 1ebc fe51 cc3c dab5 d83c
000003c0: 162b afbc f865 d2bc 0d79 a8bc b4d7 11bd
000003d0: 727f a73c 986b 9dbb 99d8 293d 68af 623c
000003e0: 90d1 293b e67d 9d3c bee8 b8bc dfac 33bd
000003f0: 0aa4 cb3c 7a34 c93c d899 523c dfaa dabc

fc3.weight f4 [128, 256]
-0.041826993 -0.022601314 0.01576227 -0.049931586 -0.015170433 0.019552983 -0.012667753 0.011449903
-0.03399121 -0.042194925 0.053658426 -0.043342717 -0.028134674 -0.03900098 0.011608422 -0.041290596
-0.04713752 -0.012309842 0.0044295117 0.03139834 -0.019631736 -0.028289571 -0.026045598 0.03723663
-0.016512685 -0.005013868 0.05315479 0.035295933 0.04219275 -0.05247534 -0.05074589 0.007381566
0.016566157 -0.011863105 -0.061485432 0.04682149 0.004196033 0.0582159 0.033880502 -0.0116426945
0.02393999 -0.044907503 0.05375369 -0.030063607 0.05608201 -0.030980907 0.029073663 0.04245852
-0.013367988 0.014610045 -0.0019911006 0.0038409382 -0.018236428 -0.023116834 0.04239519 -0.049618416
0.03374242 -0.019292578 0.044249408 0.04538306 0.020863354 -0.045031816 -0.02559866 -0.03025297
-0.025709935 -0.017686434 0.05331707 -0.006496936 -0.04248683 -0.052178964 -0.06067366 -0.0018350482
-0.0217534 0.05451478 0.00011456013 -0.026566267 -0.008235253 0.01015313 0.01679217 0.052333646
0.005089678 0.06073782 0.010095343 0.043552183 -0.04071811 0.02445507 0.015627332 0.025095046
-0.03210424 0.0425675 0.053749673 0.019661888 -0.039627045 0.006179303 -0.05740951 0.037374713
0.045034945 0.047230653 0.007338278 -0.057523243 0.03360878 0.0034348369 -0.04898613 -0.014867067
-0.061894007 -0.033554435 0.036258936 -0.043499023 -0.03921806 -0.0469942 -0.022092171 0.028554864
-0.0044948086 -0.019835979 0.057417504 -0.021606386 0.05789963 0.00799837 -0.0607237 0.017099656
0.01719112 -0.008166216 0.031946212 0.019157402 -0.01073119 -0.004531771 -0.038814403 0.0005717799
0.039477445 0.002696745 -0.03621503 -0.0026178434 0.017776638 0.00030118227 0.044942126 0.019243479
-0.021752566 -0.047484547 0.027141005 -0.013898484 -0.014646441 -0.011069804 -0.006261833 0.0099454075
0.0061252266 0.0071085095 -0.00778237 0.0014537349 0.012562588 -0.038659915 -0.048837766 -0.055586807
-0.023543574 -0.02002585 -0.0019702986 -0.020254642 -0.041139513 -0.027717903 0.04737865 -0.02412223
-0.019784115 -0.052934773 -0.038045652 0.03749253 -0.02992563 -0.0011830628 0.036633298 -0.032466076
0.049756713 0.04599277 -0.026995115 -0.03765156 -0.024743281 0.017858118 0.03933247 0.040774055
0.037162326 -0.05206293 -0.033494927 -0.05557385 0.055997506 -0.038721487 -0.03617453 0.030676581
0.051414825 -0.029730216 0.037379757 -0.02091328 -0.0049908906 -0.053226344 0.0060630143 -0.0029814988
-0.02742514 0.04392445 0.039889254 0.0077638403 -0.035151213 -0.02353347 0.023112886 0.012310334
-0.036751896 0.011245787 0.03624446 0.003690742 0.030082792 0.017607428 0.058268905 -0.016607337
-0.04955508 -0.03966205 -0.021943122 -0.051128782 -0.024797529 0.020658843 0.0076996386 -0.0040515885
0.040516756 0.037397854 0.012903497 -0.062329702 0.060868993 0.022647262 0.04548434 0.009357795
0.046327643 0.056855783 -0.04333958 0.03531205 -0.02922178 0.006309822 -0.053931467 0.05339422
0.052943453 -0.023309946 0.0072893053 -0.017991059 0.06060221 0.04450702 0.0043841153 -0.0064693317
-0.015009351 0.007847071 0.004983373 0.009697422 0.06035717 0.012411632 0.021565624 -0.05145552
-0.055541188 0.031040415 0.010859892 0.027473435 -0.007420175 -0.04989299 0.011311479 0.029691048
00000000: c852 2bbd 6426 b9bc e01f 813c 1085 4cbd
00000010: 688d 78bc 942d a03c 688c 4fbc 6098 3b3c
00000020: 5e3a 0bbd 96d4 2cbd f0c8 5b3d 2288 31bd
00000030: b07a e6bc 7ebf 1fbd 4031 3e3c 5420 29bd
00000040: 4613 41bd 38af 49bc 7025 913b 8c9b 003d
00000050: bcd2 a0bc 88bf e7bc 945d d5bc 7085 183d
00000060: 9c45 87bc 604b a4bb d6b8 593d 7892 103d
00000070: 4ed2 2c3d 62f0 56bd ecda 4fbd 10e1 f13b
00000080: c0b5 873c 785d 42bc 26d8 7bbd e4c7 3f3d
00000090: e07e 893b cc73 6e3d 48c6 0a3d 00c1 3ebc
000000a0: cc1d c43c eef0 37bd d42c 5c3d f447 f6bc
000000b0: 40b6 653d accb fdbc e42b ee3c fce8 2d3d
000000c0: 6805 5bbc f85e 6f3c 207d 02bb 40b8 7b3b
000000d0: 9064 95bc 845f bdbc 94a6 2d3d ae3c 4bbd
000000e0: 7e35 0a3d 780b 9ebc de3e 353d 96e3 393d
000000f0: a0e9 aa3c 4873 38bd 48b4 d1bc 14d5 f7bc
00000100: a49d d2bc 24e3 90bc 0063 5a3d 40e4 d4bb
00000110: ac06 2ebd 9cb9 55bd f284 78bd 0086 f0ba
00000120: 3034 b2bc e44a 5f3d 0040 f038 80a1 d9bc
00000130: 28ed 06bc 5059 263c bc8f 893c ce5b 563d
00000140: 50c7 a63b 38c8 783d f066 253c c663 323d
00000150: 08c8 26bd 0056 c83c e404 803c 2094 cd3c
00000160: bc7f 03bd 425b 2e3d 9e28 5c3d f811 a13c
00000170: f84f 22bd c07b ca3b 3c26 6bbd 3a16 193d
00000180: 9076 383d ee74 413d f075 f03b 7e9d 6bbd
00000190: 5ca9 093d 001b 613b aea5 48bd 0095 73bc
000001a0: 9284 7dbd 6070 09bd 4084 143d 082c 32bd
000001b0: 1ea3 20bd fe7c 40bd a4fa b4bc e4eb e93c
000001c0: 3049 93bb 107f a2bc 9e2e 6b3d e0ff b0bc
000001d0: 2a28 6d3d 980b 033c 6ab9 78bd 9414 8c3c
000001e0: 64d4 8c3c 98cb 05bc 08da 023d fcef 9c3c
000001f0: e0d1 2fbc 407f 94bb dafb 1ebd 80e3 153a
00000200: 1ab3 213d e0bb 303b 3656 14bd 2090 2bbb
00000210: 50a0 913c 00e8 9d39 3c15 383d 80a4 9d3c
00000220: 7032 b2bc 287f 42bd d056 de3c 78b6 63bc
00000230: a0f7 6fbc 205e 35bc 1030 cdbb 10f2 223c
00000240: 20b6 c83b 80ee e83b 4003 ffbb 408b be3a
00000250: 50d3 4d3c dc59 1ebd 1c0a 48bd feae 63bd
00000260: 74de c0bc 400d a4bc 2020 01bb 10ed a5bc
00000270: e881 28bd a810 e3bc 1e10 423d fc9b c5bc
00000280: 4c12 a2bc 22d2 58bd c2d5 1bbd c491 193d
00000290: 9826 f5bc 0011 9bba cc0c 163d 26fb 04bd
000002a0: b2cd 4b3d ea62 3c3d dc24 ddbc 8638 1abd
000002b0: 6cb2 cabc 304b 923c 161b 213d b202 273d
000002c0: 8637 183d f03f 55bd fa31 09bd 68a1 63bd
000002d0: a45d 653d 6c9a 1ebd be2b 14bd 744d fb3c
000002e0: 5a98 523d c88c f3bc 841b 193d 5452 abbc
000002f0: a08a a3bb de03 5abd 40ac c63b 4065 43bb
00000300: b0aa e0bc 20ea 333d ea62 233d d067 fe3b
00000310: b8fa 0fbd 44c9 c0bc 3c57 bd3c 48b1 493c
00000320: 2889 16bd 4040 383c 1275 143d 60e0 713b
00000330: 3070 f63c 743d 903c 60ab 6e3d 1c0c 88bc
00000340: 44fa 4abd ac74 22bd 10c2 b3bc 6a6c 51bd
00000350: 3024 cbbc bc3c a93c 404d fc3b 30c3 84bb
00000360: e6f4 253d 7e2e 193d 3069 533c 6e4d 7fbd
00000370: c451 793d c086 b93c ca4d 3a3d 7051 193c
00000380: 0ec2 3d3d 9ce1 683d d884 31bd 5ea3 103d
00000390: 8462 efbc a0c2 ce3b 3ee7 5cbd e6b3 5a3d
000003a0: 3cdb 583d 80f4 bebc 20db ee3b fc61 93bc
000003b0: 063a 783d fe4c 363d a0a8 8f3b b0fc d3bb
000003c0: c8e9 75bc 0091 003c 904b a33b f0e1 1e3c
000003d0: 1439 773d 285a 4b3c 64aa b03c 06c3 52bd
000003e0: 287f 63bd 7848 fe3c b0ed 313c f80f e13c
000003f0: f024 f3bb 985c 4cbd c853 393c a43a f33c

fc3.bias f4 [128]
-0.058986753 -0.06003975 0.0057982504 -0.017194964 -0.007741168 -0.024853647 -0.02934125 0.0401048
0.014406338 -0.010527782 0.012374863 0.029863305 -0.015790999 -0.030879758 0.038535528 0.0003110394
-0.03715095 0.041323587 0.049056306 0.05711536 -0.042242564 0.055340357 -0.021934502 -0.03991521
0.013618067 -0.029616058 -0.027346268 -0.024095803 0.04542984 0.04653828 0.024573155 0.029860444
0.015516803 0.036117636 0.046639606 -0.052228138 0.032770053 0.033561684 0.00869792 -0.048781686
0.033587903 -0.043108173 -0.017248325 0.0039971694 -0.00397069 0.011606999 -0.038266785 0.061225124
-0.02612178 0.0103996545 -0.026209265 -0.001602523 -0.061870426 -0.017831385 -0.042273015 0.02601955
0.036873735 -0.059186988 0.023759931 -0.034971736 -0.058310628 -0.008691587 -0.058977105 0.03686542
0.01536043 0.033053547 0.012490824 -0.01968465 0.03496185 -0.059299864 -0.059723124 0.037870638
0.04539063 0.05492477 -0.020003542 -0.0100676045 0.038395792 -0.029371284 -0.05963295 0.019134931
-0.03897599 -0.03588038 0.015667297 -0.04541999 -0.031279504 0.01488585 0.019125663 -0.017226867
0.04371079 0.038231842 0.06193831 -0.021664396 0.049096994 -0.06051334 0.03261953 0.01754947
0.035860233 -0.04945963 -0.011166178 0.031839527 -0.020378612 0.016009688 0.022084087 -0.050442457
0.053751804 -0.052518114 0.058300287 -0.054916397 -0.04418786 0.040765308 -0.04341989 -0.038389057
0.05046791 0.053305104 -0.016518086 -0.013249047 -0.01503288 -0.043013953 -0.054670155 0.011226982
0.04889155 -0.028023437 -0.048548594 0.012666412 -0.022006273 0.041898377 -0.024260283 -0.0023848787
00000000: 189c 71bd 3eec 75bd 40ff bd3b 74dc 8cbc
00000010: a0a9 fdbb e099 cbbc 105d f0bc ee44 243d
00000020: 9008 6c3c b87c 2cbc f0bf 4a3c e4a3 f43c
00000030: 205c 81bc 8cf7 fcbc 6ed7 1d3d 0013 a339
00000040: 982b 18bd ec42 293d 44ef 483d ccf1 693d
00000050: 8a06 2dbd 92ac 623d fcaf b3bc 227e 23bd
00000060: 501e 5f3c 609d f2bc 4805 e0bc 9064 c5bc
00000070: a414 3a3d ec9e 3e3d a44d c93c e49d f43c
00000080: 303a 7e3c 16f0 133d 2c09 3f3d 2ced 55bd
00000090: e439 063d fa77 093d b881 0e3c 4ecf 47bd
000000a0: 7893 093d 3292 30bd 5c4c 8dbc b0fa 823b
000000b0: 901c 82bb 482b 3e3c a2bd 1cbd 32c7 7a3d
000000c0: 58fd d5bc 5063 2a3c d0b4 d6bc c00b d2ba
000000d0: d86b 7dbd 2013 92bc 7826 2dbd f426 d53c
000000e0: ea08 173d 0e6e 72bd 30a4 c23c 863e 0fbd
000000f0: 20d7 6ebd 2867 0ebc fa91 71bd 3200 173d
00000100: 50aa 7b3c 2863 073d 50a6 4c3c b441 a1bc
00000110: 2834 0f3d 6ae4 72bd 3ca0 74bd 3e1e 1b3d
00000120: 86eb 393d ccf8 603d 78de a3bc 98f2 24bc
00000130: e844 1d3d 0c9c f0bc ae41 74bd dcc0 9c3c
00000140: 4aa5 1fbd 4ef7 12bd b458 803c 500a 3abd
00000150: f01e 00bd c8e3 733c 6cad 9c3c 5c1f 8dbc
00000160: 160a 333d fe98 1c3d 06b3 7d3d 8879 b1bc
00000170: ee19 493d d6dc 77bd 0e9c 053d e8c3 8f3c
00000180: 2ee2 123d 2e96 4abd 58f2 36bc 2a6a 023d
00000190: 0cf1 a6bc c026 833c b0e9 b43c c09c 4ebd
000001a0: da2a 5c3d 3c1d 57bd 48cc 6e3d 04f0 60bd
000001b0: 54fe 34bd 86f9 263d 0ed9 31bd d83d 1dbd
000001c0: 70b7 4e3d 7456 5a3d f050 87bc 8812 59bc
000001d0: 784c 76bc 662f 30bd d0ed 5fbd 60f1 373c
000001e0: 8242 483d 6891 e5bc e4da 46bd c886 4f3c
000001f0: 8046 b4bc a29d 2b3d 80bd c6bc a04b 1cbb

fc4.weight f4 [15, 128]
-0.045706853 -0.08099504 -0.021465167 -0.04532958 0.06861087 0.022479355 -0.015408628 0.069484405
-0.06237724 -0.066904426 -0.085215524 -0.086508036 0.02078712 0.07263339 0.0055414364 -0.05629094
0.08345982 0.01673913 0.08296024 0.0860639 0.042563327 -0.009637579 0.06701776 0.024892382
0.08310685 -0.012919307 -0.08406666 0.038510032 -0.06586405 -0.006731853 -0.0109606385 -0.00917232
-0.08484999 -0.03532846 -0.08295288 -0.08275965 -0.07446871 -0.08221633 0.04660607 -0.011475049
0.0011065975 0.054069154 0.037959166 0.044901602 0.055364884 -0.07723622 0.037923075 -0.027123384
0.075593404 -0.08501946 0.0058208406 -0.061015256 -0.05906497 0.071355574 0.025258712 -0.0715671
0.05358558 -0.05187946 0.060921602 -0.006014757 -0.03904289 0.049462967 -0.018210128 -0.013472907
0.02631957 -0.012912698 -0.08123786 0.012458496 -0.025970023 0.001951389 0.04268881 0.006912209
0.028992645 0.037681215 0.0027024448 -0.06247205 -0.02823329 -0.063592374 -0.087983176 -0.006576784
-0.007999852 0.0059488565 -0.0013800785 0.0020851642 -0.066696174 -0.029362138 0.060606442 0.08324688
0.06287878 0.013756022 -0.047635444 -0.017777175 0.08543784 0.04517264 -0.0541923 0.08771131
0.040451013 0.00984291 -0.05361746 0.07116341 0.075998686 -0.014403097 -0.0061554834 0.051996805
0.038048826 0.030965552 -0.053345677 0.0062895194 0.06678077 -0.08654226 0.022140644 -0.05562036
-0.010422058 0.08345652 0.029048085 -0.042630028 0.05693198 0.078439884 0.029661022 0.08382062
0.022227153 -0.07790968 -0.0057306364 -0.059332635 0.02648867 0.04680889 0.011359103 0.079782344
0.06397306 0.021791913 -0.04887435 -0.05133998 -0.04357124 -0.07637739 0.052295096 -0.024866544
0.020954832 -0.03394563 8.568168e-06 0.046336494 0.05427126 -0.07311412 -0.059807558 0.017220244
-0.060659386 -0.07502671 0.02358684 0.06723253 -0.03076132 -0.07859535 -0.016099826 -0.035118513
-0.013309486 0.037245713 -0.039086238 -0.08218847 -0.08709313 -0.06958586 -0.08252324 0.07104587
0.07315142 -0.05288462 -0.08024123 0.015322372 -0.025002226 -0.025302537 0.034900688 -0.03879846
0.085428245 -0.031138975 0.048147105 -0.06508392 0.022932447 0.040015586 -0.074302 -0.07747374
0.0114745945 -0.009310693 -0.018257506 -0.086462185 0.054836743 0.03844098 0.045682706 0.056322314
-0.047467623 -0.045640897 -0.08093887 -0.08334358 -0.035208803 0.08572876 0.016257264 -0.021233521
0.014874078 0.055757083 -0.0074277744 -0.06278953 0.06671771 0.08084869 0.004301563 -0.04533219
0.016249083 -0.039564542 0.08260871 -0.07779497 0.06652842 -0.032642134 0.010111257 -0.07353804
0.028299093 -0.027482696 0.07048703 0.007843897 -0.08125493 0.019198366 -0.061873175 0.03035833
0.06736945 0.02454117 -0.08564526 0.04198324 0.066141106 -0.0020007342 0.023272738 0.036106423
0.045710035 0.08469228 0.013107881 0.03791476 0.06327904 0.07930193 -0.06649814 0.039443366
-0.08090691 0.0026848689 -0.034246434 0.007780738 0.056642525 -0.0871904 0.08411781 0.062937565
-0.057451442 0.020641252 0.058463417 0.0858938 -0.013580397 -0.057961397 -0.04644607 -0.019942194
0.05934497 -0.0659278 0.07963384 0.0636613 -0.04314967 0.0037178919 -0.060039774 -0.020298056
00000000: 1c37 3bbd bae0 a5bd b8d7 afbc 82ab 39bd
00000010: db83 8c3d a026 b83c 7874 7cbc d74d 8e3d
00000020: 477f 7fbd 3005 89bd 7a85 aebd 202b b1bd
00000030: c049 aa3c d1c0 943d f094 b53b 5491 66bd
00000040: fbec aa3d 8020 893c 0fe7 a93d 4542 b03d
00000050: e256 2e3d f0e6 1dbc 9b40 893d 1ceb cb3c
00000060: ed33 aa3d 80ab 53bc 242b acbd b2bc 1d3d
00000070: bbe3 86bd e096 dcbb 4094 33bc 8047 16bc
00000080: d5c5 adbd 93b4 10bd 33e3 a9bd e47d a9bd
00000090: 0d83 98bd 0961 a8bd 02e6 3e3d d801 3cbc
000000a0: 400b 913a 9e77 5d3d 127b 1b3d beea 373d
000000b0: 4ac6 623d 062e 9ebd 3a55 1b3d dc31 debc
000000c0: b7d0 9a3d af1e aebd c0bc be3b 22eb 79bd
000000d0: 1cee 71bd df22 923d 5ceb ce3c c691 92bd
000000e0: 8e7c 5b3d 8f7f 54bd ee88 793d 7017 c5bb
000000f0: 70eb 1fbd ae99 4a3d 682d 95bc 78bd 5cbc
00000100: 249c d73c c88f 53bc 0960 a6bd b81e 4c3c
00000110: 16bf d4bc c0c5 ff3a 76da 2e3d d07f e23b
00000120: fc81 ed3c 9e57 1a3d 801b 313b b1e2 7fbd
00000130: 8049 e7bc b83c 82bd 8630 b4bd 1082 d7bb
00000140: d011 03bc a0ee c23b c0e3 b4ba 40a7 083b
00000150: 0198 88bd de88 f0bc 763e 783d 577d aa3d
00000160: 97c6 803d f060 613c 621d 43bd 70a1 91bc
00000170: 09fa ae3d f206 393d bff8 5dbd fda1 b33d
00000180: f6af 253d 2844 213c fb9d 5bbd 1fbe 913d
00000190: 33a5 9b3d f8fa 6bbc f0b3 c9bb 9afa 543d
000001a0: 16d9 1b3d 78ab fd3c ff80 5abd 5018 ce3b
000001b0: 5bc4 883d 123d b1bd 4c60 b53c 2dd2 63bd
000001c0: 48c1 2abc 41eb aa3d 40f6 ed3c d39c 2ebd
000001d0: 8231 693d 17a5 a03d acfb f23c 25aa ab3d
000001e0: b815 b63c 1c8f 9fbd 10c8 bbbb c706 73bd
000001f0: c4fe d83c aeba 3f3d 881b 3a3c ed64 a33d
00000200: 4f04 833d f484 b23c 7830 48bd df49 52bd
00000210: c277 32bd c06b 9cbd 6233 563d ecb4 cbbc
00000220: 78a9 ab3c 930a 0bbd 00c0 0f37 56cb 3d3d
00000230: 8a4b 5e3d dbbc 95bd c5f8 74bd 7811 8d3c
00000240: fa75 78bd 9ba7 99bd 3039 c13c 35b1 893d
00000250: 2aff fbbc 99f6 a0bd c8e3 83bc 6ed8 0fbd
00000260: 0810 5abc f68e 183d e418 20bd 6e52 a8bd
00000270: e25d b2bd 0883 8ebd f201 a9bd 7f80 913d
00000280: 69d0 953d 8b9d 58bd 8455 a4bd b00a 7b3c
00000290: 78d1 ccbc 4447 cfbc 06f4 0e3d 22eb 1ebd
000002a0: 01f5 ae3d 2a17 ffbc e635 453d b84a 85bd
000002b0: d4dc bb3c 62e7 233d a62b 98bd 8daa 9ebd
000002c0: f0ff 3b3c e08b 18bc c490 95bc 1613 b1bd
000002d0: 7e9c 603d 4a74 1d3d ca1d 3b3d 3ab2 663d
000002e0: 696d 42bd f3f1 3abd 47c3 a5bd 0ab0 aabd
000002f0: 1b37 10bd 8f92 af3d f42d 853c ecf1 adbc
00000300: 68b2 733c 8a61 643d b064 f3bb cc97 80bd
00000310: 4ba3 883d ff93 a53d 20f4 8c3b 3fae 39bd
00000320: cc1c 853c 6e0e 22bd c12e a93d f852 9fbd
00000330: 0d40 883d c2b3 05bd b0a9 253c 1d9b 96bd
00000340: 80d3 e73c 6423 e1bc 815b 903d b083 003c
00000350: fc68 a6bd e445 9d3c ba6e 7dbd 08b2 f83c
00000360: fff8 893d 900a c93c c866 afbd 9ef6 2b3d
00000370: fd74 873d c01e 03bb 78a6 be3c 54e4 133d
00000380: 723a 3b3d 2573 ad3d 70c2 563c 824c 1b3d
00000390: 7198 813d 0d69 a23d 2d30 88bd 5e8f 213d
000003a0: 86b2 a5bd a0f4 2f3b fd45 0cbd 90f5 fe3b
000003b0: fe01 683d e190 b2bd f545 ac3d 69e5 803d
000003c0: 3452 6bbd d817 a93c 5677 6f3d 17e9 af3d
000003d0: 5080 5ebc ee68 6dbd 3c3e 3ebd d05d a3bc
000003e0: b613 733d 2805 87bd 1117 a33d db60 823d
000003f0: b5bd 30bd e0a7 733b 44ec 75bd 1c48 a6bc

fc4.bias f4 [15]
0.026430435 -0.023040004 0.0048610196 0.06488369 0.029289491 -0.010028012 0.0059320703 0.0006403923
0.007522598 -0.07868626 -0.008431442 0.059963994 -0.08221695 -0.085347556 -0.07095559
00000000: a484 d83c 64be bcbc 3049 9f3b bde1 843d
00000010: 84f0 ef3c 884c 24bc d061 c23b 00e0 273a
00000020: 2080 f63b 4326 a1bd 0824 0abc ce9c 753d
00000030: 5c61 a8bd b3ca aebd 2a51 91bd
